results/bomber-v1/Bomberman/Bomberman-3999988.onnx (onnx, 851372 bytes, 9 tensors)

103 f4 [1, 256, 256]
00000000: 680c 30bc 685e 413c a2bf 7b3d d907 11be
00000010: 2871 8bbd 39d3 093e efc8 63be c66b 813d
00000020: ecb9 d63b 75e4 1d3d 5a7e 31be 48c5 f8bc
00000030: 65e9 813d 0868 343d c321 cabd 9af8 9d3c
00000040: ed8e 043d 364e 513d 9304 613e e9ad 8cbe
00000050: deda c5bd 1c0b 0ebd 8957 6c3c 1c0c 333e
00000060: 2e3c fcbd 9b26 6fbc c8f6 523d e9d7 d83d
00000070: 893c 203e fe55 673d 11f1 54bd cc6c 99bd
00000080: a193 a0bd 1dc6 273e 86f9 063e e030 cfbd
00000090: 0292 353c 211b 40bd af2e bfbd 76cb 523d
000000a0: 6c15 ffbc ac70 d0bd b347 d93d 4c5d 3bbd
000000b0: f127 8a3c 06e7 dcbd c7ba 263b b11c 1dbe
000000c0: 8de7 e13d 51ee 473e 053c cd3d f0bb 9f3d
000000d0: a80a 25be 880b 1cbb b455 8d3e 36d1 c6bd
000000e0: e87e a13d 6d44 fb3d 4fd6 e53d 589e b1bd
000000f0: 61ae cebd 62b3 1bbd 3716 f63d 33a1 ef3d
00000100: 2b32 23bc 3636 e13d 7edc 02bd 8afb 923d
00000110: 61c8 593e f316 89be ab2a ac3c 0352 6abc
00000120: 1787 df3d c1aa 48bc f9d6 b4bd 2f67 10be
00000130: 6d40 db3b f420 3bbe 23e6 3c3e 8b69 65bc
00000140: aa3b 413c ddcd 303e 6e03 0d3e 38c8 eabd
00000150: d9dc d03b 5a83 20be 8e87 71be 9dba c5bd
00000160: 5363 e4bd 6a16 573b 3a77 27be 842f 30be
00000170: d91f 443d ab09 26be 8693 353d ce28 b63d
00000180: 41b3 e73d 46ab ccbd 9996 0e3e 5da8 eabd
00000190: c003 5c3d 9bc7 cbbc af85 b7be 6cca 9f3d
000001a0: e127 d13c c862 5fbc 92b0 053e f056 80bd
000001b0: 640c afbc b6ee 97bd c1d2 6fbd aea6 483c
000001c0: 98cb 13be c061 04be 8a42 87bd 4bca 033e
000001d0: c0b0 633d c7ba 4ebe 80a6 6fbd 8d06 d3bc
000001e0: 765b b5bd d96a 8fbd df86 1b3e 3607 913d
000001f0: 7e73 56bc d1c8 27bd 5720 5b3c 0c64 c8bc
00000200: 36d3 13be 6c16 fe3d 0357 853d 8524 483c
00000210: df25 123d 5d6d 5cbd 1400 debc 4fad 01be
00000220: 8434 103e 354b 623d ab2b 01be 2bcd ef38
00000230: d357 38bd 84e1 133a fe03 90bd fa13 9f3d
00000240: ee99 4d3c faf9 b23c 313b 1fbc 46ec 363e
00000250: 13ca b8bd d7da b2bd 75c2 073e a236 99bc
00000260: 57a0 99bc 160f 313e 2e4e 05bd a9fc 6d3e
00000270: 2a35 283d 6b87 083c 24b4 073e bc8d 32be
00000280: 8115 75bd 850a a9bd db57 8d3d 4efb c53d
00000290: 3042 7d3d 358b 66bd 3df2 693d bd2e 8dbe
000002a0: d797 883d 5f37 983d a0b3 2f3d 1540 81bc
000002b0: 5659 a83b 76ab 62be 30b8 0cbe 2e29 9b3d
000002c0: 07ca 93bd f7c8 1fbd 8af2 a3bc 55a1 65bd
000002d0: 8064 45bd e5a0 953c 79d8 01be 2db4 543e
000002e0: a2a3 6ebe be68 8ebd e622 a0bd d17c 0fbe
000002f0: de93 1bbe 8532 c5bd 7c9c f53d cb8e ecbd
00000300: ca7b d7bc 8085 a83d d5fd f2bd 7a0b 21bc
00000310: f44d 4a3e d014 253e 0ebb f8bc 2253 bdbd
00000320: a52a 6f3e 7944 c8bd 5b48 a4ba a56b 9d3d
00000330: bd05 1dbb b79c dbbd dbc1 8a3e b75e f5bd
00000340: 2da9 473e 94d8 41bd 59c9 233d 8a20 02be
00000350: 8e12 2e3d 5a30 053d fe7f 233d eba6 1bbe
00000360: d1da af3d e763 d2bd 6532 53be 0a61 d0bb
00000370: 6a5a 4abe 4452 1b3d c3b9 a7be 86ab 2abc
00000380: 42f4 edbd 3d0e 4fbe cde7 393e 70cd 223e
00000390: aa57 5d3d 4bc8 903c b463 df3b 3cd6 233d
000003a0: b827 6dbd 8913 7fbd e621 85bd 1ccd f63c
000003b0: 633b 58bd 0012 b8bd aaa1 eabd 3120 6a3e
000003c0: 046b 10be 2205 51be ffb2 7fbd 5852 b93c
000003d0: 1e31 e1bc 40ff a63d 7edd 8c3d 9620 223d
000003e0: 2da9 30bd b10b 92bd df98 153d 4016 75bd
000003f0: 8ab2 41be aa81 19bd 8779 c13d e084 d63d
-0.010745145 0.011802293 0.061462052 -0.1416315 -0.06808692 0.13459481 -0.22244619 0.06319384
0.0065529253 0.03854795 -0.17333356 -0.030367509 0.063433446 0.044044524 -0.09869721 0.019283582
0.032362867 0.05109998 0.21974401 -0.27476433 -0.09660886 -0.034678563 0.014425167 0.17485088
-0.12316166 -0.014596607 0.05150488 0.105880566 0.15648092 0.056478493 -0.05198771 -0.074914545
-0.07840658 0.16384168 0.13181123 -0.10116744 0.011082174 -0.046900872 -0.09335076 0.051463567
-0.031138144 -0.101777405 0.10609379 -0.04574327 0.016864749 -0.10786252 0.0025440918 -0.15342976
0.11030493 0.19524504 0.100212134 0.07799518 -0.16117346 -0.0023810584 0.2760445 -0.097078726
0.078855336 0.122689106 0.11222517 -0.0867278 -0.10091854 -0.03801287 0.12015956 0.11700668
-0.009960691 0.10996668 -0.03194856 0.071768835 0.21267845 -0.2677532 0.02101644 -0.01430178
0.10914438 -0.012247742 -0.08830065 -0.14101861 0.0066910298 -0.1827429 0.18447165 -0.014002214
0.01179401 0.1726603 0.1377084 -0.1146397 0.0063739833 -0.15675107 -0.23586866 -0.09654734
-0.11151757 0.0032819756 -0.16354075 -0.17205626 0.047881935 -0.16214626 0.044330142 0.088945016
0.11313487 -0.09993605 0.13924636 -0.11457894 0.053714514 -0.024875453 -0.3584418 0.07802281
0.025531711 -0.013634391 0.13055637 -0.06266582 -0.021368213 -0.074185774 -0.0585506 0.012246771
-0.14433134 -0.12927914 -0.06604488 0.12870137 0.055588484 -0.20188437 -0.058508396 -0.02575996
-0.088553354 -0.070028014 0.15188168 0.070814535 -0.013089059 -0.040962998 0.01337441 -0.024461769
-0.1443604 0.124066204 0.06510737 0.012215738 0.035680648 -0.053815234 -0.027099647 -0.12663768
0.14082533 0.055247504 -0.12614314 0.000114346236 -0.04500563 0.00056412094 -0.070320114 0.07767482
0.012548907 0.021847714 -0.009718702 0.17863569 -0.090229176 -0.08733147 0.13257773 -0.018702809
-0.018753214 0.17290911 -0.03254526 0.23240913 0.041066326 0.008333067 0.13252312 -0.1743688
-0.05983496 -0.082539596 0.06901523 0.09667073 0.0618307 -0.056285102 0.057115782 -0.2757472
0.06669586 0.07432436 0.042895913 -0.015777627 0.005137603 -0.2213572 -0.13742137 0.07576214
-0.07216268 -0.039010014 -0.020013113 -0.05606206 -0.048191547 0.018265197 -0.12680234 0.20771857
-0.23304608 -0.06953572 -0.07819156 -0.14012457 -0.15193126 -0.096287765 0.11992738 -0.11550673
-0.026304144 0.08228588 -0.11864821 -0.009829396 0.197563 0.1612122 -0.030362632 -0.09244372
0.23356111 -0.09778685 -0.0012533771 0.07686547 -0.002395972 -0.1072325 0.27101025 -0.11980956
0.19498129 -0.047325686 0.039986942 -0.12707725 0.042498164 0.032516815 0.039916985 -0.15200393
0.08586658 -0.10272961 -0.20624693 -0.006359224 -0.19761053 0.03792025 -0.32758912 -0.010416871
-0.11618854 -0.20220275 0.18154831 0.1589868 0.05403868 0.017673632 0.0068173055 0.03999923
-0.057899207 -0.06227449 -0.06500606 0.0301271 -0.05279101 -0.08987808 -0.11456616 0.22863843
-0.14103323 -0.20412114 -0.062426563 0.022622272 -0.027489241 0.08154154 0.06878184 0.039581858
-0.04313009 -0.07131136 0.036522742 -0.059835672 -0.18915763 -0.037477173 0.094470076 0.10474563

104 f4 [1, 256, 64]
00000000: 8c1e aabd 1f9f 18be fb7b c13d 68b4 b1bc
00000010: 5fbf 9c3d 136b 1e3e 738f 4ebe 942b 76be
00000020: b90f 83be 93e5 5fbd 5d4c 3bbd 8f9b 3ebd
00000030: 7514 3f3e 0b04 b6ba 86e5 5fbe 58c8 babd
00000040: 9828 d53b d7e6 db3c 7255 1bbb ea87 31be
00000050: 14a2 1a3e d469 c8bc 1832 543e 29c6 483e
00000060: c0e4 1b3d 8f89 2abe 85c1 e23c a032 d93d
00000070: eb53 41be 9559 b0bd 72cf c93d 0388 aebd
00000080: f0f0 5b3c 8f9f fc3c 01ea 88be e56b acbd
00000090: 88d1 533e deaf 21be a5bc 00be 9a5b a0bd
000000a0: 20e8 213e 4a94 9fbd 1f90 223e b0cb 4e3d
000000b0: 9f64 a3be 194f 1c3d ad00 583d c7c9 453e
000000c0: fd1a 83be bfe2 d4bd 5341 af3d 52de e4bd
000000d0: e8f0 bfbc f277 d8bd 981b 79bd d484 2f3e
000000e0: b157 49bc 26f8 00be 9ed6 14be 47a8 e83c
000000f0: 2224 a0be 2b7b cbbd 58a7 743d e3b8 103c
00000100: 5aaa 04be 1651 40be 6d2a f23d c36e fe3c
00000110: 04d0 85bd ba2c 023e ab15 523e db5c d83c
00000120: 672c 833c 9e8f da3d 1cc9 173e 52ac a4be
00000130: c452 913d 37d7 5cbe 61ad 9dbc 9d11 20bd
00000140: 04fd b83d 9a91 8d3d 9986 5f3b 348d 16be
00000150: ff85 cebc 1c3a cabd bb3d 5e3b db32 623e
00000160: ed06 cfbc 0921 013e c80e 293c dd09 583d
00000170: 48f4 713c 5f79 40be edb2 90be 9069 5fbd
00000180: d988 fb3d 6189 9fbd b15f 8bbc 8657 8fbe
00000190: 909a cabd a486 743e a42f 893e 6fa4 ff3d
000001a0: bf80 e4bd a483 41bd ed7b 033d 1eaa 1ebe
000001b0: b670 ea3d 52c7 44be 7062 bd3d 5292 1bbd
000001c0: 3799 3fbe 0100 5c3e 7b04 f4bd 6ba5 d4bb
000001d0: 4b18 41bd 8e14 52be bda2 6e3e 006b 02be
000001e0: b11a 57be 48eb 7a3e a8b3 073e 449c 2dbe
000001f0: 877c 3a3e f8a3 4b3d c66e af3d 6f16 80be
00000200: 6526 af3e 0320 7d3e 25b2 29be 0e21 143e
00000210: 8213 2e3e 9e53 11be 8bdf 773d 93dd 60be
00000220: 998a 4b3e 52a9 243e b962 583d f9f8 a5bc
00000230: 63a0 6b3d 333b 903d 9564 89bd c70f a0be
00000240: a470 1c3e b530 893e 49fd 313e 257b e23c
00000250: 6087 933e b368 3f3e 2bd5 d7bd b087 e7bd
00000260: 49ad 543e 74a8 123d 2da3 9bbd 9752 52be
00000270: 1266 923e c78c 28be 20e2 4f3e 6d11 bdbd
00000280: 83e2 08be 0fdc 0dbe b090 e7bd 9817 b73d
00000290: daf9 5e3e a942 3d3d 347a 1abe bbed 88be
000002a0: 269c dfbd ffea 173e 80e8 1d3e f586 7d3e
000002b0: 825c f13d 0e30 703e adbf a1bd 891d bb3d
000002c0: 66ba 18be 1d2f 883e e3dc f53c 6e05 033e
000002d0: 19c2 06be 14f4 503d a9ba 8abe 9a04 52bd
000002e0: 1e65 b0bd 6169 34be d287 0f3e 3312 3d3e
000002f0: 245a 89be 522f dc3d e743 0dbe 6ea9 5b3e
00000300: 8ae3 debd 3864 ba3b 61d6 5c3e e4ef cd3e
00000310: 9f50 3fbe 541a 31be da07 853e fe6f d43d
00000320: dc06 58bd fa23 2dbe c226 653d 1b80 ae3d
00000330: 3824 04bd 8c57 e2bd cadb ba3d d47a ebbd
00000340: 7730 e93c 793f 113e 8161 bbbd 878a ad3c
00000350: 8cef 753e 789b 5a3d d2eb 3d3e 446c 45be
00000360: d6cc 323e 7c70 bc3d 135c b2bd 1165 28be
00000370: 333e 643e 9f32 ac3e a9e8 94be d64f 80be
00000380: 347e af3d 1aa0 8c3e 556d 26be f7a0 53be
00000390: f47f fabb 6bee 13bd cd7c 253e fc7b dabd
000003a0: c66d 89bd 28fd 0ebe aed3 61be 8ab4 803d
000003b0: f1c9 d2bc 953f 2e3d 2172 073e 0aac a93c
000003c0: 0996 f73d 28ab 36be 51a8 c23d 0d2f 46be
000003d0: c787 9e3e a847 d4bd 3b33 f03d 9978 32bd
000003e0: 8b2f c8bd 8784 5cbe e513 4fbe d8d9 c93e
000003f0: f994 ff3c 0348 f6bd 9031 9cbd eb9b d2bd
-0.083066076 -0.1490445 0.094474755 -0.02169247 0.07653689 0.15470533 -0.20171909 -0.24040061
-0.25597933 -0.0546623 -0.045727123 -0.04653507 0.18660147 -0.0013886703 -0.218649 -0.09120244
0.0065050833 0.026843471 -0.0023702052 -0.17337003 0.1510089 -0.024464525 0.20722234 0.19606842
0.03805995 -0.16654037 0.027680168 0.10605359 -0.18879668 -0.086108364 0.0985402 -0.08522036
0.013424143 0.030837802 -0.2674103 -0.08419017 0.20685399 -0.15789744 -0.12571962 -0.078299716
0.15811205 -0.07791956 0.1587529 0.05048722 -0.31912705 0.03816137 0.05273502 0.19315253
-0.25606528 -0.10394811 0.085573815 -0.11175217 -0.023430303 -0.10569753 -0.06081733 0.17140514
-0.012288974 -0.12594661 -0.14534995 0.028400553 -0.31277567 -0.09935602 0.059729904 0.008833143
-0.12955609 -0.18780932 0.11824498 0.031058675 -0.065338165 0.12712374 0.20516078 0.026411464
0.016012384 0.10671924 0.14822811 -0.3216272 0.070958644 -0.21566473 -0.019247713 -0.039079297
0.09032634 0.06912537 0.0034107326 -0.14702302 -0.025210379 -0.09874365 0.0033911306 0.22089712
-0.025271857 0.12610258 0.0103184655 0.05274378 0.014767714 -0.187963 -0.2826151 -0.05454403
0.12281961 -0.07789875 -0.017013403 -0.27996463 -0.09892762 0.23879486 0.2679416 0.12482535
-0.11157369 -0.047244683 0.032100607 -0.15494582 0.11447279 -0.1921666 0.09247291 -0.03798134
-0.1871079 0.21484376 -0.11914917 -0.006489446 -0.04714231 -0.20515653 0.23304267 -0.1273613
-0.21006276 0.24503815 0.13252127 -0.16954142 0.18211566 0.04971692 0.0856605 -0.25017115
0.3420898 0.24719243 -0.16571863 0.14465734 0.16999629 -0.14192054 0.06051592 -0.21959524
0.1987709 0.16080216 0.052828524 -0.020260321 0.057526004 0.07042541 -0.067086376 -0.31262037
0.15277344 0.26794973 0.17381777 0.02764661 0.2881422 0.18692283 -0.105387054 -0.11305177
0.20769228 0.03580518 -0.07599483 -0.20539318 0.28593498 -0.16459952 0.20301104 -0.09231839
-0.13367657 -0.13853477 -0.11306894 0.08940047 0.21774998 0.04620615 -0.1508568 -0.26743874
-0.10918455 0.14835738 0.15420723 0.24758513 0.117852226 0.23455831 -0.078978874 0.09136493
-0.14914855 0.26598445 0.030012554 0.1279504 -0.1315998 0.05101402 -0.27095535 -0.05127392
-0.086130366 -0.17618324 0.14016655 0.18463974 -0.26826584 0.10751213 -0.13795434 0.21451351
-0.108832434 0.0056882165 0.21566154 0.40222085 -0.18683098 -0.172952 0.25982553 0.10372923
-0.052740917 -0.16908255 0.055945165 0.08520528 -0.032261103 -0.110518545 0.09123953 -0.11498037
0.028465493 0.14184369 -0.09149457 0.021184219 0.24017161 0.053370923 0.1854699 -0.19279581
0.17460951 0.09201142 -0.08708968 -0.16444804 0.22289352 0.3363237 -0.29083756 -0.2506091
0.08568993 0.27465898 -0.16252644 -0.20666872 -0.0076446477 -0.036116045 0.16160889 -0.106681794
-0.06710391 -0.13963759 -0.22053406 0.06284435 -0.025731059 0.042541105 0.1322713 0.020711917
0.12089164 -0.17838728 0.0950476 -0.19353886 0.30962965 -0.1036523 0.117285214 -0.043572042
-0.09774693 -0.2153493 -0.20222433 0.39424014 0.031198965 -0.12025454 -0.07626641 -0.10283645

105 f4 [1, 512]
00000000: 51ca 22bc 31a8 ccbd 2a2b 16be 22cf babd
00000010: 7784 ecbd 804e 0bbc ce01 87bb cc85 18be
00000020: 9487 ca3d d7ee ffbb 87c4 cd3c fb88 353d
00000030: c98b 343d dde5 1abc e504 c9bd bded 213e
00000040: 3910 28bd c8fd abbd df5f 8fbc 4a6f 3cbc
00000050: 8033 11bb 3414 a4bd b788 c1bc b570 843d
00000060: 88c8 b73d 0cb9 d3bd bb60 a3bd 8c1f 07be
00000070: e075 a6bc 17a6 2e3d b93a 8abb 1566 883d
00000080: 55c1 97bd d517 cdbc 3720 9e3c 8dbf fdbd
00000090: 079d dabb ce2a 14bd 6964 0eba 084a a93c
000000a0: b7a5 f1bc 4e38 e9bc 49f5 5b3d 9cce 42bc
000000b0: 596b bb3c 7175 c53d 5079 5d3e 2fc4 253b
000000c0: c86b dbbd 5954 873d 748f 793d a7e8 e23c
000000d0: 4053 a6bd 947d 3b3d 96ae 0abe 98eb 7b3d
000000e0: 5da5 41be 06cf 39bb d257 5ebb 21b8 cebd
000000f0: 6ed4 babd 1191 6a3c 40cd 51bd 9a04 78bd
00000100: d5d0 233d e558 be3d a1c8 e43c 2876 a33d
00000110: fca4 493c db81 353d 5cca 59bd 31e5 9a3d
00000120: e65e 953d ccfa ff3c a8cf 453e 1726 0f3e
00000130: 229f c6bc 8a66 163e 3e7d 3c3d 57ad 0dbc
00000140: d9bc 783d eeb2 5a3c 7368 3cbd 8c9e 453c
00000150: fbbc 9dbc 6f34 713c b8a0 e43d 3e0b ce3d
00000160: 2217 dc3d 2f92 ad3d 8b29 6d3b c305 09be
00000170: 1c72 303d 2691 103e 0c7a 86ba 1cc6 833d
00000180: b08e a7bc 389c 883d a8ce db3d 5970 213b
00000190: d0d5 fd3b f078 80bc 62ca 2c3e 6a1f 513d
000001a0: 9e79 9d3d 744f 443d 17a7 b9bd ab10 ed3d
000001b0: 5a24 9abd 2397 103d f440 b6bd 14ac 513d
000001c0: 0ade 133d 38e9 063d a141 2bbc f09a 6639
000001d0: c753 c7bd 1086 553d fbe2 06bd 20c0 283e
000001e0: 9a0d fd3c b21c 6c3d c72e 703d bbef 8d39
000001f0: bd73 063e 3295 cb3d 512c adbd 73ba 263e
00000200: 76fb 913f f368 853f b6d0 6a3f 3f7d 6e3f
00000210: 5749 793f 1c1d 863f 568c 7c3f 9c3f 813f
00000220: 1b2b 913f faf2 7f3f 461b 863f 72e4 833f
00000230: 548a 6b3f 7112 893f a0d0 723f 0fc6 9d3f
00000240: 841b 803f 2991 813f a892 673f 6ca1 7a3f
00000250: 7d2d 833f cfab 6a3f 2a6b 833f 149b 893f
00000260: cbc8 903f 628e 863f 2066 7a3f cec5 793f
00000270: 259a 803f 5bd2 803f 2791 8b3f 1571 863f
00000280: 3f99 813f 4756 863f e529 833f a9f1 813f
00000290: 04e4 8d3f 886c 833f dd73 8c3f fb70 873f
000002a0: d4f3 8d3f d13c 893f b225 823f 052b 7d3f
000002b0: 7a66 903f 27bf 8f3f e19e 9d3f d0be 813f
000002c0: b950 853f 47e4 953f 041d 8f3f 66a0 953f
000002d0: 89d6 643f c382 8a3f 57b8 6c3f e10c 833f
000002e0: b1ae 793f 75c0 823f 0324 843f f860 7d3f
000002f0: dc24 823f 5d77 873f a967 833f acaa 8c3f
00000300: 040b 4dbd 83cd cdbd e02f 4c3d de87 2dbb
00000310: d453 cb3c 1d9c 953c 0518 763d 9ce8 f03c
00000320: 36d8 0abd e0ef 90bd d936 1e3d 28b4 38bc
00000330: 117c b93d 6d54 783a 7269 b9bb ea97 5b3c
00000340: ddac 45bd c5d3 02bd 1297 efbc 9091 60bd
00000350: 22bc 90bd 46de 86bd 1cf4 423d 537d ab3d
00000360: de9a adbd 3c58 dd3c 87a7 e8bd eb09 62bc
00000370: 5ca9 19bd 5129 d93c 0473 91bd 6d6c f63c
00000380: 4241 2ebc c36a 4abc f8d1 303d cc1a 583d
00000390: b97a dabd 70c5 13bd e7ae 343d 6d83 c83c
000003a0: a9da 69bd aa1a 9cbd 3301 ccbb b62b 5bbd
000003b0: ad89 acbd 53b6 80bd c6b0 1abe 99b2 493d
000003c0: 2830 89bb ec97 1cbc 5a4e b43d fe14 073d
000003d0: 7b4e ac3d 264a 8bbd bbfc b53c 57bb 0abe
000003e0: f310 4d3d 6d46 e1bb 1d65 403d fa02 47bb
000003f0: 0864 82bd 3c08 843c 8bbb 5f3d 9c58 783b
-0.009935931 -0.099930175 -0.14664903 -0.09121539 -0.11548703 -0.008502603 -0.004120088 -0.1489479
0.09889141 -0.0078104543 0.025118126 0.044320088 0.044078622 -0.009454218 -0.09815387 0.15813346
-0.041031096 -0.08398014 -0.01750177 -0.011501143 -0.002215594 -0.08011666 -0.023624761 0.0646681
0.08973795 -0.10338029 -0.07977434 -0.13195628 -0.020319879 0.042638864 -0.004218426 0.066600956
-0.07409922 -0.025035778 0.01930247 -0.12390051 -0.006671551 -0.036173634 -0.00054318324 0.020665184
-0.029497964 -0.028469231 0.05370072 -0.01189008 0.022878336 0.09641541 0.21628308 0.0025293936
-0.10713917 0.06607885 0.060927823 0.027698828 -0.081213474 0.045774058 -0.13543162 0.061503977
-0.18910737 -0.0028352155 -0.0033926857 -0.100937136 -0.09122549 0.014316813 -0.051221132 -0.060551263
0.03999408 0.09294299 0.027927699 0.07981521 0.012307402 0.044313293 -0.0531715 0.07563246
0.07293491 0.031247519 0.19317496 0.13979374 -0.024245802 0.14687553 0.046017878 -0.0086472845
0.060726974 0.013348324 -0.045998048 0.012061726 -0.019255152 0.014721974 0.11163467 0.10060738
0.107466 0.08475148 0.0036188092 -0.13381104 0.043077573 0.1411787 -0.0010259761 0.06434271
-0.02045378 0.06670421 0.10732776 0.0024633615 0.0077464357 -0.015682667 0.16874078 0.05105535
0.07689212 0.047927335 -0.09065073 0.11575445 -0.07526465 0.035300385 -0.088991076 0.051189497
0.036100425 0.03293726 -0.010452659 0.00021992228 -0.09732776 0.052129805 -0.03293131 0.1647954
0.030890275 0.057644553 0.05863836 0.0002707223 0.13130088 0.09940566 -0.08455718 0.16282062
1.1404865 1.0422653 0.9172472 0.9315986 0.9737753 1.0477633 0.98651636 1.0097537
1.134128 0.9998013 1.0477073 1.0304091 0.92007947 1.0708753 0.94849586 1.2326068
1.0008397 1.0122424 0.90458155 0.9790256 1.0248257 0.9166841 1.0267079 1.0750451
1.1311277 1.0512202 0.9781208 0.9756745 1.0047041 1.0064195 1.0903672 1.050326
1.0124892 1.049508 1.024716 1.0151874 1.108521 1.0267496 1.0972859 1.0581354
1.1090035 1.0721685 1.0167754 0.9889377 1.1281273 1.123021 1.2314111 1.0136356
1.041526 1.171029 1.118073 1.1689575 0.89389855 1.0821155 0.9246878 1.0238305
0.9753218 1.0214983 1.032349 0.9897609 1.0167499 1.0583302 1.026601 1.0989585
-0.050059333 -0.10048964 0.049850345 -0.0026478688 0.024820246 0.018262917 0.0600815 0.029407792
-0.0338976 -0.070770025 0.038626526 -0.011273421 0.09056867 0.00094730296 -0.005658322 0.013402918
-0.04826056 -0.03194024 -0.02924684 -0.05482632 -0.070671335 -0.06585364 0.047596082 0.08373513
-0.08476804 0.027019612 -0.11360078 -0.01379631 -0.03751503 0.026508959 -0.071020156 0.030080998
-0.010635676 -0.012354556 0.04316899 0.05275993 -0.10667939 -0.036076963 0.044112112 0.024476731
-0.057093296 -0.07622273 -0.006225729 -0.053508483 -0.08424697 -0.062847756 -0.15106496 0.04924259
-0.004186649 -0.009557705 0.08804007 0.032979004 0.084134065 -0.06801252 0.022215238 -0.13548027
0.050064992 -0.0068748505 0.04697143 -0.0030366764 -0.06366736 0.016117208 0.054622214 0.0037894612

action_model._discrete_distribution.branches.0.bias f4 [6]
00000000: 81ac 6c3d be10 cf38 5697 09bd 9ad8 01bb
00000010: 6838 f83c cd78 bb3d
0.0577817 9.873648e-05 -0.03359159 -0.0019812942 0.030300334 0.091539

action_model._discrete_distribution.branches.0.weight f4 [6, 64]
00000000: f1a3 26bb 9c65 bebc 042b afba c2f9 d0bb
00000010: c661 df3c d6e3 a2bb e278 633c 90c9 553d
00000020: b800 7ebc 4a4c 81bc 9149 50bd 8561 febd
00000030: 1979 963b 7e45 70bd 65df 90bb d1c9 243b
00000040: c022 5b3d b5e3 acbc afbc 74bb c20a 19bc
00000050: 212e 26ba ea88 47bc b064 98ba e165 69bb
00000060: c5b1 583c 6d81 663a 6f8d fb3b 8ec3 23bd
00000070: 8aec e43b def1 5cbd af0e 86bd fd08 633d
00000080: 762a 0b3d 5ee1 6a3d 02fd d5bb 6baa 57bc
00000090: 9d3f ecbc 08e2 1cbd a749 d83c ec69 01bb
000000a0: 70c3 03bd 4e9a 20bc 7e91 d3bd 7023 fa3c
000000b0: 1446 7cbc 8f3d 29bd 33a1 8f3d 75ac c13b
000000c0: 1f96 2c3b 6600 3abc 490a 5bbd 300d a43c
000000d0: ffc4 a03b e3f2 81bc 8328 fabc 20b5 c5bc
000000e0: 49e3 2a3d f9e4 943c de30 6e3d cd88 3dbc
000000f0: 5c25 c33c 8945 e8bc 22b5 c83d ca0f a4bc
00000100: 7ec0 133d 05a7 703b a2a1 8f3c 53d5 b3bc
00000110: e5dc f33c 3e46 5b3c 0131 f5bd df94 86bd
00000120: df35 dd3b 3525 1cbc 6c45 32bb 0f90 5c3e
00000130: b9e9 ff3b a761 81bd d5c9 6f3c 9a30 043e
00000140: 96c3 09be 0cb5 b43c bec8 9535 a8de 55bb
00000150: 9ebd a43c 0ea1 943c f58b aabb 6327 48bd
00000160: 0576 1c3d 31b9 22ba 186c c5bc 021f a2bc
00000170: 5c2b 9bbd 60c0 023d 8c9e b6bb 5be3 aabd
00000180: 68a4 97bc bd45 973d 4bbe f43d ff4f b4bc
00000190: de1d 6abb 9005 273c 986e e6bc 423b e33b
000001a0: ebbf 2ebd 1755 0fbe 5096 10bc e0ce 0c3c
000001b0: f97a 073e 36ec b2bc 3dc2 d4bb 34bd 003c
000001c0: 47ff 82bc 4b65 9e3d 6165 27bc 70c8 f23c
000001d0: 5ea7 a8bc 4575 163c bd48 6b39 4ec0 9bbd
000001e0: 8a63 a63d 6e19 773b 3142 7bbb ebb0 a1bb
000001f0: 1b14 983c 13b7 f73c 1c1c ec3c a78a 883b
00000200: 8737 ab3c c205 8ebc b8a9 7a3a 25a4 f9bb
00000210: 90c3 c3bb 5264 15bc 510a 2b3e d998 653d
00000220: 7327 e43c b85e 99bc 3bbf dd3c 20b5 8ebd
00000230: 9864 b8bb 3e5c 833c c037 8abc 5b0d 613b
00000240: 532d 173d 3a95 7a3c e633 4d3b e213 08bc
00000250: f8cc 683c 0143 0b3c 2e61 13bd 65dc 803c
00000260: ae0f 023d 1f8c 983a 6fbc 513c 249d 83bc
00000270: 11b5 ecbb 07ba ac3d 429e 393d 6a6e ec3d
00000280: 7856 05bd ddfb dbbc c163 c9bd 8159 06bb
00000290: b035 6cbc 8d2f 93bd 728d 36bc 4c05 b2bb
000002a0: 2226 293d a9d1 01bd 3f9b 903d bf75 0aba
000002b0: 1a89 483d 0d96 0ebc 0091 5ebd b429 373c
000002c0: 4ee0 293b 114b 80b8 97cb 3a3d f2b2 813c
000002d0: 68de 36bc c79a 073b 44f3 dcbb 3c30 c5bc
000002e0: 7db8 4abe 7afd 0abc 9dae f2bc a7ca 1e3c
000002f0: 73c0 7ebc df98 f1bc 4423 b0bc 64b1 113d
00000300: 41e0 8dbb 61a4 d6bb 6c9f 773c 08c8 89bb
00000310: 46cf 893b d35c d73b 3ac1 bdbb 8794 0d3b
00000320: f974 a8bc 89b2 c2bb fd62 343d a6f0 f8bc
00000330: e1f7 3b3d a7f9 1e3c 3c8d 3a3c 1de2 22bd
00000340: b475 a43d 78fb a43b 4e20 dc3b f958 8cbc
00000350: 1dc0 493d dc89 153c aea9 3abd 1339 173a
00000360: f97a 9b3c 83ce cdbb f29d cd3a 05ef 31bd
00000370: aef9 8abc 6498 053d 5dde 3c3c 16b0 4b3d
00000380: b193 e43c edda 343c 02a2 a8bb c770 1cbc
00000390: 7215 123d 51ae c03c a2fe 41bb 897d 5abc
000003a0: 1d8d 693d fdc6 9bbc 89e4 babd 6552 fabc
000003b0: 1123 383d a693 86bd 39a0 20bc dd56 39bc
000003c0: 1831 113c 63d7 c63c 6765 cebc e9aa 3a3c
000003d0: 988b 79bc 8428 0bbc 04ea 88bb ce9d ddbc
000003e0: 9a50 b43c 3dc9 7c3c 2eeb 8abb ffee f03b
000003f0: 444e 68ba 011d 72bc 898e 213c df51 813c
-0.0025427307 -0.02324181 -0.001336426 -0.0063774297 0.027268302 -0.004971008 0.013883801 0.052194178
-0.015503101 -0.015783448 -0.05085141 -0.12420944 0.0045920727 -0.058660023 -0.004421162 0.0025144706
0.053499937 -0.021104673 -0.003734391 -0.009340944 -0.0006339271 -0.012178639 -0.0011626687 -0.0035613703
0.013225977 0.00087930897 0.0076767723 -0.039981417 0.0069862055 -0.0539416 -0.065457694 0.055428494
0.03397604 0.057343833 -0.006530405 -0.013163189 -0.028838927 -0.038301498 0.026402308 -0.0019746972
-0.032168806 -0.009802414 -0.10330485 0.030534476 -0.015397567 -0.041318472 0.07013168 0.005910451
0.0026334596 -0.011352634 -0.053476606 0.02002582 0.0049062963 -0.015862888 -0.030536896 -0.024134219
0.041720662 0.018175589 0.058152072 -0.01156826 0.023821525 -0.02835347 0.09800173 -0.02002706
0.036072247 0.0036720645 0.017533127 -0.021952307 0.029768417 0.013383446 -0.119722374 -0.06571364
0.0067508067 -0.009530355 -0.0027202023 0.21539329 0.0078098443 -0.06317454 0.014635523 0.12909165
-0.13453516 0.022058986 1.1159789e-06 -0.0032633934 0.020109948 0.018143203 -0.0052046725 -0.048865687
0.03819849 -0.0006207405 -0.024099395 -0.019790176 -0.075766295 0.031921744 -0.0055730995 -0.08344146
-0.018511012 0.073863484 0.11950358 -0.022010801 -0.0035723369 0.010194197 -0.028128907 0.0069345543
-0.042663496 -0.13997303 -0.0088249 0.008594245 0.13230504 -0.02184115 -0.0064928816 0.00785761
-0.015990866 0.07734164 -0.010217042 0.029636592 -0.02058762 0.009183233 0.00022438444 -0.076050386
0.08124454 0.0037704366 -0.0038339014 -0.0049344203 0.018564275 0.030238664 0.028821997 0.0041669193
0.020900501 -0.01733673 0.0009562033 -0.0076184445 -0.0059742406 -0.0091181565 0.16703154 0.05605397
0.027850842 -0.018721923 0.027068725 -0.069681406 -0.005627226 0.016035195 -0.016872287 0.0034340236
0.03690846 0.015294367 0.0031311451 -0.008305522 0.014209025 0.008499862 -0.03598135 0.015730092
0.031753235 0.0011638439 0.012801274 -0.016066141 -0.0072237332 0.084339194 0.045316942 0.11544497
-0.032553166 -0.026853496 -0.0983348 -0.0020500126 -0.014417097 -0.07186804 -0.011142122 -0.0054327603
0.041296132 -0.031694088 0.07060861 -0.0005281828 0.048958875 -0.008702767 -0.0543375 0.011179376
0.002592105 -6.117498e-05 0.045604315 0.015832398 -0.011161424 0.002069162 -0.0067428667 -0.024070852
-0.19796939 -0.008483285 -0.029624278 0.009691871 -0.015548813 -0.02949184 -0.021501191 0.035569564
-0.0043297117 -0.006550357 0.015113693 -0.004204754 0.004205617 0.006572345 -0.0057908567 0.0021603422
-0.02056359 -0.005941693 0.044039715 -0.030388188 0.045890693 0.009703076 0.011386212 -0.03976642
0.080302626 0.00503486 0.006717718 -0.01713227 0.04925548 0.0091271065 -0.045571975 0.00057686976
0.018979536 -0.0062807216 0.001568733 -0.043440837 -0.01696476 0.032616034 0.011527625 0.049728476
0.027902456 0.011038524 -0.005146266 -0.009548373 0.035664983 0.02352062 -0.0029601236 -0.013335594
0.05701934 -0.019015783 -0.09125621 -0.030556867 0.044955317 -0.065711305 -0.009803825 -0.011312214
0.0088618025 0.024272626 -0.025194837 0.011393287 -0.015231036 -0.008493546 -0.0041782875 -0.027052786
0.02201109 0.015428838 -0.0042394614 0.0073527093 -0.000886176 -0.014777423 0.009860643 0.01578611

network_body.linear_encoder.seq_layers.0.bias f4 [256]
00000000: 226f 313c ed4b aa3b 6711 b3bc d2ee 973b
00000010: 9c63 023c e25e 82bc 7c6f 0cbb c989 0a3a
00000020: 60fb 1abc e4bc 0ebc aa46 28bc 820b b33c
00000030: 4e70 10bb d709 4fbc 749b 4dbc 12c1 08bc
00000040: 47ab e1bb 0a9e ddbb b78a 0abc aa59 10bb
00000050: b7cf 4d3c fc16 783c 259f 2c3a cdd4 3e3c
00000060: 9c98 ad3b 1467 003c 5bd4 e33b 2731 d83c
00000070: e684 943c b4af ae3c 5d66 fd3b a447 b9bb
00000080: 7195 263c abcd 923b 967e 743c 10d6 473b
00000090: d2dd 2c3b e0cb 2d3c 4e39 963b 2175 51bc
000000a0: f1a4 b7b9 f739 123c e895 833b f8eb 343b
000000b0: 520a 7cbc 2979 abbc 9adc 4b3c 1380 783b
000000c0: 9b31 1ebc 12f9 d63b 7a53 213d c5e4 e73a
000000d0: fd8c 87bb 7f65 8d3b fb42 5b3c 56f9 313b
000000e0: 4f2e 313c 531c 9c3a 20a8 25bc 4edd 753c
000000f0: 18d1 8ebc af7e b6bb 483f e9ba dd9b 99bc
00000100: ef0b 32bc a5ab 4fbc a2f4 9f3b 73be 8e3c
00000110: 6e27 d6bc fb4d abb9 a990 80bc 56b1 1e3c
00000120: da0a d73b b31b 40bc bc38 20bc 4bbe afbc
00000130: 87da f739 0c2f 6fb9 7d41 cc3b 2b19 723a
00000140: bfa7 8c3c 8b3f a13c f16f ddbc 7a0b 4aba
00000150: f20b b4ba 4e31 f63b f979 1bbc 829c 1dbc
00000160: 64dd 8c3c 5577 cf3b 2e16 623c 293c eabb
00000170: 86a2 94bc 26f6 76bc 183e 56bb a4fc 4ebc
00000180: f872 86bb b509 25bc 8e35 9f3c 55de 31bb
00000190: 47c2 173b 4ceb 003b cad0 013c 11cc 7a3c
000001a0: 5556 24bc eeea d3bb eda4 98bb 7a72 d63b
000001b0: cf77 233b 0b6f 0d3d 74e4 dbbb 46e4 a43a
000001c0: 19e0 5e3c 4505 ad3c fb1e 273c 4c06 6ebb
000001d0: 3ac1 b8bb e9cc f33c 0694 37bc 038b 073c
000001e0: 29d7 27bc 2dce 3d3c 5c15 bc3b 77da 00bc
000001f0: 37d7 aa3b 13d9 5ebc 2b36 bdba 7f99 8fbc
00000200: 5a67 b5bb e64d e63b 28b7 c33b 1186 6b3c
00000210: 32a1 a7bc 4b69 df3b add7 603c 59ad 1fbc
00000220: 7057 aa3c 9b2f 09bc 3aae f43b 378c 683c
00000230: dd7b 39bc f0db 373c 6164 86bb 5d95 aebc
00000240: 6b6e 00bc 69db 8fbc 292a 2b3c 397a 443b
00000250: 7755 10bc 3518 b6bb 983d 0abd 24f0 83bc
00000260: 29eb 653b b66b 1d3c 753c 2d3c 249d 143c
00000270: 5dec 833b 0043 0d3c a294 cabb 02c4 0cbc
00000280: 6f46 d8bb 0579 9a3b f709 0b3c f23c b9bb
00000290: 98d3 3dbc c97c c33b e314 df3a bc2a 54bb
000002a0: 4387 553a 7be1 113c 6baf 8fbc 7637 813c
000002b0: 6fbf a2bb 3560 463a 9c11 df3b 6c99 833a
000002c0: 97ae ee3b 554a 213c 7f29 8c3c 0419 cb3c
000002d0: b396 f83a 6776 843b 57d0 c23b 377f 523c
000002e0: e539 833c d4d4 36bc f577 183b e743 f7bb
000002f0: bd6f a0bb 21d9 e23c d1d6 91bb 1049 683b
00000300: 31b8 0bbb 60ae 47bb d501 5e3c 36a0 963c
00000310: 819a 203c c2c6 98bc 789b 0f3c f8d7 8d3c
00000320: efde 223b 81b9 a83c ae8f 553b c4be febb
00000330: ece8 a93b 995d 693c 684e 12bc 62db 733c
00000340: a00d 9e3b 5c20 bdbb 053d 8e3c fe2f 91bb
00000350: 9cc7 4a3c ef30 c13b 54a7 4d3c 2fe1 9dbb
00000360: 2599 433c e7aa a6bb cd9c eebb 8213 f9ba
00000370: 3329 0e3b a4f2 13b9 30e1 9dbb 8a5c 723b
00000380: 10b7 63bc 7a78 7239 03e3 56bc c2a7 b33c
00000390: 4011 453a c523 83bc 182a 66ba 9915 f03c
000003a0: 18a8 053c 304e 7dbc 3c7a 543c b4b2 d3bb
000003b0: 968c c13b fb19 43bc 84c1 a33b 01eb 5e3c
000003c0: f4c3 bbbc c7cf b73c ab00 85bb 65dd 4f3c
000003d0: 7b9a 8d3c ba2b a43b 4151 b43b ba97 8ebc
000003e0: f65c a63b 30ca 083c e3d3 4fbc 24ad 053c
000003f0: 4ba5 063d e67c 8c3c 58dd 64ba cfa1 95bc
0.010829719 0.0051970393 -0.021858884 0.004636624 0.007958319 -0.015914384 -0.0021428755 0.0005284814
-0.0094593465 -0.008712027 -0.010270754 0.021856073 -0.0022039595 -0.012636623 -0.01254927 -0.008346813
-0.006886873 -0.0067632245 -0.008455924 -0.00220261 0.01256173 0.015142199 0.00065849937 0.011647415
0.0052977335 0.007837076 0.006952805 0.026390625 0.018129777 0.021324016 0.00773315 -0.005654292
0.010167466 0.004480084 0.014922759 0.0030492581 0.0026377332 0.01060769 0.004584468 -0.012784273
-0.0003502737 0.008924953 0.004015673 0.0027606469 -0.01538332 -0.020931797 0.012442732 0.0037918135
-0.009655382 0.006560453 0.03938625 0.001769208 -0.00413668 0.004315078 0.013382669 0.0027156672
0.0108142635 0.0011910297 -0.010110885 0.015006376 -0.017433688 -0.005569301 -0.0017795349 -0.01875108
-0.010867103 -0.012675201 0.0048814574 0.017424798 -0.026141848 -0.00032673762 -0.01569398 0.009685835
0.006562573 -0.011725354 -0.0097791515 -0.021453043 0.00047274327 -0.00022810342 0.0062333927 0.00092353177
0.017169831 0.01968362 -0.027030917 -0.00077073986 -0.001373647 0.007513202 -0.00948953 -0.009619834
0.017195411 0.006331364 0.013799233 -0.007148285 -0.018143903 -0.015073335 -0.003269082 -0.012633476
-0.004103061 -0.010073115 0.019434717 -0.0027140577 0.002315657 0.0019671498 0.007923314 0.015307442
-0.010030349 -0.006467215 -0.0046583326 0.0065444084 0.0024943238 0.034529727 -0.0067105833 0.0012580238
0.013603234 0.021120677 0.010200257 -0.0036319671 -0.005638269 0.029760795 -0.011204725 0.008272889
-0.010244169 0.011584801 0.005739851 -0.007864586 0.005213644 -0.013601559 -0.0014435699 -0.017529247
-0.005536002 0.007028329 0.0059727617 0.014375226 -0.020462606 0.006817972 0.013723296 -0.009745919
0.020793647 -0.008373166 0.0074670585 0.014193586 -0.011321035 0.011221871 -0.0041013216 -0.021311456
-0.007838826 -0.017560678 0.0104470635 0.0029980077 -0.008809439 -0.005557085 -0.033750147 -0.016105719
0.0035082793 0.0096082 0.010573496 0.009070668 0.0040259794 0.008621931 -0.006182269 -0.008591654
-0.006600193 0.0047141337 0.0084862625 -0.005653017 -0.011586092 0.0059658033 0.0017019775 -0.0032374104
0.0008145461 0.008903856 -0.0175397 0.015773516 -0.0049666683 0.00075674366 0.006807519 0.001004023
0.0072839963 0.009844382 0.01710963 0.024792202 0.001896581 0.004042435 0.005945246 0.012847713
0.016018817 -0.011159141 0.002326486 -0.0075459364 -0.0048961327 0.027691426 -0.004450657 0.003544394
-0.0021319503 -0.0030468926 0.0135502415 0.018386941 0.009802462 -0.018649463 0.008765094 0.017314896
0.0024852117 0.020596268 0.003258686 -0.007774206 0.005185237 0.014243507 -0.008929826 0.014883848
0.0048234016 -0.00577168 0.01736308 -0.00443077 0.012376692 0.005895726 0.012552101 -0.0048181037
0.011938368 -0.005086291 -0.0072818757 -0.0019003006 0.0021692037 -0.00014109403 -0.004818104 0.0036981427
-0.013898626 0.000231238 -0.013115647 0.02193058 0.0007517524 -0.016008267 -0.0008780076 0.029307174
0.008157752 -0.015460536 0.012968596 -0.006460512 0.0059066517 -0.01190805 0.004997434 0.013605834
-0.022920586 0.022437943 -0.0040589175 0.012687062 0.017285576 0.0050100954 0.0055028503 -0.017406333
0.005077 0.0083489865 -0.012684795 0.008158956 0.03287248 0.0171494 -0.00087304926 -0.018265633

network_body.linear_encoder.seq_layers.0.weight f4 [256, 247]
00000000: 450a 713d bd1e 753c b0fa 75bd 24d2 c1bd
00000010: e401 bf3c 2da5 7abd 2b84 7bbd e4a1 8abd
00000020: 7d48 febb 9ae0 9b3d 3345 ba3c ece8 80bd
00000030: 5a19 51ba c491 57bc a076 d9bd acc3 4abd
00000040: fcee 2c3d bfd0 433c 5c90 3d3d d75f 9fbd
00000050: 37ba f5bd fd5b 61bc c3b8 abbd 7eb9 243d
00000060: fe34 933d c7a6 88bd 57aa 90bd 1c05 613d
00000070: 2f9f 093d 7a9b 213b b7fa 863b 185f 1bbe
00000080: d87a f43c 1712 ee3d aa36 bcbd 01d5 e5bc
00000090: d214 343c 85a4 7fbd 3782 023d acbe 5c3d
000000a0: 15ff cc3d 5935 61bd 0a9b 03bd d03f 5b3d
000000b0: 87cf 1cbe 8aaf 9bbd 816c 033e 2d3b 563d
000000c0: 1d95 b93c d13b a9bc dc4b b6bc 730e 993d
000000d0: 952e afbd f143 4ebc b78e babd 8f71 5e3c
000000e0: 875e 503d 7be7 96bc d6d4 dabd df5a 89bd
000000f0: 9a35 1e3c c9c0 943c 2bfe fbbc e9aa c1bc
00000100: 9318 96bd 36a2 7d3d cab7 d93c d048 a33d
00000110: e351 653d b43e c7bc 2cbd 033c efa7 fe3d
00000120: a80f 20bd a142 513d acda 913c 90fb 61bd
00000130: 2713 6abd 3062 30bd c3f6 a63d 0b8c 7bbd
00000140: c7a5 9f3d c480 ebbc 6dea e9bc 1b7e 3ebd
00000150: 8c81 e23d c122 b03c a6b7 8cbd cb44 35bd
00000160: 7646 92bd ac46 903b c2f4 e6bd 4097 6cbb
00000170: c9b2 a43c 2b5f 383d 6eba a2bd 1046 38bd
00000180: 3d5b a53d e980 3bbd 6056 793d a118 b4bd
00000190: 5cb4 5dba fe6f 533d b0d7 aebd 634e ffbc
000001a0: 3de0 a6bc 552c be3c 99d7 75bd 5e28 3f3b
000001b0: ceb4 253d 2783 26bd fc30 603d cc75 fd3c
000001c0: e3bc af3d 7ffd 143d 384a 8fbd 79e4 82bb
000001d0: 2bef 10bd ac96 aabd 1bc8 3bbd 0087 48bd
000001e0: a49a 1bbc abc4 813d 8b03 3e3d 1be3 7ebc
000001f0: 73ff 1cbd ea89 443b 2cdd 6e3d adf0 0c3d
00000200: 966a 433d 193f 55bd 0a67 df3c 2b2a 9fbd
00000210: 19cf 9a3d 97ce 12bc 5128 3cba 9945 85bc
00000220: 5b5f fcbc ca42 a03d d29f 79bb faf8 c7bb
00000230: 48d0 6fbb e229 a03b 1862 3bbe 42ae 8bbd
00000240: 9705 96bd cf10 703c 371c bc3d c3da 3d3d
00000250: c3e2 28bd 5d8e 7fbc fc67 2e3d 4228 23be
00000260: 4d1d e4bd 0755 29be f31e 2bbc 626a ffbc
00000270: 4a3b 2dbd 10eb 6f3d 0254 343c b5ce 173c
00000280: 4ae8 e63d 4e52 7d3d 335c 01bd 34da 8bbd
00000290: b974 13bd ba1d ea3c bb20 9b3b 189d e3bd
000002a0: 4fc3 643d 58fb 7fbc bbb3 c9bc be57 29be
000002b0: 9419 173d 09f9 e9bd 4bb7 963d b917 d83c
000002c0: c954 00be 1cf7 3e3c 97ec 99bb fd60 873c
000002d0: 431e 09be d652 6abd fb1a 60bd 4faf f6bd
000002e0: d85e 09be 5a2b afbd 2c73 9f3d 914b 4fbc
000002f0: 4c1a 573d b2b0 b53d 751c b0bd 1ba8 82bc
00000300: 80dd a73d 258f 2abc 53c5 3cbe c7ac b53d
00000310: 08d6 a4bd d91c cd3b 0743 a3bd 42cf 293d
00000320: 3df8 efbd cf19 71bd 9f1e 893d 2755 14bd
00000330: 27e1 adbd 0434 383d c88f 40bd 698f 543d
00000340: 73a0 d9bc fa7b b73d d77e eebd abec a03b
00000350: c136 49bb cdfe a43c 93a6 cbbc 49e1 17bd
00000360: 8651 82bc 82dd b5bd 210f 44bb b4e9 f1bc
00000370: c91b ec3d 00c0 93bd 8f5c bebd b5bc dabd
00000380: 6d11 9bbd b42a 9cbc cb55 973d 2576 193c
00000390: 074b 9e3d f348 81bd 4102 b73d 25cb 83bd
000003a0: f8b6 c63d 8475 f7bd 2417 21bd 5b12 2dbd
000003b0: 9865 2cbb d2bb f73c 22b3 8dbd b6c0 1ebd
000003c0: f1bf 3b3d 6c27 113d 6f52 463d 18f6 adbd
000003d0: 8772 18bd 19f4 39bd 10fd c33d c8f5 bfba
000003e0: 14e2 303d bc5f 1dbc 1eb6 793d 6c66 88bc
000003f0: ef58 3a3d 202e aa3d f930 e4bb 26db 10bd
0.058847684 0.014960942 -0.060053527 -0.09463909 0.023316331 -0.06119268 -0.061405342 -0.067691594
-0.007760106 0.07611199 0.022738075 -0.06294426 -0.0007976495 -0.013157312 -0.10618329 -0.049503013
0.0422201 0.011951624 0.04628025 -0.07781952 -0.11998408 -0.013754842 -0.0838485 0.04021596
0.07187842 -0.06672435 -0.0706374 0.054936513 0.033599075 0.0024659322 0.004119243 -0.15172994
0.029843733 0.11624544 -0.09190114 -0.02805567 0.010991292 -0.062412757 0.031862464 0.053892776
0.100095905 -0.054982517 -0.03213028 0.053527653 -0.1531354 -0.07601841 0.1283436 0.05230253
0.02265411 -0.020658405 -0.02225297 0.07473459 -0.08553807 -0.012589441 -0.09109252 0.013576879
0.0508714 -0.018420925 -0.106851265 -0.067067854 0.009656334 0.018158333 -0.030760845 -0.023641067
-0.07328906 0.061922275 0.026576895 0.07972872 0.055986296 -0.024321891 0.008040708 0.124343745
-0.03907743 0.051088933 0.017804466 -0.05517155 -0.05714717 -0.04306239 0.08152535 -0.061412852
0.077952914 -0.028747924 -0.028554166 -0.046506982 0.11059865 0.021500947 -0.06870966 -0.04425506
-0.071423456 0.004402956 -0.112771526 -0.0036100894 0.020104783 0.045012634 -0.07945715 -0.04498869
0.08074043 -0.045777235 0.06087339 -0.0879376 -0.00084573566 0.051620476 -0.08537233 -0.031165307
-0.020370597 0.023214499 -0.060020063 0.0029168348 0.040455632 -0.04065242 0.054734215 0.030939959
0.08580949 0.036374565 -0.06996578 -0.003994521 -0.03538434 -0.0832952 -0.045845132 -0.04895687
-0.009497318 0.063363396 0.046390098 -0.015557076 -0.038329553 0.002998943 0.058316395 0.034409214
0.04770907 -0.052062128 0.027270813 -0.07771715 0.07559032 -0.008960388 -0.00071776385 -0.016268538
-0.030807188 0.07825239 -0.0038089645 -0.0061026784 -0.003659265 0.0048878053 -0.18299139 -0.068203464
-0.07325285 0.014652445 0.09185069 0.046351206 -0.04123188 -0.015597907 0.042579636 -0.15933326
-0.11138401 -0.16536342 -0.010444391 -0.031178657 -0.04229287 0.058573782 0.011006357 0.009265591
0.112747744 0.06184607 -0.03158207 -0.06828728 -0.035999987 0.028578628 0.0047341264 -0.11113948
0.055850323 -0.01562389 -0.024621835 -0.16537377 0.036889628 -0.11424453 0.07359179 0.0263785
-0.12532343 0.011655595 -0.004697393 0.01652574 -0.1339045 -0.057207905 -0.05471323 -0.12045156
-0.13415086 -0.085531905 0.07785639 -0.012652294 0.052515313 0.088715926 -0.08599178 -0.0159493
0.08196545 -0.010410105 -0.18434648 0.08870845 -0.08048636 0.0062595424 -0.07971769 0.041457422
-0.117172696 -0.058862504 0.06695294 -0.03621402 -0.0849021 0.04497148 -0.04701212 0.05189458
-0.026565766 0.089591935 -0.116452865 0.0049110255 -0.0030702802 0.02014103 -0.024859702 -0.037080083
-0.015908014 -0.0888014 -0.0029916244 -0.029530384 0.11528737 -0.072143555 -0.09294998 -0.10680524
-0.07571683 -0.019063331 0.073894106 0.009366547 0.07729154 -0.06312742 0.08935977 -0.06435231
0.09702867 -0.12082961 -0.03932871 -0.042253833 -0.0026305672 0.030240927 -0.069189325 -0.038758002
0.045837346 0.035437986 0.04841846 -0.08494204 -0.037218597 -0.045398805 0.09569752 -0.0014645392
0.043184355 -0.009605344 0.060964696 -0.016650401 0.04549497 0.08309579 -0.006963846 -0.035365246

network_body.linear_encoder.seq_layers.2.bias f4 [256]
00000000: 609e fa3d 1487 2cbd 8666 08bc f053 20bb
00000010: 0cb3 84bd e500 36bd 0d7b fd3c b184 003d
00000020: 0c8a a23d 635b 12bb f30a 7c3c 80bb 863c
00000030: bb7c ba3c c63f aa3c 5ec1 373e 7199 573d
00000040: e943 fd3d 0dad a83c f0bd c1bc 33d0 8bbc
00000050: a419 3f3b 4261 97bc b783 883d e04a bf3b
00000060: d019 e63d 2474 e9bc ca78 5bbc e96f 27bd
00000070: 85cf 37bd ea8e abbc a8ca b4bb 69c5 20bd
00000080: 2a81 a23b c1c7 35bc a450 6e3d b389 893d
00000090: 78f0 803d 108e a0bd d3de 4f3c 86a2 c73b
000000a0: 0496 f1bc bec5 163c 4379 03bd cbda acbd
000000b0: b873 793c 4717 ae3d 5724 bfbc 4671 80bb
000000c0: 17d0 8d3c b7a4 bebb 0c55 693d 53e8 1cbd
000000d0: 7244 d33b 2561 1dbd 6781 18bd a7cc aa3b
000000e0: 138f da3c dc4c 8b3d b935 843c cc60 81bd
000000f0: 5d55 76bd 1f74 cdbb 4c73 90bc ebe5 853d
00000100: 6fb3 3b3d 9e5a cf3c 324e 0fbb 4d6c 2d3c
00000110: 5781 99bd 2698 7e3d dc28 0cbd 04c7 c9bd
00000120: 2703 bcbc edc2 8abc 60f7 c7ba 468d a1bc
00000130: eb18 30bb 7760 413c f9a8 26bd 78ca 893c
00000140: 7755 173d 0558 86bd 3c6f 01bd b1e7 bbba
00000150: af1a 03bd 53a2 113c 5c61 0abc 2d0e 03be
00000160: ca0f 6dbd 7f97 843c dd0d babc c891 04bd
00000170: 843e 70bd fd65 54bd e4a6 4fbd d776 d53c
00000180: 89c9 c33b 717d c5bb 1cc2 b6bc edf0 35bc
00000190: 5263 153d 0224 16bd 8360 e8bb 134e 55bc
000001a0: 670f 033e 3613 87bd f417 37bd c503 823d
000001b0: 1a56 9bbc 2f0f f6bd fd03 ee3c 4ca7 27bd
000001c0: 9413 01bd b92b 3f3d 56b9 ee3d 8f20 06bd
000001d0: ea0c 823d e4f0 bd3c 03cc b8bc 9dc9 5fbc
000001e0: 01ef dabd 1db6 0a3d 03fe 81bd af7d bb3c
000001f0: 21c1 3d3d 9a41 ddbc 636d c13c 1b79 c9bd
00000200: c36f 60bc fbc0 7cbd e18f b13b 7c72 873a
00000210: 79b4 093c 2902 1bbd f738 063d 5ccb 813d
00000220: d0cb 58bd fa7c 73bd c272 4abd 77ff e33a
00000230: a785 103d a018 00bd b3ec c7bd 6fdd 23be
00000240: 762c 12bd 3783 853d bd21 d73c f50b bdbc
00000250: fe02 b23c 8b0c bfbd 31e6 13ba ab9e 103d
00000260: 84db 4e3d 9443 d9bb 4f9b 97bd 6b8f 82bc
00000270: fd9f 943b 1bb0 3fbc 7f35 7b3b 1ac7 773d
00000280: 2c26 943d d3b2 61bd 4a5a 10bb 30a8 cfbb
00000290: cc30 603c c754 833c ffcf c53d 408a 9a3a
000002a0: d16d 203d 2d83 10bd 20ef 85bc 1d32 a03c
000002b0: 26d9 693d fbba bf3d 42e1 86bb 0ea2 4b3c
000002c0: 08a3 6b3c 4ef9 8d3c b9de 763c 8830 9b3c
000002d0: 9076 b73c 601f 753c 7f39 a43c fe39 8ebc
000002e0: 3dc2 3f3d 06d3 603d 20c9 35be 9aca dc3b
000002f0: 3e91 9b3d 4d40 723d 5689 b8bb 081a fc3c
00000300: f6e4 2f3c 185e c9bb de5e 7c3d 2016 b93c
00000310: 15ad 55bd 55b0 003d 3241 a23d 5303 27bd
00000320: 32bf 00bd 0556 94bc f26f 0fbc 34e2 5dbc
00000330: 245e cb3d d633 a53d f9f9 ebbc 4bac b1bd
00000340: 8c39 493d ab07 0b3e fd0c d5bd 09b3 853d
00000350: f163 8fbd 3115 e23c f1e8 fb3d 40db b8bc
00000360: af78 8ebc 17bf e3bc 813a f93c b9d2 8cbd
00000370: 773c bbbd 288c 28bb 6356 02bd 358c 91bd
00000380: 817f 7f3c 52d2 083e f66c b2bc 97e7 65bd
00000390: 58c1 aebc cc23 b1bb 3e56 b239 b0e9 cc3c
000003a0: f8e0 ff3c 1414 11bd 9674 18be afcc 84bc
000003b0: 00ee 30bc 5713 c93d d51b 0c3d 008d 98bd
000003c0: 99cc 30bd 945d 22bc 9ec1 773d 7120 2abc
000003d0: 2580 d33c a0b1 f43b 411b 0abd f8e2 433d
000003e0: fcbb 8bbb bd3a 27ba f2fb bcbc 8334 9b3d
000003f0: 3c8e 883c 27de 2fbe 4efd e7bd 958e 33bd
0.12237239 -0.042121008 -0.008325225 -0.0024464093 -0.06479463 -0.044434447 0.030942464 0.031376544
0.079364866 -0.0022332303 0.01538347 0.016446829 0.022764554 0.020782363 0.17944857 0.052636568
0.123664685 0.02059033 -0.02365014 -0.01706705 0.002915957 -0.018478993 0.066657476 0.005837783
0.11235392 -0.028497763 -0.013395498 -0.04087821 -0.04487564 -0.02094217 -0.0055173226 -0.039250765
0.004959245 -0.011094988 0.058182374 0.06715717 0.06295866 -0.07839596 0.012687403 0.0060923724
-0.029490478 0.009202419 -0.032098066 -0.08440169 0.015225343 0.085005336 -0.023332758 -0.0039197532
0.017311139 -0.0058179754 0.056965873 -0.0383075 0.0064473683 -0.038422722 -0.037232783 0.0052123847
0.026679551 0.06801769 0.016138898 -0.06317291 -0.060140003 -0.006269946 -0.017633103 0.06537994
0.045825418 0.025311764 -0.0021866676 0.010584903 -0.07495373 0.06215682 -0.034218654 -0.09852412
-0.022950722 -0.016938651 -0.0015256219 -0.019720685 -0.002687032 0.011802784 -0.04068849 0.016820177
0.03694674 -0.06559757 -0.031600222 -0.0014336017 -0.03200787 0.008888799 -0.008446064 -0.12798376
-0.057876386 0.01618552 -0.022711689 -0.03236559 -0.05865337 -0.051855076 -0.05069627 0.026057644
0.0059749526 -0.0060269167 -0.022309355 -0.011104804 0.036471672 -0.036655433 -0.007091583 -0.013019103
0.12798844 -0.06595461 -0.044700578 0.06348375 -0.018961955 -0.12014615 0.029054636 -0.04093103
-0.03151281 0.046672557 0.11656444 -0.032745894 0.063501194 0.023186155 -0.022558218 -0.013658908
-0.106901176 0.033865083 -0.06347277 0.022887079 0.04632676 -0.02700882 0.02361173 -0.09837552
-0.013698521 -0.061707478 0.005418763 0.0010333802 0.008404844 -0.037843857 0.03276917 0.06337616
-0.052928746 -0.05944536 -0.049425848 0.001739486 0.03528371 -0.031273484 -0.09761944 -0.16002439
-0.035686933 0.06519168 0.026261205 -0.02307699 0.021729942 -0.09328564 -0.0005641906 0.035307568
0.050502315 -0.0066303704 -0.0740267 -0.015937528 0.0045356737 -0.011699702 0.0038331447 0.060492612
0.07233843 -0.05510218 -0.0022026473 -0.006337188 0.013683509 0.016031636 0.09658813 0.0011790469
0.03916723 -0.03528135 -0.016349375 0.019555146 0.057091855 0.093618356 -0.0041162083 0.012428774
0.014382131 0.017330792 0.01506775 0.01894404 0.022395402 0.014961094 0.020046948 -0.017361637
0.0468161 0.054888748 -0.17752504 0.006738019 0.07596062 0.059143353 -0.005631606 0.030774131
0.010735741 -0.00614525 0.06161391 0.022593558 -0.052167017 0.031418163 0.07922591 -0.040774655
-0.031432338 -0.018107424 -0.008754717 -0.013542701 0.09930065 0.080665275 -0.02880572 -0.086754404
0.049127147 0.13577144 -0.10402868 0.06528289 -0.07001484 0.027597995 0.123002894 -0.022565484
-0.01739153 -0.02780108 0.030423405 -0.0687613 -0.09142392 -0.0025718305 -0.031820666 -0.071068205
0.015594364 0.13361481 -0.021780472 -0.056129064 -0.021332428 -0.0054058786 0.0003401506 0.025013775
0.031235203 -0.03541954 -0.14888224 -0.016210882 -0.010798931 0.09818142 0.03420623 -0.074487686
-0.04316387 -0.009910006 0.060487382 -0.010383711 0.02581794 0.0074674636 -0.033717398 0.047823876
-0.004264353 -0.0006379297 -0.023069356 0.07578375 0.016669385 -0.17174588 -0.11327611 -0.04383715
