results/bomber-v1/Bomberman/Bomberman-2999963.onnx (onnx, 851372 bytes, 9 tensors)

103 f4 [1, 256, 256]
-0.043303628 0.027344052 0.05467391 -0.15357593 -0.046987772 0.115702614 -0.2541194 0.07433771
-0.026879985 0.04005853 -0.09705837 -0.035564695 0.037525397 0.024171634 -0.12773967 0.03544127
-0.0039260904 0.08189915 0.25207993 -0.24727704 -0.13531715 -0.0060660928 -0.009768424 0.16768424
-0.14594296 0.012642313 -0.027662614 0.114858 0.16870125 0.094729334 -0.0691645 -0.036374263
-0.06445939 0.16056773 0.088196576 -0.12682529 -0.022047412 -0.017944438 -0.11730158 0.0765096
0.0022936 -0.07857061 0.16894582 -0.0081873275 -0.013584546 -0.1409308 0.031131165 -0.17741889
0.05366757 0.20113471 0.06811881 0.11008565 -0.13846499 0.0040653404 0.25057635 -0.099657394
0.05672741 0.10206974 0.11148997 -0.054817423 -0.06474676 -0.08690257 0.073051654 0.09328879
-0.021725053 0.08811994 -0.0016240883 0.024933558 0.22702084 -0.29757077 0.021884628 0.006492468
0.108962946 0.026108699 -0.08550307 -0.13149394 -0.017428553 -0.20853417 0.20207396 -0.06056768
-0.009149427 0.14797652 0.1357622 -0.15043479 0.022642486 -0.15492806 -0.23083347 -0.06378405
-0.07696602 -0.012959415 -0.18325122 -0.15764347 0.058758225 -0.13560867 0.06072029 0.06985743
0.099870555 -0.06928473 0.13889953 -0.11742254 0.029960496 -0.009814364 -0.33595437 0.10081075
-0.0031204603 0.007822734 0.16156852 -0.095610484 -0.07722848 -0.04153615 -0.08192561 0.045357697
-0.11839039 -0.13346545 -0.10062494 0.15110354 0.026856104 -0.15015876 -0.06732531 -0.015126079
-0.05861608 -0.08374273 0.17486429 0.012790644 0.017690068 -0.029535558 -0.012405793 0.004127188
-0.13300325 0.14464386 0.036127847 0.014673537 0.04360221 -0.021864811 -0.022601092 -0.1519504
0.1641534 0.05220721 -0.11557642 -0.0016776265 -0.077399634 -0.0028103981 -0.03688686 0.089412875
-0.012155488 -0.0018443767 -0.028289324 0.18059692 -0.14270787 -0.057870742 0.13202739 0.0073566856
-0.048143 0.17552257 -0.002251551 0.23729041 0.02537238 0.061046038 0.15009107 -0.18125911
-0.08696194 -0.0585393 0.024373513 0.049285542 0.08160866 -0.08849249 0.030701818 -0.23566137
0.04802364 0.080238245 0.005542897 0.021339059 -0.0018952066 -0.21705197 -0.17833331 0.072619855
-0.031758122 -0.048296805 -0.06719634 -0.0969207 -0.08311303 -0.014418283 -0.07714822 0.24142383
-0.20855762 -0.10072239 -0.048473135 -0.10264048 -0.18433276 -0.1296299 0.06753199 -0.1340387
-0.023681032 0.10187356 -0.11994245 -0.008911802 0.1717223 0.13259304 -0.075648844 -0.11107873
0.25805482 -0.077338755 -0.025267914 0.026040869 -0.03933143 -0.14691262 0.26750088 -0.09306525
0.18548732 -0.08067698 0.07261599 -0.13799335 0.07666359 0.03591346 0.0067588254 -0.11619164
0.09169251 -0.09040186 -0.15923423 0.009994379 -0.16477427 0.07390781 -0.26878703 0.021636207
-0.14744279 -0.23318014 0.15751185 0.1986253 0.09073017 -0.013427784 0.0034497166 0.060186055
-0.06639608 -0.026031444 -0.03544776 0.013464947 -0.06481358 -0.119628765 -0.12740734 0.23972063
-0.14590399 -0.21209064 -0.08850055 0.02720554 -0.054102737 0.083591014 0.042835984 0.0023406316
-0.0002856911 -0.1063724 -0.011149398 -0.0900943 -0.1535751 -0.007916389 0.12767898 0.13077274
00000000: 255f 31bd a200 e03c c0f1 5f3d 0243 1dbe
00000010: 4076 40bd 7ef5 ec3d f01b 82be 5f3e 983d
00000020: 6a33 dcbc 6a14 243d 8ac6 c6bd 49ac 11bd
00000030: 3bb4 193d 9703 c63c 30ce 02be dd2a 113d
00000040: 6fa6 80bb beba a73d 9f10 813e 3136 7dbe
00000050: 9490 0abe 13c6 c6bb bd0b 20bc 6bb5 2b3e
00000060: 1272 15be b421 4f3c b59c e2bc ac3a eb3d
00000070: 05c0 2c3e 7401 c23d 1ea6 8dbd 2efd 14bd
00000080: 4903 84bd de6b 243e 68a0 b43d 7dde 01be
00000090: c69c b4bc 3700 93bc d03b f0bd 11b1 9c3d
000000a0: 3950 163b a1e9 a0bd 2200 2d3e 2424 06bc
000000b0: b791 5ebc 2a50 10be c906 ff3c 4cad 35be
000000c0: 87d2 5b3d 42f6 4d3e e081 8b3d 9674 e13d
000000d0: c4c9 0dbe 8c36 853b 8b4b 803e 2d19 ccbd
000000e0: 005b 683d f109 d13d da54 e43d 3c88 60bd
000000f0: f399 84bd faf9 b1bd 1b9c 953d 310e bf3d
00000100: bdf8 b1bc 3a78 b43d 5cdf d4ba 7641 cc3c
00000110: 2778 683e 325b 98be 6447 b33c c5be d43b
00000120: f727 df3d e9e1 d53c 3c1c afbd 59a6 06be
00000130: 53c6 8ebc fb89 55be 7aec 4e3e d115 78bd
00000140: 7ae7 15bc 2887 173e 3f05 0b3e 940b 1abe
00000150: bc7c b93c 76a5 1ebe 9c5f 6cbe 36a1 82bd
00000160: 5ca0 9dbd ba53 54bc 35a6 3bbe 4a6d 21be
00000170: 77ac 703d 00dd 0abe d7b5 783d 6a11 8f3d
00000180: ef88 cc3d 27e5 8dbd ae3b 0e3e 3b7b f0bd
00000190: b76f f53c 6dcc 20bc 3602 acbe de75 ce3d
000001a0: a380 4cbb ed2a 003c 3872 253e 6ecf c3bd
000001b0: f729 9ebd cf21 2abd 9dc8 a7bd fec8 393d
000001c0: a976 f2bd 2bab 08be 7314 cebd e3ba 1a3e
000001d0: 5501 dc3c 38c3 19be dae1 89bd 60d3 77bc
000001e0: 6a17 70bd 4f81 abbd a00f 333e d98f 513c
000001f0: c3ea 903c 8ef4 f1bc ab41 4bbc 5d3d 873b
00000200: 0132 08be 851d 143e cbfa 133d 4669 703c
00000210: 3b98 323d d51d b3bc ed25 b9bc e398 1bbe
00000220: d417 283e 3ad7 553d 55b3 ecbd cee3 dbba
00000230: b383 9ebd a82e 38bb ad16 17bd 191e b73d
00000240: d027 47bc 03bf f1ba 03bf e7bc 66ee 383e
00000250: 0322 12be df09 6dbd 3032 073e 5a10 f13b
00000260: 9831 45bd 30bc 333e c28e 13bb 42fc 723e
00000270: bdd9 cf3c 690b 7a3d 79b1 193e fd9b 39be
00000280: 1a19 b2bd e8c6 6fbd f6aa c73c a3df 493d
00000290: 7122 a73d 8d3b b5bd 6182 fb3c 3751 71be
000002a0: 70b4 443d f353 a43d 31a1 b53b 40cf ae3c
000002b0: 9568 f8ba df42 5ebe 029d 36be b8b9 943d
000002c0: ce14 02bd dfd2 45bd 3c9e 89bd 5c7e c6bd
000002d0: 2a37 aabd a93a 6cbc e3ff 9dbd cf37 773e
000002e0: 2190 55be 8a47 cebd c48b 46bd 2c35 d2bd
000002f0: bac1 3cbe b3bd 04be 364e 8a3d 7141 09be
00000300: b9fe c1bc 16a3 d03d 63a4 f5bd cf02 12bc
00000310: f8d7 2f3e 78c6 073e c8ed 9abd 3f7d e3bd
00000320: c31f 843e c863 9ebd a8fe cebc a953 d53c
00000330: fe19 21bd 4370 16be e0f5 883e fe98 bebd
00000340: 63f0 3d3e f939 a5bd b1b7 943d 214e 0dbe
00000350: cd01 9d3d fe19 133d 2379 dd3b e2f5 edbd
00000360: 48c9 bb3d 9c24 b9bd 4c0e 23be 77bf 233c
00000370: 96ba 28be fa5c 973d 749e 89be 6a3e b13c
00000380: 3efb 16be c6c6 6ebe c94a 213e 6e64 4b3e
00000390: bdd0 b93d 3500 5cbc a414 623b a785 763d
000003a0: abfa 87bd e53f d5bc ac31 11bd 159c 5c3c
000003b0: fbbc 84bd edff f4bd 1277 02be 5379 753e
000003c0: db67 15be 4a2e 59be c73f b5bd 27de de3c
000003d0: d59a 5dbd c431 ab3d c974 2f3d 4865 193b
000003e0: cfc8 95b9 c6d9 d9bd f7ab 36bc 5c83 b8bd
000003f0: ca42 1dbe beb3 01bc 47be 023e 4ae9 053e

104 f4 [1, 256, 64]
-0.02001039 -0.0918735 0.05958849 -0.0020466675 0.04599926 0.09855765 -0.2149618 -0.21190314
-0.21246722 -0.007028822 0.0044596414 -0.025229793 0.1448956 0.07332075 -0.17572054 -0.14210226
0.003223974 0.081005104 0.014138812 -0.16301413 0.20093769 0.01071354 0.14982128 0.15058342
0.07572323 -0.12766635 0.057242416 0.11673289 -0.14949822 -0.102518156 0.14855745 -0.07442522
-0.013867184 0.03646862 -0.2736944 -0.08236624 0.24555255 -0.13991164 -0.16676134 -0.1364718
0.08818435 -0.054691035 0.20243663 0.06379875 -0.28388888 0.09302677 0.09014743 0.14962028
-0.2702122 -0.07256343 0.043495353 -0.10145657 -0.059367713 -0.059883308 -0.07074195 0.21142943
0.011680346 -0.10870624 -0.19355173 0.03513705 -0.29187745 -0.083265744 0.049520206 0.06342987
-0.13241734 -0.19405599 0.12740839 0.00066144316 -0.062610865 0.13653488 0.2188347 0.07049031
0.0008074338 0.09251704 0.22765967 -0.31014335 0.080798365 -0.19594494 0.039278094 -0.09443977
0.06817476 0.07413801 -0.02823194 -0.14500077 -0.034629017 -0.094984666 0.009753658 0.2498162
-0.0442064 0.18370871 -0.005988844 0.047171995 0.0019446345 -0.16048677 -0.2932995 -0.03947588
0.06835749 -0.08898996 0.049831446 -0.26312715 -0.112916075 0.25594568 0.27733555 0.12128219
-0.1345705 -0.051772423 0.03297125 -0.17363046 0.10007177 -0.20747834 0.08213324 -0.015274958
-0.21758173 0.17057176 -0.108694986 -0.015899602 -0.024131421 -0.21497719 0.25337696 -0.13285846
-0.18475148 0.24420872 0.13015318 -0.188227 0.19309452 0.09599998 0.13363619 -0.26468956
0.33798426 0.23040032 -0.1310978 0.099536076 0.15694577 -0.11757805 0.119215705 -0.1824011
0.15083054 0.13692543 0.09481484 0.020230716 0.10881766 0.070384 -0.057615757 -0.35347897
0.12253769 0.26262954 0.12494594 -0.022500914 0.23348717 0.15297683 -0.09046911 -0.11662674
0.15888147 0.080728196 -0.07589677 -0.20633392 0.22710232 -0.13205273 0.17877169 -0.07104975
-0.18569642 -0.12931654 -0.07700284 0.1355807 0.17106292 0.019550791 -0.1282187 -0.24957882
-0.0809676 0.1666544 0.08246945 0.18241587 0.071963914 0.21544205 -0.10720779 0.070696294
-0.17383958 0.24830647 0.051782396 0.124605276 -0.10844757 0.004711353 -0.21757688 -0.104622714
-0.110887505 -0.20109197 0.14294372 0.17452164 -0.3098034 0.13777775 -0.10181165 0.19995733
-0.09860404 0.027337885 0.19713056 0.40971246 -0.14906503 -0.18331672 0.24129039 0.09143078
-0.012599015 -0.16045554 0.07413889 0.1232456 -0.041898303 -0.088936806 0.052560907 -0.09602006
-0.018860256 0.15671314 -0.14824413 0.026164914 0.24862117 0.018481432 0.15099992 -0.20240219
0.15612143 0.09863352 -0.054188095 -0.08965392 0.26911548 0.3210899 -0.26756024 -0.19671248
0.067398466 0.26200795 -0.12819038 -0.25511056 -0.006441135 -0.041119143 0.13440268 -0.13447373
-0.05992472 -0.14450705 -0.24861589 0.09700454 -0.015445838 0.067450754 0.16106974 0.0017347763
0.13172574 -0.16578095 0.08454723 -0.15419249 0.2959884 -0.092430346 0.11219665 -0.037573136
-0.13209076 -0.20492502 -0.24396147 0.40043807 0.022656493 -0.07357791 -0.086663716 -0.094512485
00000000: d4ec a3bc 2c28 bcbd 0f13 743d 6221 06bb
00000010: b869 3c3d 98d8 c93d f21e 5cbe 23fd 58be
00000020: 0291 59be 0852 e6bb 2f22 923b b6ae cebc
00000030: 835f 143e 3029 963d 16f0 33be 4183 11be
00000040: 4f49 533b 01e6 a53d 7aa6 673c 2ded 26be
00000050: 9cc2 4d3e d887 2f3c c06a 193e 8a32 1a3e
00000060: c814 9b3d f8ba 02be 0677 6a3d a711 ef3d
00000070: 1016 19be 0af5 d1bd 721f 183e 406c 98bd
00000080: 2f33 63bc 1f60 153d ac21 8cbe a2af a8bd
00000090: 2172 7b3e ff44 0fbe 7cc3 2abe 43bf 0bbe
000000a0: ff99 b43d b503 60bd 8c4b 4f3e eba8 823d
000000b0: e259 91be d284 be3d 379f b83d 0f36 193e
000000c0: 4159 8abe 239c 94bd 2f28 323d 76c8 cfbd
000000d0: 8f2b 73bd 3348 75bd 28e1 90bd f580 583e
000000e0: ec5e 3f3c 61a1 debd 6d32 46be deeb 0f3d
000000f0: f670 95be 3b87 aabd b3d5 4a3d 85e7 813d
00000100: 6998 07be 9db6 46be 5877 023e b364 2d3a
00000110: 203a 80bd cdcf 0b3e 3416 603e 395d 903d
00000120: f7a9 533a 9379 bd3d 9e1f 693e 1ccb 9ebe
00000130: 9d79 a53d caa5 48be 11e2 203d a369 c1bd
00000140: 359f 8b3d abd5 973d ab46 e7bc 157b 14be
00000150: 28d7 0dbd 5287 c2bd cfcd 1f3c d1cf 7f3e
00000160: c511 35bd 231e 3c3e 113e c4bb 6c37 413d
00000170: 1be3 fe3a a556 24be 5a2b 96be 76b1 21bd
00000180: 03ff 8b3d 5e40 b6bd 0f1c 4c3d 9ab8 86be
00000190: 8b40 e7bd 500b 833e edfe 8d3e cc62 f83d
000001a0: d9cc 09be 520f 54bd dd0c 073d 2fcc 31be
000001b0: 6ef2 cc3d 3475 54be 7935 a83d d143 7abc
000001c0: bfcd 5ebe 5daa 2e3e 7a9b debd e23f 82bc
000001d0: 42af c5bc fb22 5cbe a0ba 813e 0c0c 08be
000001e0: 7e2f 3dbe da11 7a3e e046 053e 94be 40be
000001f0: 92ba 453e a39b c43d edd7 083e 6485 87be
00000200: 460c ad3e 10ee 6b3e 803e 06be 92d9 cb3d
00000210: 64b6 203e c3cc f0bd 5d27 f43d 5bc7 3abe
00000220: 5273 1a3e 2e36 0c3e 482e c23d e3ba a53c
00000230: cbdb de3d 7d25 903d 80fe 6bbd 32fb b4be
00000240: 0af5 fa3d 6177 863e a8e3 ff3d d653 b8bc
00000250: 4317 6f3e f5a5 1c3e de47 b9bd 00da eebd
00000260: d3b1 223e d354 a53d c46f 9bbd 3349 53be
00000270: 838d 683e d538 07be ed0f 373e 8882 91bd
00000280: 3427 3ebe 8e6b 04be aab3 9dbd abd5 0a3e
00000290: 1e2b 2f3e fb28 a03c c34b 03be 9791 7fbe
000002a0: 57d2 a5bd 73a7 2a3e bee5 a83d 3acb 3a3e
000002b0: d161 933d d79c 5c3e c28f dbbd 38c9 903d
000002c0: 0103 32be 0d44 7e3e c719 543d 0d31 ff3d
000002d0: c219 debd b261 9a3b 79cc 5ebe 6f44 d6bd
000002e0: fd18 e3bd 0eeb 4dbe d75f 123e cdb5 323e
000002f0: 8d9e 9ebe 9c15 0d3e a082 d0bd 9dc1 4c3e
00000300: eaf0 c9bd b3f3 df3c 98dc 493e d5c5 d13e
00000310: 81a4 18be 61b7 3bbe d414 773e 1040 bb3d
00000320: 196c 4ebc 754e 24be 21d6 973d 3068 fc3d
00000330: 8e9d 2bbd 8024 b6bd 1b4a 573d 2aa6 c4bd
00000340: d380 9abc 6979 203e 4fcd 17be cd57 d63c
00000350: 8c96 7e3e 5f66 973c b99f 1a3e 8542 4fbe
00000360: 4cde 1f3e 5f00 ca3d 56f4 5dbd 799c b7bd
00000370: 81c9 893e e565 a43e a8fd 88be ff6e 49be
00000380: 3508 8a3d e825 863e 5744 03be da9d 82be
00000390: 2810 d3bb 8c6c 28bd dba0 093e 7bb3 09be
000003a0: a073 75bd a8f9 13be 2a95 7ebe 51aa c63d
000003b0: 8a10 7dbc 9f23 8a3d 77ef 243e 6f61 e33a
000003c0: 1de3 063e 7bc2 29be 1927 ad3d a3e4 1dbe
000003d0: cb8b 973e 1f4c bdbd 5bc7 e53d 4ae6 19bd
000003e0: cd42 07be ddd7 51be 09d1 79be 3806 cd3e
000003f0: 1c9a b93c 04b0 96bd bf7c b1bd c38f c1bd

105 f4 [1, 512]
-0.042259447 -0.101943135 -0.11943086 -0.123512 -0.07722072 0.00830317 -0.053919416 -0.09851684
0.08449002 -0.03173727 -0.016983101 0.06298012 0.049676202 -0.03347184 -0.12550579 0.12132869
-0.046820376 -0.056520622 -0.061775763 -0.01778881 -0.004440179 -0.09571847 -0.05257395 0.025801674
0.023720413 -0.0907212 -0.113632664 -0.13132256 -0.03070614 0.020586433 -0.00022832262 0.036017712
-0.01841946 -0.074443534 -0.03393991 -0.1156768 -0.051121276 -0.055329256 -0.018786963 0.061531123
-0.055806875 -0.079927355 0.045842197 0.010488118 0.034766585 0.07212006 0.21524838 0.022698825
-0.09197565 0.0068691433 0.051485553 -0.05071573 -0.063426144 0.035419237 -0.09060538 0.09098544
-0.17343472 -0.030348122 -0.0046290006 -0.117780514 -0.07244381 0.01224812 -0.080451675 -0.09926814
0.022967026 0.048206728 0.043532416 0.039861895 0.055145502 -0.0104219895 -0.045017 0.12124369
0.07494155 0.024036285 0.15747258 0.05614418 -0.009330272 0.13561301 0.022155203 -0.019484034
0.036264 0.0062636114 -0.04884412 0.01304885 -0.047288723 0.0045587556 0.062300246 0.066228986
0.038025264 0.06317497 -0.01600283 -0.10386607 -0.0031416952 0.15765463 -0.025052518 0.03056406
-0.02171237 0.026867822 0.037401684 0.0032251698 0.03431123 -0.060195226 0.121898495 0.03770023
0.035997175 0.06309544 -0.030573515 0.107749306 -0.054964 -0.020131396 -0.062408913 0.036659308
0.0451208 0.06099968 0.00055299344 -0.002058586 -0.06955945 0.06914996 0.011689258 0.19690938
-0.014324044 0.08420518 -0.017124401 -0.017741181 0.124355614 0.08645849 -0.096710056 0.1341592
1.110916 1.0383675 0.9341879 0.96042544 1.0308553 1.0399702 0.9214568 1.0954432
1.1469697 0.98680365 1.0593154 1.0536494 0.9608489 1.0301179 0.9360887 1.2307303
1.0055623 1.052476 0.8903124 0.97662365 1.0126256 0.9408275 0.983576 1.0615149
1.1082989 1.0508966 0.960682 0.9666494 1.031244 1.0775808 1.0698009 1.0663102
1.0990705 1.0235337 1.0327331 1.0147918 1.0897712 1.0436479 1.1050664 1.0746995
1.0770727 1.0255065 1.0224456 1.0053903 1.1553628 1.0583632 1.2168876 1.0493156
1.048373 1.099784 1.1061106 1.0960542 0.899257 1.0586405 0.9914845 1.0833781
0.97213584 1.0263662 0.98223263 0.97231966 1.0400696 1.0509121 1.0246736 1.0792216
-0.037785497 -0.095180415 0.04126574 0.014710388 0.06474405 0.04113031 0.0037796625 0.04206677
-0.03909374 -0.061076034 0.0050731744 -0.009393561 0.10475908 -0.0055974317 0.03468419 0.031688303
-0.03439512 -0.05685726 -0.008569987 -0.066390626 -0.076342255 -0.020510608 0.03339129 0.054394793
-0.03857876 -0.003088227 -0.045767255 -0.018702151 -0.06476657 0.020034796 -0.07901525 -0.0018827855
0.019550372 -0.004473041 0.019078009 0.064965956 -0.06419164 -0.079709426 0.060282983 0.06880945
-0.045561407 0.022187639 -0.010498436 -0.08697319 -0.08563112 -0.038312297 -0.15774658 0.07347414
0.019289538 0.0072143204 0.09802221 0.0065048374 0.08643587 -0.056799166 0.058771867 -0.14432023
0.017831702 -0.011861111 0.06223129 -0.00017138079 -0.08086299 0.021028742 0.02679944 0.047032785
00000000: 3e18 2dbd 90c7 d0bd 2b98 f4bd dcf3 fcbd
00000010: e625 9ebd 050a 083c 9bda 5cbd 32c3 c9bd
00000020: 1b09 ad3d f1fe 01bd 2520 8bbc b9fb 803d
00000030: 4679 4b3d c519 09bd 9784 00be 2d7b f83d
00000040: b9c6 3fbd 2b82 67bd 9508 7dbd d7b9 91bc
00000050: ec7e 91bb 0c08 c4bd c857 57bd 085e d33c
00000060: 5051 c23c 09cc b9bd 3eb8 e8bd 6c79 06be
00000070: 718b fbbc e1a4 a83c e369 6fb9 4f87 133d
00000080: 68e4 96bc da75 98bd 9304 0bbd f5e7 ecbd
00000090: 8b64 51bd eea0 62bd 1ee7 99bc 0f08 7c3d
000000a0: c095 64bd f4b0 a3bd 07c5 3b3d 5bd6 2b3c
000000b0: 6867 0e3d afb3 933d 126a 5c3e e3f2 b93c
000000c0: bb5d bcbd 8d16 e13b 84e2 523d 4cbb 4fbd
000000d0: 91e5 81bd c313 113d 508f b9bd 9356 ba3d
000000e0: df98 31be a09c f8bc dfae 97bb e936 f1bd
000000f0: 6c5d 94bd 57ac 483c d9c3 a4bd 184d cbbd
00000100: 5825 bc3c 6b74 453d 0c4f 323d 3a46 233d
00000110: 40e0 613d fec0 2abc bf63 38bd 9d4e f83d
00000120: f57a 993d bee7 c43c 7e40 213e 71f7 653d
00000130: ffdd 18bc 23de 0a3e d47e b53c fb9c 9fbc
00000140: 8f89 143d fb3e cd3b c610 48bd d8ca 553c
00000150: d2b1 41bd 9d61 953b 8b2e 7f3d 10a3 873d
00000160: 61c0 1b3d e161 813d 5e18 83bc bcb7 d4bd
00000170: e6e4 4dbb 3770 213e f03a cdbc 7b61 fa3c
00000180: 24de b1bc e819 dc3c 8232 193d 5f5d 533b
00000190: ef89 0c3d 458f 76bd eba5 f93d 8e6b 1a3d
000001a0: c671 133d 2f38 813d 4f75 fabc abab dc3d
000001b0: ee21 61bd 99ea a4bc 7da0 7fbd 1228 163d
000001c0: 97d0 383d cdda 793d c3f6 103a 58e9 06bb
000001d0: 2f75 8ebd 7f9e 8d3d 4d84 3f3c 9da2 493e
000001e0: 65af 6abc c473 ac3d 7948 8cbc f455 91bc
000001f0: 28ae fe3d 2611 b13d ec0f c6bd 0861 093e
00000200: 7f32 8e3f 3ae9 843f f026 6f3f 71de 753f
00000210: 11f3 833f be1d 853f 98e4 6b3f 7c37 8c3f
00000220: e7cf 923f 2a9f 7c3f a697 873f fcdd 863f
00000230: 32fa 753f e7da 833f 82a3 6f3f 9288 9d3f
00000240: 44b6 803f 89b7 863f 83eb 633f 0204 7a3f
00000250: b79d 813f 12da 703f a3cb 7b3f b8df 873f
00000260: bddc 8d3f c883 863f 41ef 753f 5676 773f
00000270: ceff 833f 2bee 893f 3cef 883f da7c 883f
00000280: 58ae 8c3f 2703 833f 9930 843f b3e4 813f
00000290: 9f7d 8b3f 4196 853f d172 8d3f c18f 893f
000002a0: 85dd 893f cc43 833f 7fdf 823f a1b0 803f
000002b0: eee2 933f 7278 873f f9c2 9b3f f94f 863f
000002c0: 1631 863f b9c5 8c3f 0895 8d3f 814b 8c3f
000002d0: b535 663f 8881 873f eed1 7d3f 22ac 8a3f
000002e0: e5dd 783f f85f 833f 9973 7b3f f1e9 783f
000002f0: 0021 853f 4a84 863f 8128 833f ef23 8a3f
00000300: f7c4 1abd f3ed c2bd 4406 293d d703 713c
00000310: 8798 843d 4278 283d 37b4 773b 354e 2c3d
00000320: c220 20bd dd2a 7abd df3c a63b 73e7 19bc
00000330: ee8b d63d a96a b7bb 0211 0e3d 98cb 013d
00000340: e6e1 0cbd 29e3 68bd 2169 0cbc cff7 87bd
00000350: 5459 9cbd dd05 a8bc 4ec5 083d 13cd 5e3d
00000360: c304 1ebd da63 4abb 7276 3bbd 4135 99bc
00000370: 56a4 84bd 0320 a43c bfd2 a1bd ccc7 f6ba
00000380: 1a28 a03c 9692 92bb 7c49 9c3c df0c 853d
00000390: e876 83bd b23e a3bd 4aeb 763d f8eb 8c3d
000003a0: 999e 3abd dac2 b53c a201 2cbc 001f b2bd
000003b0: 5e5f afbd 5bed 1cbd 5288 21be 9c79 963d
000003c0: 1805 9e3c 1b66 ec3b debf c83d 8826 d53b
000003d0: 4a05 b13d 3ea6 68bd c5ba 703d afc8 13be
000003e0: ca13 923c 1b55 42bc 3de6 7e3d aeb4 33b9
000003f0: 7f9b a5bd 7844 ac3c 808a db3c 73a5 403d

action_model._discrete_distribution.branches.0.bias f4 [6]
0.081950635 -0.0036480066 -0.015213417 -0.029592283 -0.019941792 0.07783173
00000000: bcd5 a73d 6513 6fbb b241 79bc 846b f2bc
00000010: f85c a3bc 3e66 9f3d

action_model._discrete_distribution.branches.0.weight f4 [6, 64]
-0.0025427307 -0.02324181 -0.001336426 -0.0063774297 0.05143776 -0.004971008 -0.021605592 0.052194178
-0.015503101 -0.015783448 -0.042921428 -0.112004116 0.0045920727 -0.08282896 -0.004421162 0.036200896
0.08413607 -0.021104673 -0.003734391 -0.009340944 0.008709668 -0.012178639 -0.0011626687 -0.0035644786
0.037395075 0.00087930897 0.0076767723 -0.06173374 0.038813774 -0.0539416 -0.08962662 0.055428494
0.009807057 0.08450108 0.0017011669 -0.03733228 -0.047209296 -0.038301498 0.026402308 -0.0019746972
-0.049789686 0.046739496 -0.038483966 0.060791798 0.008765121 -0.041318472 0.07013168 0.005910451
0.0026334596 0.024523221 -0.07764584 0.044195004 -0.018629437 -0.015862888 -0.030536896 -0.053300362
0.074673735 0.018175589 0.058152072 -0.01156826 0.023821525 -0.06953075 0.12217074 -0.02002706
0.036072247 0.0036720645 0.017533127 -0.021952307 0.026021644 0.013383446 -0.041714747 -0.06571364
0.0067508067 -0.009530355 -0.014972289 0.24666668 0.0078098443 -0.059427742 0.014635523 0.091159396
-0.13511297 0.022058986 1.1159789e-06 -0.0032633934 -0.0013072287 0.018143203 -0.0052046725 -0.048867065
0.034451663 -0.0006207405 -0.024099395 -0.0010794702 -0.07565229 0.031921744 -0.0018263799 -0.08344146
-0.014764271 0.07041971 0.10106366 -0.018263988 -0.014952902 0.010194197 -0.028128907 0.0069345543
-0.08619953 -0.11713826 -0.05595916 0.0088152075 0.12856846 -0.02184115 -0.0064928816 0.00785761
-0.015990866 0.054456312 -0.0064703906 0.02588983 -0.023378983 0.009183233 0.00022435702 -0.0728473
0.009745383 0.0037704366 -0.0038339053 -0.0049344203 0.018564275 0.031999465 0.025075207 0.0041669193
0.020900501 -0.01733673 0.0009562033 -0.0076184445 0.01240416 -0.0091181565 0.08822475 0.05605397
0.027850842 -0.018721923 0.00075697794 -0.12910354 -0.005627226 -0.0023430611 -0.016872287 0.014667507
0.043650344 0.015294367 0.0031311451 -0.008305522 0.014251925 0.008499862 -0.03598135 0.015731039
0.050131373 0.0011638439 0.012801274 -0.0057708668 0.019193135 0.084339194 0.026938576 0.11544497
-0.05093129 -0.008463767 -0.07899928 -0.020428436 -0.0033293816 -0.07186804 -0.011142122 -0.0054327603
0.034129433 -0.052721158 0.10470818 0.016728481 0.06732977 -0.008702767 -0.0543375 0.011179376
0.002592105 0.038030773 0.027225938 0.034210525 -0.042224612 0.002069162 -0.0067428723 -0.0407052
-0.20781295 -0.008483285 -0.029624278 0.009691871 -0.015548813 -0.04656241 -0.0031228869 0.035569564
-0.0043297117 -0.006550357 0.015113693 -0.004204754 -0.023405494 0.006572345 0.020071676 0.0021603422
-0.02056359 -0.005941693 0.05321018 0.009090019 0.045890693 0.03731416 0.011386212 -0.056727044
0.044581547 0.00503486 0.006717718 -0.01713227 0.029829375 0.0091271065 -0.045571975 0.0005765476
-0.008631422 -0.0062807216 0.001568733 -0.005143223 0.021670539 0.032616034 0.039138563 0.049728476
0.05551294 -0.018052904 -0.0072702155 0.018062698 0.023734037 0.02352062 -0.0029601236 -0.013335594
-0.0024016984 0.036653254 0.01274261 -0.06255832 0.017337907 -0.065711305 -0.009803825 -0.011312214
0.0088618025 -0.01852471 0.0024159988 -0.016217725 -0.0071735242 -0.008493546 -0.004178287 0.0013297615
-0.0009627904 0.015428838 -0.0042394614 0.0073527093 -0.000886176 0.01801301 -0.017750425 0.01578611
00000000: f1a3 26bb 9c65 bebc 042b afba c2f9 d0bb
00000010: 67b0 523d d6e3 a2bb 36fe b0bc 90c9 553d
00000020: b800 7ebc 4a4c 81bc 61ce 2fbd 6a62 e5bd
00000030: 1979 963b 3ba2 a9bd 65df 90bb 6447 143d
00000040: 884f ac3d b5e3 acbc afbc 74bb c20a 19bc
00000050: ffb2 0e3c ea88 47bc b064 98ba 079a 69bb
00000060: 942b 193d 6d81 663a 6f8d fb3b 85dc 7cbd
00000070: 31fb 1e3d def1 5cbd 298e b7bd fd08 633d
00000080: c7ad 203c e70e ad3d b0f9 de3a bce9 18bd
00000090: 895e 41bd 08e2 1cbd a749 d83c ec69 01bb
000000a0: 45f0 4bbd ea71 3f3d 5da1 1dbd d200 793d
000000b0: 959b 0f3c 8f3d 29bd 33a1 8f3d 75ac c13b
000000c0: 1f96 2c3b ece4 c83c c804 9fbd d205 353d
000000d0: c39c 98bc e3f2 81bc 8328 fabc 7b51 5abd
000000e0: 8bee 983d f9e4 943c de30 6e3d cd88 3dbc
000000f0: 5c25 c33c 2366 8ebd a734 fa3d ca0f a4bc
00000100: 7ec0 133d 05a7 703b a2a1 8f3c 53d5 b3bc
00000110: 582b d53c 3e46 5b3c 15dd 2abd df94 86bd
00000120: df35 dd3b 3525 1cbc 554e 75bc 3196 7c3e
00000130: b9e9 ff3b 816a 73bd d5c9 6f3c c7b1 ba3d
00000140: 0e5b 0abe 0cb5 b43c bec8 9535 a8de 55bb
00000150: 5157 abba 0ea1 943c f58b aabb d528 48bd
00000160: 301d 0d3d 31b9 22ba 186c c5bc 027d 8dba
00000170: 96ef 9abd 60c0 023d 2463 efba 5be3 aabd
00000180: d7e5 71bc 3538 903d 77fa ce3d 5c9e 95bc
00000190: 04fd 74bc 9005 273c 986e e6bc 423b e33b
000001a0: 6189 b0bd 2fe6 efbd 6f35 65bd a96d 103c
000001b0: 73a7 033e 36ec b2bc 3dc2 d4bb 34bd 003c
000001c0: 47ff 82bc 950d 5f3d 9205 d4bb e916 d43c
000001d0: 4885 bfbc 4575 163c 6141 6b39 f730 95bd
000001e0: 19ab 1f3c 6e19 773b 4242 7bbb ebb0 a1bb
000001f0: 1b14 983c df11 033d 856a cd3c a78a 883b
00000200: 8737 ab3c c205 8ebc b8a9 7a3a 25a4 f9bb
00000210: d13a 4b3c 5264 15bc 2daf b43d d998 653d
00000220: 7327 e43c b85e 99bc ee6f 463a b833 04be
00000230: 9864 b8bb 0b8e 19bb c037 8abc fc4f 703c
00000240: b4ca 323d 3a95 7a3c e633 4d3b e213 08bc
00000250: e880 693c 0143 0b3c 2e61 13bd 61de 803c
00000260: 8e56 4d3d 1f8c 983a 6fbc 513c 8a19 bdbb
00000270: ec3a 9d3c 07ba ac3d 4aae dc3c 6a6e ec3d
00000280: 549d 50bd 9dab 0abc 60ca a1bd 8959 a7bc
00000290: c131 5abb 8d2f 93bd 728d 36bc 4c05 b2bb
000002a0: 4ecb 0b3d 24f2 57bd 3e71 d63d 2b0a 893c
000002b0: 31e4 893d 0d96 0ebc 0091 5ebd b429 373c
000002c0: 4ee0 293b 28c6 1b3d ee08 df3c 5620 0c3d
000002d0: b7f3 2cbd c79a 073b 50f3 dcbb 7fba 26bd
000002e0: ebcc 54be 7afd 0abc 9dae f2bc a7ca 1e3c
000002f0: 73c0 7ebc 3ab8 3ebd 59a9 4cbb 64b1 113d
00000300: 41e0 8dbb 61a4 d6bb 6c9f 773c 08c8 89bb
00000310: e1bc bfbc d35c d73b 5b6d a43c 8794 0d3b
00000320: f974 a8bc 89b2 c2bb ebf2 593d 4eee 143c
00000330: e1f7 3b3d bcd6 183d 3c8d 3a3c 9e5a 68bd
00000340: 249b 363d 78fb a43b 4e20 dc3b f958 8cbc
00000350: bc5c f43c dc89 153c aea9 3abd 7423 173a
00000360: cf6a 0dbc 83ce cdbb f29d cd3a 7b88 a8bb
00000370: 6a86 b13c 6498 053d c24f 203d 16b0 4b3d
00000380: 8961 633d afe3 93bc fd3a eebb 39f8 933c
00000390: e26d c23c 51ae c03c a2fe 41bb 897d 5abc
000003a0: d065 1dbb b921 163d 61c6 503c 941e 80bd
000003b0: 3a08 8e3c a693 86bd 39a0 20bc dd56 39bc
000003c0: 1831 113c 22c1 97bc bc55 1e3b 09db 84bc
000003d0: e20f ebbb 8428 0bbc 03ea 88bb 644b ae3a
000003e0: c563 7cba 3dc9 7c3c 2eeb 8abb ffee f03b
000003f0: 444e 68ba 0590 933c 5769 91bc df51 813c

network_body.linear_encoder.seq_layers.0.bias f4 [256]
-0.017198954 0.017514445 -0.005556469 -0.019099932 -0.019108245 0.013350444 -0.024641184 -0.016273819
0.013355279 0.023160972 0.0129241 -0.005730192 -0.0070884866 -0.011699515 0.021648023 -0.013087146
0.0033925197 -0.015851576 0.02521886 -0.017445879 -0.00324359 0.006086022 -0.0001326857 -0.02187872
0.031041337 -0.011304551 0.0141349295 0.00927998 0.0017648966 -0.0011505593 0.015803417 -0.02223058
-0.007251861 -0.015426998 -0.011471742 -0.0111041395 -0.017486002 -0.016459549 0.021119265 0.008769768
-0.019045345 -0.0054775765 -0.012028354 0.018532226 0.017625673 0.0015581779 0.012595497 0.024416637
-0.025047954 -0.0033487142 -0.009470709 0.02106921 -0.008291746 0.018329259 0.0036795526 -0.003936737
0.029394235 -0.0035034765 -0.0137411365 -0.015738742 -0.012496126 0.0068790154 0.011547428 -0.0030928003
-0.0072782757 0.0129236085 -0.026254397 0.014676248 0.006654015 0.009099492 -0.0070117116 0.0047025396
-0.004820999 -0.00060331955 -0.0025022717 0.014707899 -0.014124998 0.008590842 -0.015515955 0.022469692
0.0051715914 0.016945846 0.00084757654 0.0076917666 0.008287627 -0.01727615 0.011770756 0.012506775
0.011595368 0.004080138 0.020503063 -0.0018652041 0.016584221 -0.0014777031 0.024226433 -0.010817189
-0.006946157 0.01765419 0.004726554 -0.028935293 -0.006025649 -0.00086358516 -0.022621382 -0.00429
-0.013641196 0.014364745 0.02321835 -0.017364018 -0.008168009 -0.0009396795 0.02402494 0.028184606
0.013076125 -0.004909743 0.00077586685 0.012206861 0.006993692 -0.018081617 -0.020689763 -0.012276832
0.011448227 0.004010005 -0.013150563 -0.013540691 -0.0154586565 0.0077407756 0.01991262 -0.005614573
0.02342722 -0.021498365 0.015474336 -0.0050420347 -0.002764626 0.026599282 -0.011451905 0.010180237
-0.014292351 0.0055083665 -0.0065883105 -0.020430954 0.012230093 -0.011746484 0.010550286 -0.0017464999
0.013780806 0.0009346808 -0.004044618 0.002772568 -0.018251043 0.008773971 -0.0022856502 -0.0013786406
-0.0042843563 0.012495779 -0.0021383234 -0.014805294 -0.006289577 -0.013951735 0.009642037 -0.0062384885
0.014072827 -0.018062277 -0.008426962 -0.00015460304 -0.0072995033 0.029544653 -0.019627217 -0.023084436
0.025901183 -0.019360995 0.0015109119 -0.0026876202 -0.005225292 0.018158417 -0.022604974 -0.01876996
0.0005411937 0.0036206194 -0.007496061 -0.013322785 -0.02884219 -0.017341094 0.031004593 0.027768595
0.012926913 0.009322422 0.008593144 0.004750433 0.010130508 -0.0074074483 -0.0059834863 -0.004863167
0.019014418 -0.008167592 -0.0005002753 -0.003812994 -0.002140412 -0.007294423 -0.011760449 -0.013776082
0.0034551318 0.0387815 0.030849813 -0.019330358 0.023445489 -0.017797433 0.0017773838 -0.001976926
0.000582784 -0.0041682976 0.04053319 0.01721987 -0.0045103887 -0.005984163 0.0025045678 0.008378424
-0.012336374 -0.0157942 0.029014638 0.012194308 -0.005932954 0.024228401 0.016257863 0.015007275
-0.009346587 0.02226853 0.014777373 0.040833853 0.0009495576 0.0037278908 -0.0021833575 -0.011366433
0.025204755 0.009192895 0.012447038 -0.0063798 0.017235339 -0.0122471545 0.0016290197 -0.004211701
0.02009622 -0.005298 0.0056097517 -0.00854936 0.011312882 -0.012642112 -0.007337689 -0.040701516
0.022920432 -0.013306509 0.012360118 0.019344043 0.004436529 -0.009163109 -0.016534073 0.0034937866
00000000: d2e4 8cbc 747a 8f3c 0a13 b6bb 7677 9cbc
00000010: e588 9cbc d2bb 5a3c 4fdc c9bc ac50 85bc
00000020: 1ad0 5a3c 14bc bd3c 9bbf 533c 56c4 bbbb
00000030: 8946 e8bb 53af 3fbc 3257 b13c 786b 56bc
00000040: 0955 5e3b 2adb 81bc c897 ce3c a9ea 8ebc
00000050: 6992 54bb 416d c73b 8c21 0bb9 003b b3bc
00000060: 674a fe3c b936 39bc 3196 673c 0f0b 183c
00000070: 1a54 e73a 5dce 96ba 2b76 813c e81c b6bc
00000080: 05a1 edbb 85c1 7cbc f9f3 3bbc 23ee 35bc
00000090: ce3e 8fbc 2dd6 86bc 4f02 ad3c 13af 0f3c
000000a0: fc04 9cbc 3e7d b3bb 9312 45bc e5d0 973c
000000b0: b763 903c c63b cc3a 585d 4e3c 6605 c83c
000000c0: 5e31 cdbc 1a76 5bbb 082b 1bbc 5699 ac3c
000000d0: 1ada 07bc 3e27 963c a624 713b beff 80bb
000000e0: 2ecc f03c 959a 65bb 8122 61bc 89ee 80bc
000000f0: 8dbc 4cbc 5d69 e13b 6c31 3d3c 94b0 4abb
00000100: 9a7e eebb 8bbd 533c 7613 d7bc a574 703c
00000110: ec09 da3b 0916 153c 80c2 e5bb c317 9a3b
00000120: 79f9 9dbb 1728 1eba 27fd 23bb 66f9 703c
00000130: 896c 67bc 9ac0 0c3c a236 7ebc 5c12 b83c
00000140: 7476 a93b 04d2 8a3c e62f 5e3a 370b fc3b
00000150: d4c8 073c b686 8dbc 21da 403c 37e9 4c3c
00000160: 80fa 3d3c aeb2 853b 0af6 a73c dd79 f4ba
00000170: a2db 873c 7daf c1ba 8376 c63c 943a 31bc
00000180: 979c e3bb 859f 903c 35e1 9a3b b509 edbc
00000190: cf72 c5bb 3862 62ba 7a50 b9bc 2193 8cbb
000001a0: 537f 5fbc 1b5a 6b3c 6934 be3c fc3e 8ebc
000001b0: 1dd3 05bc d354 76ba f3cf c43c 67e3 e63c
000001c0: 3e3d 563c e9e1 a0bb 8b63 4b3a 49ff 473c
000001d0: 572b e53b e61f 94bc 947d a9bc c424 49bc
000001e0: 5891 3b3c 5c66 833b 7675 57bc c6d9 5dbc
000001f0: 4e46 7dbc 55a6 fd3b ca1f a33c 74fa b7bb
00000200: 71ea bf3c 571d b0bc 1288 7d3c a737 a5bb
00000210: ba2e 35bb bde6 d93c c5a0 3bbc 02cb 263c
00000220: 772a 6abc 877f b43b c1e2 d7bb d15e a7bc
00000230: ba60 483c 5374 40bc 1bdb 2c3c d0ea e4ba
00000240: e4c8 613c 5e05 753a b788 84bb f9b3 353b
00000250: 3683 95bc b4c0 0f3c d9ca 15bb 81b3 b4ba
00000260: c963 8cbb 19bb 4c3c 1d23 0cbb e791 72bc
00000270: cc18 cebb d195 64bc a2f9 1d3c 3c6c ccbb
00000280: b791 663c 57f7 93bc 3e11 0abc f01c 22b9
00000290: ac30 efbb a107 f23c 42c9 a0bc 921b bdbc
000002a0: b82e d43c f39a 9ebc ca09 c63a c922 30bb
000002b0: ed38 abbb f6c0 943c 112e b9bc 76c3 99bc
000002c0: e5de 0d3a ea47 6d3b 84a1 f5bb cf47 5abc
000002d0: 7546 ecbc e90e 8ebc 58fd fd3c f77a e33c
000002e0: 67cb 533c 12bd 183c 42ca 0c3c 85a9 9b3b
000002f0: 6efa 253c 2eba f2bb 1f11 c4bb 345b 9fbb
00000300: 20c4 9b3c 5dd1 05bc e824 03ba 6de3 79bb
00000310: 2846 0cbb 0e06 efbb e6ae 40bc 13b5 61bc
00000320: 7e6f 623b 5ad9 1e3d bfb8 fc3c b35a 9ebc
00000330: c110 c03c eccb 91bc 1bf7 e83a 518f 01bb
00000340: f9c5 183a 3796 88bb 2106 263d af10 8d3c
00000350: e2cb 93bb cc16 c4bb ad23 243b a845 093c
00000360: 811e 4abc d762 81bc 1bb0 ed3c a3ca 473c
00000370: 3a69 c2bb a47a c63c 362f 853c 13e1 753c
00000380: 6d22 19bc 7e6c b63c cb1c 723c 6641 273d
00000390: bbeb 783a a14f 743b a916 0fbb 473a 3abc
000003a0: 347a ce3c cc9d 163c a9ee 4b3c a40d d1bb
000003b0: 2031 8d3c 4aa8 48bc d584 d53a 4f02 8abb
000003c0: d4a0 a43c d89a adbb 02d2 b73b 9d12 0cbc
000003d0: ab59 393c dc20 4fbc ff70 f0bb a2b6 26bd
000003e0: a1c3 bb3c 8b03 5abc 1882 4a3c 6677 9e3c
000003f0: 4d60 913b dd20 16bc 7772 87bc 03f8 643b

network_body.linear_encoder.seq_layers.0.weight f4 [256, 247]
0.058863074 0.014976336 -0.06003814 -0.09462372 0.02333173 -0.06117729 -0.061389953 -0.067676224
-0.0077446965 0.07612736 0.022753473 -0.06292889 -0.0007822408 -0.013141918 -0.106183864 -0.04950289
0.042226683 0.01195198 0.046286743 -0.07781301 -0.119978346 -0.013748114 -0.083841674 0.04022337
0.071876585 -0.06670898 -0.07062203 0.054943267 0.033614464 0.002472664 0.0041346527 -0.15172301
0.029859131 0.11625228 -0.09188577 -0.028048523 0.011006686 -0.06241364 0.031877853 0.053908166
0.10010257 -0.05497788 -0.032124814 0.053533576 -0.15312892 -0.076011986 0.12835024 0.052309215
0.022661546 -0.020651948 -0.02225414 0.07474996 -0.0855227 -0.012582901 -0.09107715 0.013582228
0.050886787 -0.018414235 -0.106835894 -0.06706138 0.009671728 0.01816558 -0.030745447 -0.023634888
-0.07327369 0.061937664 0.026583284 0.07973577 0.05599225 -0.024315637 0.008047658 0.12435
-0.039071366 0.05109499 0.017810928 -0.055164944 -0.057140637 -0.043047 0.08154072 -0.06140644
0.077968284 -0.028741384 -0.028538767 -0.04649996 0.110614024 0.021507218 -0.068694286 -0.04424857
-0.071408086 0.004409649 -0.112756155 -0.0035946802 0.020112202 0.04501926 -0.07945052 -0.044982057
0.080745734 -0.04577051 0.06087966 -0.08793099 -0.0008392871 0.051627167 -0.08536546 -0.031149909
-0.020355199 0.023221273 -0.060004674 0.0029233987 0.04047102 -0.04064581 0.054749604 0.030946543
0.08582486 0.036381297 -0.06995041 -0.003987719 -0.03536895 -0.083279826 -0.045838587 -0.048950236
-0.009490721 0.06337001 0.046396617 -0.015550418 -0.03832289 0.0030055228 0.058323257 0.034415826
0.047715597 -0.05204674 0.027286211 -0.07771056 0.07560569 -0.008953611 -0.0007023552 -0.016261969
-0.03079179 0.07825885 -0.0037935553 -0.006096232 -0.003643856 0.0048943446 -0.18297598 -0.06818809
-0.07324629 0.014659035 0.09185737 0.046357334 -0.041225348 -0.0155913215 0.042586662 -0.15932666
-0.11137757 -0.16535635 -0.010438039 -0.031163258 -0.04227748 0.058579557 0.011021751 0.009275058
0.112763114 0.061852746 -0.03156668 -0.06828044 -0.035984598 0.028583858 0.004749536 -0.111132465
0.055865712 -0.015608496 -0.024616746 -0.16536437 0.036903944 -0.11423804 0.073600575 0.026385441
-0.125317 0.011661848 -0.0046927915 0.016531013 -0.13389802 -0.057192516 -0.05469784 -0.12044672
-0.13413545 -0.08552338 0.07787176 -0.012645751 0.052530702 0.0887232 -0.08597641 -0.015950268
0.08198082 -0.0104059065 -0.18433107 0.08872382 -0.08048059 0.0062661944 -0.079710536 0.041464582
-0.117166325 -0.058855765 0.066959865 -0.0362075 -0.08490255 0.04497058 -0.04700595 0.05190997
-0.026550367 0.08959829 -0.116437495 0.0049169445 -0.003054871 0.020147126 -0.024844304 -0.037073568
-0.015892616 -0.08879486 -0.0029762152 -0.029522954 0.11530274 -0.072128184 -0.092951044 -0.10679725
-0.07571013 -0.01905652 0.073900364 0.009371946 0.07729832 -0.06312073 0.0893663 -0.06434469
0.097036555 -0.12081424 -0.03931332 -0.042238444 -0.002615158 0.030256325 -0.069173954 -0.038742613
0.045852736 0.035453375 0.048433848 -0.08492667 -0.037203208 -0.045383416 0.09571289 -0.0014668055
0.04318206 -0.009607612 0.0609624 -0.016652681 0.045492675 0.08309351 -0.006966107 -0.03536754
00000000: 681a 713d 4e5f 753c 8dea 75bd 15ca c1bd
00000010: 2f22 bf3c 0a95 7abd 0874 7bbd d599 8abd
00000020: 39c7 fdbb a9e8 9b3d 7e65 ba3c dde0 80bd
00000030: 4b0f 4dba 3351 57bc ed76 d9bd 8bc3 4abd
00000040: e3f5 2c3d 3dd2 433c 2b97 3d3d 6d5c 9fbd
00000050: 35b7 f5bd c53f 61bc 2fb5 abbd 43c1 243d
00000060: 0834 933d b89e 88bd 48a2 90bd 310c 613d
00000070: 52af 093d 6b0c 223b fb7b 873b 475d 1bbe
00000080: 239b f43c ad15 ee3d 9b2e bcbd 04c6 e5bc
00000090: 6355 343c 72a5 7fbd 5a92 023d cfce 5c3d
000000a0: 9402 cd3d 7c30 61bd 4f95 03bd 0646 5b3d
000000b0: d4cd 1cbe 2cac 9bbd 3f6e 033e 3042 563d
000000c0: b5a4 b93c 462e a9bc 504e b6bc 8216 993d
000000d0: 8626 afbd 8328 4ebc a886 babd fe87 5e3c
000000e0: aa6e 503d 73d9 96bc c7cc dabd 7a57 89bd
000000f0: 2b76 1e3c fccf 943c e0dd fbbc f49d c1bc
00000100: 8410 96bd 59b2 7d3d 30c5 d93c 824c a33d
00000110: 2158 653d 9631 c7bc 53da 033c 36ab fe3d
00000120: 4c09 20bd fb48 513d 39e8 913c a3f4 61bd
00000130: 4d0c 6abd 0d52 30bd d2fe a63d 5285 7bbd
00000140: d6ad 9f3d 0d73 ebbc 22ca e9bc be76 3ebd
00000150: 9b89 e23d e82f b03c 97af 8cbd fd3d 35bd
00000160: 673e 92bd d17e 903b b3ec e6bd ba94 6bbb
00000170: 58c2 a43c 1e66 383d f4b6 a2bd 1b3f 38bd
00000180: 055e a53d dc79 3bbd f35c 793d 2a15 b4bd
00000190: 9b03 5cba 0277 533d 16d4 aebd 182e ffbc
000001a0: f2bf a6bc 8a3a be3c 76c7 75bd 7e96 3f3b
000001b0: f1c4 253d 397c 26bd 1f41 603d 9b83 fd3c
000001c0: f2c4 af3d 8e04 153d 2942 8fbd 69ab 82bb
000001d0: 08df 10bd 9d8e aabd 3ec1 3bbd 0b80 48bd
000001e0: f87e 1bbc 23c8 813d 610a 3e3d 2ec7 7ebc
000001f0: 76f8 1cbd 4ef8 443b 5ee4 6e3d 9cf7 0c3d
00000200: 6e71 433d f62e 55bd 5587 df3c b726 9fbd
00000210: 28d7 9a3d 2bb2 12bc 421e 38ba d237 85bc
00000220: 103f fcbc 2d46 a03d 4c9d 78bb e7c2 c7bb
00000230: c2cd 6ebb bd60 a03b 0e5e 3bbe 33a6 8bbd
00000240: 2702 96bd 732c 703c b81f bc3d 30e1 3d3d
00000250: e9db 28bd be72 7fbc 5a6f 2e3d 8726 23be
00000260: ec19 e4bd 2d53 29be 4f04 2bbc 174a ffbc
00000270: 272b 2dbd 1ef1 6f3d 9394 343c 6af6 173c
00000280: 59f0 e63d 4e59 7d3d 104c 01bd 9ed6 8bbd
00000290: 9664 13bd b228 ea3c ffa1 9b3b 6b99 e3bd
000002a0: 72d3 643d c7ba 7fbc 0fa9 c9bc 4755 29be
000002b0: 9728 173d a2f5 e9bd e6bb 963d 4826 d83c
000002c0: 1a53 00be 5611 3f3c fdc5 99bb 0c6c 873c
000002d0: 901c 09be b342 6abd d80a 60bd c5ac f6bd
000002e0: ce5a 09be e226 afbd 3b7b 9f3d 2030 4fbc
000002f0: 6f2a 573d 82b4 b53d 6614 b0bd 23aa 82bc
00000300: 8fe5 a73d 897d 2abc 49c1 3cbe d6b4 b53d
00000310: 02d3 a4bd a654 cd3b 473f a3bd c4d6 293d
00000320: e6f4 efbd be12 71bd 4122 893d 514e 14bd
00000330: 63e1 adbd 1233 383d 5089 40bd 8c9f 543d
00000340: 2880 d9bc 4f7f b73d c876 eebd 521e a13b
00000350: 3b34 48bb 960b a53c 4886 cbbc 74da 17bd
00000360: 3b31 82bc 14da b5bd 9b0c 43bb 1fda f1bc
00000370: d823 ec3d f1b7 93bd 1e5d bebd 84b8 dabd
00000380: ea0d 9bbd 6b1c 9cbc 1359 973d ca8c 193c
00000390: 954e 9e3d 7145 81bd ae05 b73d 26c7 83bd
000003a0: 1abb c63d 756d f7bd 0107 21bd 3802 2dbd
000003b0: 1263 2bbb 1ddc f73c 13ab 8dbd 93b0 1ebd
000003c0: 14d0 3b3d 8f37 113d 9262 463d 09ee adbd
000003d0: 6462 18bd f6e3 39bd 1f05 c43d d341 c0ba
000003e0: acdf 303d 3f69 1dbc b6b3 793d 346b 88bc
000003f0: 8756 3a3d ee2c aa3d f143 e4bb 8edd 10bd

network_body.linear_encoder.seq_layers.2.bias f4 [256]
0.0907879 -0.015031398 -0.053272076 0.005607108 -0.087419085 -0.055686705 0.08654305 0.032021735
0.11516271 -0.017919017 -0.02022969 -0.017757695 -0.020496724 0.03957388 0.1936674 0.008721886
0.09193067 0.03775943 -0.010804508 0.016421564 -0.0036018677 -0.013329754 0.05944155 -0.00023481999
0.08827053 -0.027189486 0.0056790654 -0.073369786 -0.03641759 -0.047364026 0.02413864 -0.044887807
0.051943623 -0.023705842 -0.0034286838 0.09764587 0.062403243 -0.094144754 0.01664545 0.004348741
-0.031194473 0.006463816 0.008014295 -0.08487358 -0.014121065 0.07416477 -0.04652234 -0.029313283
0.01849317 0.009495052 0.027390188 -0.019210944 0.017522732 -0.05095964 -0.05144763 0.0047691525
0.023732083 0.08149767 0.012081262 -0.086777516 -0.09351742 0.039391603 -0.004822376 0.06858666
0.06782232 0.05958744 -0.00014996741 -0.006959803 -0.055579364 0.048230212 -0.027296416 -0.07792916
-0.030224985 -0.04929204 0.037666984 -0.020118449 0.005046002 0.02724987 -0.004585662 0.017991101
0.06540472 -0.0728532 -0.016186522 -0.0069589936 -0.041764718 0.05512933 -0.0101394905 -0.12541984
-0.050554708 0.0060761804 -0.017719088 -0.007743805 -0.056934148 -0.041356456 -0.04929422 0.016882164
-0.011013079 0.0019593432 -0.048869517 0.05425267 -0.0031247928 0.0030813222 0.021452608 0.00054496987
0.13775629 -0.0451207 -0.09628006 0.026148321 0.035194226 -0.1311329 0.009690927 -0.05260957
-0.09980213 0.055737115 0.098503664 -0.0033010552 0.03480609 0.038064133 0.016527807 0.019039392
-0.100261874 0.01940257 -0.057761796 0.021959418 0.05590073 0.00019490202 0.061701737 -0.10633215
-0.013381524 -0.10744035 -0.0034104856 -0.0001406166 0.0034413366 -0.033350214 0.060635995 0.064165875
-0.029375097 -0.055385426 -0.08575293 0.0395775 0.04861826 0.014526957 -0.10915743 -0.1820463
-0.013738098 0.05435168 -0.020513684 -0.0011818422 0.038882717 -0.043224715 0.025427418 0.016414715
0.052958023 -0.048443977 -0.07742199 -0.009961571 -0.018163033 -0.053400025 -0.008198672 0.03751055
0.061629266 -0.03878392 0.0022754264 -0.03210438 0.043628857 0.084696814 0.10999127 0.043281578
0.046300083 0.00050035754 0.018632893 0.034514505 0.057212394 0.057614267 0.008290698 -0.0047516
0.005945389 -0.0071411305 0.005868244 0.04562825 0.025639785 -0.0076075257 0.02333128 -0.046091534
0.013941848 0.06273935 -0.14056097 0.06376148 0.09910559 0.047400545 -0.00074551185 0.07817214
0.011230282 0.03225582 0.08584813 0.013005447 -0.06240585 0.0313708 0.04878646 -0.058755293
0.00513995 -0.014413668 -0.041171864 0.04497067 0.12723807 0.076176755 -0.06194985 -0.051671986
0.027402291 0.13763018 -0.11027919 0.028235126 -0.055210352 0.017070124 0.09051919 -0.07310313
0.035751503 -0.013912899 0.005726934 -0.036761455 -0.12802632 0.023527272 0.00813731 -0.08963106
0.040458392 0.13371807 -0.013179215 -0.049906295 -0.06121488 -0.066994935 -0.046006422 0.016400578
0.0025209077 -0.040310692 -0.11724819 -0.014409677 0.007854586 0.12307977 -0.004610271 -0.03360422
-0.064284995 0.026839599 0.0397143 0.03359039 0.019553076 -0.013402382 -0.041123014 0.038427185
0.01260156 -0.0077866437 -0.012115343 0.08208394 0.016580552 -0.14530022 -0.068948604 -0.039443694
00000000: 02ef b93d 4146 76bc d233 5abd d5bb b73b
00000010: c708 b3bd be17 64bd 7c3d b13d 3929 033d
00000020: 6dda eb3d e7ca 92bc bcb8 a5bc 9678 91bc
00000030: bfe8 a7bc 3918 223d bf50 463e 3ee6 0e3c
00000040: 2646 bc3d a2a9 1a3d 6405 31bc 8486 863c
00000050: 500d 6cbb 0a65 5abc fc78 733d 033a 76b9
00000060: 2ec7 b43d 7cbc debc 7417 ba3b e642 96bd
00000070: 9c2a 15bd c800 42bd 66be c53c 47dc 37bd
00000080: d6c2 543d c132 c2bc c5b3 60bb 8ffa c73d
00000090: 8b9a 7f3d f7ce c0bd 0a5c 883c e27f 8e3b
000000a0: 8d8b ffbc 6bce d33b 644e 033c 33d2 adbd
000000b0: 0a5c 67bc b3e3 973d 368e 3ebd 6922 f0bc
000000c0: fd7e 973c 2291 1b3c 6361 e03c 4560 9dbc
000000d0: d58b 8f3c 0ebb 50bd c0ba 52bd 8d46 9c3b
000000e0: c969 c23c 40e8 a63d 7cf0 453c 69b8 b1bd
000000f0: 1086 bfbd 1759 213d 0605 9ebb 2a77 8c3d
00000100: 6ee6 8a3d f611 743d 9240 1db9 0f0f e4bb
00000110: 30a7 63bd 0b8d 453d bc9c dfbc 5399 9fbd
00000120: 639a f7bc 73e6 49bd b248 1a3d 72cf a4bc
00000130: ef58 a53b 1f3b df3c 5243 96bb 1362 933c
00000140: e9f2 853d 0f34 95bd 9999 84bc 4508 e4bb
00000150: 7b11 2bbd 4bcf 613d 1b20 26bc 0f6e 00be
00000160: 7412 4fbd b21a c73b 9f27 91bc bfbf fdbb
00000170: c833 69bd 6365 29bd bce8 49bd 774c 8a3c
00000180: 3470 34bc 5368 003b 672b 48bd 0c38 5e3d
00000190: 53c9 4cbb 02f0 493b 61bd af3c 4fdc 0e3a
000001a0: fc0f 0d3e 7cd0 38bd 7b2e c5bd 0135 d63c
000001b0: d227 103d b447 06be b2c6 1e3c 227d 57bd
000001c0: 0f65 ccbd 9a4c 643d 4abc c93d 8456 58bb
000001d0: d590 0e3d 23e9 1b3d 5365 873c 80f8 9b3c
000001e0: 1956 cdbd 23f2 9e3c a297 6cbd 3de4 b33c
000001f0: 2af8 643d 9d5e 4c39 f6ba 7c3d acc4 d9bd
00000200: 2e3e 5bbc b009 dcbd 7482 5fbb 7b72 13b9
00000210: 0c88 613b 3c9a 08bd 735d 783d 6669 833d
00000220: 0ba4 f0bc d4db 62bd 3b9f afbd 041c 223d
00000230: f123 473d 7902 6e3c ee8d dfbd 586a 3abe
00000240: c215 61bc de9f 5e3d 500c a8bc 0be8 9aba
00000250: 7c43 1f3d 660c 31bd 294d d03c 2778 863c
00000260: 83ea 583d 316d 46bd 6c8f 9ebd db35 23bc
00000270: a4ca 94bc fcb9 5abd b953 06bc aaa4 193d
00000280: f86e 7c3d e3db 1ebd 521f 153b e27f 03bd
00000290: 2cb4 323d 8675 ad3d 1a43 e13d 0648 313d
000002a0: 28a5 3d3d 6d2a 033a 02a4 983c 155f 0d3d
000002b0: 8b57 6a3d f0fc 6b3d b5d5 073c 4fb3 9bbb
000002c0: 8ad1 c23b 2500 eabb 664a c03b b0e4 3a3d
000002d0: 870a d23c 8d48 f9bb 3e21 bf3c 7aca 3cbd
000002e0: 596c 643c 7d7d 803d 37ef 0fbe 6195 823d
000002f0: dff7 ca3d 1327 423d 746e 43ba b718 a03d
00000300: 37ff 373c ae1e 043d 25d1 af3d cc14 553c
00000310: 479d 7fbd ab7e 003d 50d4 473d 64a9 70bd
00000320: 076d a83b 4e27 6cbc d4a3 28bd 2a33 383d
00000330: b24a 023e 8f02 9c3d 20bf 7dbd 01a6 53bd
00000340: c57a e03c edee 0c3e 0eda e1bd 5a4d e73c
00000350: 4024 62bd a5d6 8b3c 2062 b93d 18b7 95bd
00000360: 2b70 123d eef2 63bc 01a9 bb3b 2e93 16bd
00000370: 5519 03be 44bc c03c 5a52 053c 7d90 b7bd
00000380: b3b7 253d 64ed 083e a2ed 57bc 8b6a 4cbd
00000390: 74bc 7abd a434 89bd 3b71 3cbd 815a 863c
000003a0: d035 253b d31c 25bd d21f f0bd 9116 6cbc
000003b0: 85b0 003c 3f11 fc3d c211 97bb 94a4 09bd
000003c0: daa7 83bd b8de db3c 76ab 223d 1496 093d
000003d0: c62d a03c aa95 5bbc 9b70 28bd d365 1d3d
000003e0: c676 4e3c 1a27 ffbb 6e7f 46bc a01b a83d
000003f0: f0d3 873c 95c9 14be ed34 8dbd b68f 21bd
