results/bomber-v1/Bomberman/Bomberman-2499962.onnx (onnx, 851372 bytes, 9 tensors)

103 f4 [1, 256, 256]
00000000: 50ca 02bd 5f0b 703c 2f4c 323d f121 2ebe
00000010: 469d 74bd 6ba1 e73d 6575 7cbe 096d d73d
00000020: 4ad6 53bc aef0 2f3d 29e0 07be 92a2 95bd
00000030: 2570 ee3c b332 f93c fe5c e3bd ae47 7a3d
00000040: 8938 5b3c 088e ca3d 1154 743e f145 75be
00000050: 88d1 02be 2f44 f4bc 9d8c 2f3c f493 393e
00000060: 157d 04be 35ad 423c c562 00bc b2c9 c63d
00000070: 6db9 263e edf0 ae3d 8f0a 63bd 21fe 30bd
00000080: f2f0 49bd 75d4 0f3e 9dcb f43d ca4f ddbd
00000090: ec25 a3ba 4d4a 0ebd 7c73 ddbd b114 473d
000000a0: 3e63 c2bc 57e6 44bd 65b7 2e3e f69c b0bc
000000b0: 99c1 9eb7 6605 ffbd e260 723c edd9 3fbe
000000c0: cc06 773d e736 453e 19e0 a63d 6636 c93d
000000d0: 5989 06be 5924 a2bc afe8 733e f1e3 d1bd
000000e0: 4b6c 9f3d 28a5 ef3d 2472 0e3e 459e 8bbd
000000f0: cc95 a4bd 8fd0 9cbd 40a5 7c3d bef6 dc3d
00000100: 793c 19bc 4d2b bd3d feaa 2d3c 2d43 823d
00000110: e1b4 473e 791d 94be 051d 923a 14a8 e5bb
00000120: 7c13 a83d 4a01 803c bc2a 9bbd 28b7 0dbe
00000130: d938 dcbc f216 31be 25d0 613e e632 9dbd
00000140: 19c1 863b 7e98 073e 21aa 123e 6e08 16be
00000150: 76d0 3a3c 159c 10be 3986 6dbe dbe2 a5bd
00000160: 5b77 c5bd 21f6 fcbb b8ce 68be 810b 17be
00000170: a7bf 2b3d 57bd 1dbe 1a8e 713d 3422 8c3d
00000180: 27ca cd3d fca5 82bd 3367 013e bfbb cfbd
00000190: e0ff d53c 732a 0fbc 8d95 a6be 3384 cb3d
000001a0: 7675 4e3c 3bfe d5bc 197f 173e 8302 8fbd
000001b0: d69a 93bd a292 69bd 5ad3 11bd 530d 0a3d
000001c0: 9662 07be f34e f6bd 7825 a8bd 2245 103e
000001d0: 5bb4 223d 63c8 15be 93ba b3bd 175b 68bc
000001e0: 0a60 95bd 67cf cabd d73e 253e a068 053d
000001f0: 0fc4 3f3d 8846 2bbd 7ace 0fba 4e0b 67bc
00000200: 65e1 1bbe ef37 053e 73c4 203d 98ae 2bbc
00000210: d7dc 5d3d 619f 09bd f5a2 93bc 8ab9 0ebe
00000220: a851 1c3e e33c 333d 9a6d 00be 5f61 403b
00000230: 1931 1bbd fc12 073d ce11 4cbd e8ea 953d
00000240: f108 c6bc 89bc 313c ff87 11bd f4c5 443e
00000250: a1cf f5bd 3d59 99bd 7a7f 053e f829 6a3c
00000260: ba02 29bd 6176 1c3e c133 83bc fab8 5f3e
00000270: e46d 4f3c 712e 483d 85d7 173e 9de4 2abe
00000280: 2b34 99bd 4413 86bd abb9 2a3d 62ee c03c
00000290: 2e44 c13d 3744 9abd 002a 493d 3ff0 6bbe
000002a0: 2d10 693d 8345 c33d 72ce b2ba e775 023d
000002b0: 451b a73c 0b26 4dbe a09c 2ebe 77d7 873d
000002c0: 71f0 26bd 250d a9bd 86ad 86bd c439 bbbd
000002d0: 013c 72bd 9eca bdbc ddaf 84bd 9c75 683e
000002e0: 2520 4bbe 574a b0bd 0661 87bd 220f b2bd
000002f0: 815b 28be 8e20 e9bd 61b2 893d d91e f6bd
00000300: 2449 2fbd e1c3 d53d ef98 ddbd 724e 84bc
00000310: 1467 1c3e 1a56 223e 6865 86bd 1459 febd
00000320: e5c4 853e 2590 abbd c4f7 69bc 229a 343d
00000330: c873 cebc 30a3 08be 9125 833e d520 dabd
00000340: 1e05 463e 870b 84bd d23f 5e3d e098 c6bd
00000350: 6609 673d 589c 253d 75af df3c eb8d 01be
00000360: 57bf db3d c9dc b9bd 78ad 17be f09d 07bc
00000370: d9d9 38be c61c cf3d 024e 87be 956e cc3b
00000380: e05c 08be faba 61be 0a0b 113e a1f6 3b3e
00000390: db0c 953d 81ca d0bc a512 06bc 112c 9e3d
000003a0: 7fba 3bbd 32a2 38bd f577 4dbd 81b6 2bbc
000003b0: 74dc 4cbd af0e d0bd b74d 00be 9622 6c3e
000003c0: 7bec 4abe 2282 59be 1b64 a6bd fa04 2b3d
000003d0: 2eca 40bd 2aed 933d 7151 4a3d 2174 a73c
000003e0: 5e6f cc3b 00ac d3bd d448 8bbc 7e79 97bd
000003f0: 6904 3abe dea0 b3bc bd6e d63d 65bf f03d
-0.03193122 0.014651149 0.043529686 -0.17005135 -0.0597203 0.11310085 -0.24654157 0.10518844
-0.012929508 0.04295414 -0.13269104 -0.073063985 0.029106209 0.030419683 -0.11101721 0.061103515
0.013380178 0.098903716 0.23860194 -0.23952462 -0.12775242 -0.029817669 0.010714677 0.18122846
-0.1293834 0.011882116 -0.0078360485 0.09706439 0.16281672 0.08542047 -0.05542999 -0.043211106
-0.04930205 0.1404589 0.11952899 -0.10806234 -0.0012447215 -0.034738827 -0.108130425 0.048603717
-0.023728963 -0.04807123 0.17062147 -0.02155922 -1.8925219e-05 -0.124522015 0.0147936065 -0.18735476
0.060309216 0.19259225 0.08148212 0.09824829 -0.13138331 -0.019792723 0.2381923 -0.102485545
0.07784327 0.11701423 0.13910729 -0.06817297 -0.08036384 -0.07656967 0.061681032 0.1078925
-0.009352797 0.092367746 0.01059985 0.06360469 0.19502594 -0.28928736 0.0011147565 -0.007008562
0.08206841 0.015625615 -0.0757651 -0.138394 -0.026882576 -0.17293909 0.22052057 -0.07675724
0.0041123745 0.13241765 0.14322712 -0.14651653 0.01140224 -0.1412204 -0.23195733 -0.0809991
-0.09641906 -0.0077197705 -0.22735107 -0.14750482 0.04193082 -0.15404259 0.05897341 0.06842461
0.10048323 -0.06379315 0.12637024 -0.101432316 0.026122987 -0.008738148 -0.32535973 0.099373244
0.012601247 -0.026122203 0.14794578 -0.06982901 -0.07207267 -0.057024606 -0.03560195 0.033704113
-0.13221201 -0.12026777 -0.082102716 0.14088872 0.03972278 -0.14627223 -0.087758206 -0.014181874
-0.072937086 -0.0990284 0.16137253 0.03257048 0.046817835 -0.04181531 -0.00054857845 -0.014101816
-0.152227 0.13009618 0.03924985 -0.010478638 0.054165687 -0.03359926 -0.01802204 -0.13937965
0.15265524 0.043759238 -0.1254181 0.0029354913 -0.03788862 0.03297709 -0.049821667 0.073201954
-0.024174185 0.010848173 -0.035530087 0.19216138 -0.12002493 -0.07487724 0.1303691 0.014292233
-0.041262366 0.15279533 -0.01601589 0.21847907 0.012660477 0.048872415 0.14828308 -0.16688772
-0.074806534 -0.065466434 0.041680973 0.02355117 0.09436832 -0.07532542 0.04911232 -0.23040865
0.056900192 0.09534743 -0.0013641848 0.03185072 0.020398745 -0.20034043 -0.17051935 0.066328935
-0.040756647 -0.0825446 -0.06576066 -0.09141877 -0.059139255 -0.023167904 -0.06478856 0.22701114
-0.19836481 -0.08607929 -0.066103026 -0.086942926 -0.16441156 -0.113831624 0.06723476 -0.120176025
-0.04279436 0.104377516 -0.108201854 -0.016150687 0.15273696 0.15853158 -0.065623105 -0.12419334
0.2612678 -0.08377103 -0.014280263 0.044092305 -0.025201693 -0.13343501 0.25614598 -0.106507935
0.1933789 -0.06447511 0.054260083 -0.09697127 0.056405447 0.040432304 0.027305344 -0.12651794
0.107298546 -0.090753146 -0.14812267 -0.008277401 -0.18051852 0.1011291 -0.26426703 0.0062387683
-0.13316679 -0.22043982 0.14164367 0.183558 0.072778426 -0.025487186 -0.008183156 0.07723249
-0.045832153 -0.045076557 -0.050163228 -0.010480524 -0.050014928 -0.10159051 -0.12529646 0.23060068
-0.19816773 -0.21241048 -0.08124562 0.041752793 -0.047067814 0.0722297 0.049394075 0.020441117
0.006238862 -0.10335541 -0.0170025 -0.0739622 -0.18165745 -0.021927293 0.104703404 0.117552556

104 f4 [1, 256, 64]
00000000: 139f 00bd 1825 cfbd 331e 943d 95dd ae3c
00000010: 7c4c 3c3d 90bc dd3d 995a 65be 1e66 55be
00000020: d1f8 63be 64d9 93bc fd5d f43a 063e d8bc
00000030: e253 1b3e fdff 8a3d 3923 4dbe a904 f1bd
00000040: 94df d43c 23dc 603d 3303 903b 9f7a 46be
00000050: 35d5 4c3e 2f7f f0bc acd4 383e 79c9 203e
00000060: 2832 893d ba30 47be 9950 883c 4fe5 ea3d
00000070: 713d 1cbe 15c8 a5bd d14f 0c3e d192 85bd
00000080: 7f92 d73a ea40 583d 1da9 65be ed1c 21bd
00000090: b647 6d3e 209f 1abe c8c7 21be ec9b 01be
000000a0: 2644 c53d ab17 7cbd 52db 3c3e 8976 9a3d
000000b0: 8ab9 97be f5fe a53d e597 9a3d 9d29 223e
000000c0: ce36 74be bb7d 89bd 7b22 5e3d 17d1 d0bd
000000d0: 2342 c9bc e918 76bd 5fac 2cbd 2008 533e
000000e0: 41f7 8b3c 41ca f5bd 51ff 38be 4a58 2b3d
000000f0: 139e 96be fb43 bcbd 33c5 573d 92b9 8d3d
00000100: 1781 f4bd fc59 31be 39c8 db3d 67cc 543d
00000110: b1fc d4bc d828 ed3d 50d9 853e 067c 143d
00000120: c2b6 983c 6811 d83d 5710 7b3e 2483 96be
00000130: 9804 893d b58e 28be b9e1 ee3c bc39 fabd
00000140: dae9 ad3d 3c8a 3e3d 3619 08bd 2b11 14be
00000150: c236 37bc 7e04 e9bd e66b d13a aa6a 653e
00000160: 69ef 02bd 2e16 163e 85ed 55bc abaa 733d
00000170: 7e14 e23c ce36 29be db59 8bbe e66a 4bbc
00000180: 103d 593d f880 52bd 4757 653d 226d 86be
00000190: 1ada c8bd 8cd0 863e 7b5d 863e f49b d93d
000001a0: 408b 0cbe 0e1f 69bd 6d99 603d 1378 1abe
000001b0: 0522 eb3d ff09 3ebe e499 b33d 1e80 02bd
000001c0: 94de 3cbe 2ca2 473e bbc6 16be 69f2 2bbd
000001d0: 25a7 19bd b4b5 4abe 9701 7c3e 0fb9 f7bd
000001e0: 96f6 49be a363 5d3e b459 023e 20a3 11be
000001f0: 20f9 3e3e bb07 953d bde0 e23d c80b 64be
00000200: 5f5f 8a3e 3beb 253e 04f7 17be 6f4a e73d
00000210: f317 2a3e 7a4d 73bd c67e 7f3d 0446 13be
00000220: 8646 c33d cb77 a63d 187f f03c e19e 8fbc
00000230: f6ec 253e 622a 503b 7de6 85bd 86a2 8dbe
00000240: 51ae 153e 4b07 6e3e af19 263e afa1 c83c
00000250: 402a 3a3e 9c49 c63d f581 e5bd 4ad4 54bd
00000260: 7e52 063e 7fd5 9f3c b641 d1bd d7d7 8bbe
00000270: abd7 343e bd7f 8cbd 3c20 f13d feea f2bd
00000280: c0ec eebd 9b45 d5bd d243 b8bc 6aff c13d
00000290: 509a de3d 5963 09bd a7d4 90bd f1f8 44be
000002a0: 0910 43bd ac0f 303e 0e84 963d 09c0 0f3e
000002b0: a100 8d3c 3c33 1c3e c6f6 2bbe 049b 073e
000002c0: dfcc 66be 85c7 373e 9aa7 fa3d 4a47 303e
000002d0: 9aad 90bd 452d 2dbd 7d87 1ebe 9170 2cbe
000002e0: 2638 19be 400d 33be c7b7 4f3e daa0 003e
000002f0: 21af 81be 91af 043e d622 64bd 8ad0 0c3e
00000300: e54d adbd 152e 803c da8d 633e 694a aa3e
00000310: 2aad 11be 8b04 45be 6ab4 7e3e 08d7 c03d
00000320: 5f0c 88bc 63f9 14be 2a53 ae3d f1f4 083e
00000330: 696e d9bc d27e aebd 6e9b 963d a02d c1bd
00000340: b413 0ebd 999e 223e 90a2 26be 4d09 ee3b
00000350: f6b6 783e 95cb ddbb d66b 033e 3ea3 4fbe
00000360: 317b 363e 1aaa 0e3e 2257 7dbc 1447 89bd
00000370: 28e7 943e 6ae7 9b3e b62e 85be b559 32be
00000380: be14 7a3d c98f 763e 421f 11be bfba 68be
00000390: 1e5c 953c 861d 083c 6da0 f13d 95aa 0ebe
000003a0: c78d afbd fbff 77bd 0182 62be 1990 323c
000003b0: 048a 33bc 396d dd3d 8f52 3b3e 48b0 4cbb
000003c0: 8644 203e d889 18be 9a28 623d 01a0 f6bd
000003d0: c798 9f3e 2d07 62bd d50c f03d adec 59bd
000003e0: bed6 ccbd b031 4ebe be07 87be b900 bf3e
000003f0: 16ce 953b 6a75 cab9 9c79 debd c675 96bd
-0.031401705 -0.10114497 0.072323225 0.021345893 0.04597138 0.10826981 -0.22397842 -0.20839736
-0.22262885 -0.018047996 0.0018643733 -0.026396763 0.15168718 0.06787107 -0.20032968 -0.11768467
0.025985517 0.05489744 0.0043949126 -0.19382714 0.20003207 -0.02935752 0.18049878 0.15701856
0.0669902 -0.19452181 0.016639994 0.114695184 -0.15257813 -0.08094803 0.13702323 -0.06522144
0.0016446857 0.052796282 -0.22427793 -0.039334226 0.23171887 -0.15099764 -0.15798867 -0.12657136
0.09632139 -0.06154601 0.18443039 0.0754214 -0.29633743 0.0810527 0.07548503 0.15836187
-0.23849031 -0.06713434 0.054232102 -0.10196131 -0.02456767 -0.06008235 -0.042156573 0.20608568
0.017085673 -0.120014675 -0.18066145 0.041832246 -0.29417476 -0.09192654 0.0526783 0.0692016
-0.119386844 -0.17319483 0.10731549 0.051952746 -0.025999399 0.11580056 0.2614236 0.03625109
0.018641833 0.10550195 0.24517952 -0.29396927 0.06690329 -0.16460688 0.029160367 -0.12218043
0.08491869 0.04651855 -0.033227168 -0.14459674 -0.011182489 -0.1137781 0.0015977591 0.2240397
-0.0319666 0.14656898 -0.013057117 0.059488934 0.027597662 -0.16524813 -0.27216992 -0.012415623
0.05303675 -0.051392525 0.055991437 -0.26255137 -0.098072246 0.26330984 0.26243195 0.10625449
-0.13724995 -0.05691438 0.05483382 -0.15084867 0.11481098 -0.185585 0.08769587 -0.031860463
-0.18444282 0.19495457 -0.14724247 -0.041979227 -0.037512917 -0.19795877 0.24609981 -0.12095844
-0.19722971 0.2162004 0.12729532 -0.14222383 0.18649721 0.07276865 0.11078022 -0.22270119
0.27025887 0.16203015 -0.14840323 0.11293494 0.16610698 -0.05940006 0.06237676 -0.14382178
0.09534936 0.081283174 0.029357478 -0.017531814 0.16203675 0.0031763543 -0.06538103 -0.27663058
0.14617278 0.2324497 0.16220735 0.02449116 0.1818018 0.096820086 -0.11206428 -0.051960267
0.13117406 0.019510983 -0.102176115 -0.2731311 0.17660396 -0.06860302 0.11773726 -0.118612275
-0.1166625 -0.10413667 -0.022493277 0.094725445 0.108692765 -0.03354201 -0.0707181 -0.19235589
-0.047622714 0.17193478 0.07349406 0.140381 0.017212214 0.1525392 -0.16793355 0.13242728
-0.2253909 0.17947204 0.12238999 0.17214695 -0.07064362 -0.0422795 -0.15481372 -0.16839816
-0.14962825 -0.17485523 0.20284949 0.1256136 -0.25328925 0.12957598 -0.055697285 0.13751426
-0.08462123 0.015646974 0.22222081 0.33259895 -0.14226213 -0.19240014 0.2487351 0.09416014
-0.016607461 -0.14548258 0.08511956 0.13374688 -0.026541905 -0.08520283 0.073538646 -0.094325304
-0.03468676 0.15880813 -0.1627295 0.0072642923 0.24288544 -0.0067686536 0.12834105 -0.20277116
0.17820431 0.13932076 -0.015462669 -0.0670301 0.29082608 0.30449992 -0.260122 -0.17417033
0.061054938 0.24078287 -0.1417208 -0.22727488 0.018232401 0.00830782 0.11798177 -0.1393226
-0.08571964 -0.060546856 -0.22119905 0.010898613 -0.010958198 0.10811848 0.18293212 -0.0031233002
0.1565114 -0.14896333 0.055214502 -0.12042237 0.31171247 -0.055182625 0.117211975 -0.053204227
-0.10001896 -0.20136142 -0.26373094 0.3730524 0.0045716865 -0.00038615923 -0.10863039 -0.07346682

105 f4 [1, 512]
00000000: e381 bdbc 34e5 a8bd aac1 62bd 052e 1dbe
00000010: d31f 7abd fdb9 613b b771 83bc df12 b8bd
00000020: 653e 893d 16ef 933b a768 a83b 40a8 a43d
00000030: f4aa 403d 69f0 f7bc aacc afbd e57b e33d
00000040: 59bb eabc c4a9 82bd 5ab4 bfbd 1831 5fbc
00000050: f781 a9bc 9e14 b2bd b4e7 023c be60 023d
00000060: dd95 4c3d faa4 aabd a794 1fbd 4098 06be
00000070: e0db dfbc 2c45 bc3c ddc0 0dbd fab0 b93b
00000080: abc9 c23a 13ff 1fbd d651 53bc bc54 aebd
00000090: 82e8 dabc 46ba 95bc ec5a edbc 13f0 353d
000000a0: 2329 73bc 673b a2bd 1a11 9c3d c085 f1bc
000000b0: ec40 223d da73 c43d 1988 923e 79e1 2d3d
000000c0: 39a0 e3bd 1a33 7dbc fc0b 583c 1178 50bc
000000d0: 68ef d0bd da1b 683c a00f 98bd 0013 9a3d
000000e0: 71e9 19be 9df4 41bd d5b6 52bd f295 cebd
000000f0: e6e9 5dbd b1fb 38bc c670 1fbd 10a3 9dbd
00000100: 8aea e03b ed6d d13c 9aab d03d 0156 8dbc
00000110: 0e8e aa3c a40a c93c 8ffa bbbc 458c e03d
00000120: 8fa4 4b3d 5960 a73d e48b 043e 7c22 733d
00000130: 8a23 f53c a2d1 043e 3fb1 373d 4147 b8bc
00000140: 4b0a 123d 9a6d 733c f82a 9ebd 6132 423d
00000150: 528f d8bc d55e a83c ab6c b63d 6b26 c13d
00000160: bf40 9a3d 82f7 bd3c 4fc5 143d 5f03 cfbd
00000170: f0a7 453b b35f 0a3e 11ec 25bd e45c 813d
00000180: 6fc6 3fbc bd5c dbbb d678 693d e7e9 3a3c
00000190: 3735 183d b0bd babc 73d0 d53d 2b42 cc3c
000001a0: c1cf a73d 9382 663d a4f1 58bd 74bf 8c3d
000001b0: cebb 7ebc 0b1d 78bc f2bd 33bd 239a 7b3d
000001c0: 27c8 263c df7f 513c 4093 6ebc 1d04 c03c
000001d0: 58e4 fdbd a001 a93d 104a 073d 31a6 4b3e
000001e0: 0f2e 5bbc 5595 913d bc97 103b b9b9 47b9
000001f0: 7d21 063e a411 753d 3417 bbbd 0fae f13d
00000200: d500 8d3f 9ecc 823f ea19 7a3f cb30 6f3f
00000210: 6bd4 813f 1ea9 833f 571c 713f eed4 8a3f
00000220: 6682 8f3f a445 823f 1bab 853f 0ec8 863f
00000230: 5082 7d3f 8941 823f 2f04 803f 8f85 973f
00000240: 1563 773f 9ac3 843f 5286 613f cae9 773f
00000250: 066a 813f 3fc6 723f 4341 7c3f 4c4c 8b3f
00000260: 31a3 923f dc65 823f 6f9d 843f d99d 723f
00000270: 6735 813f 79c8 893f be71 813f 3567 863f
00000280: 5786 8c3f 863c 853f 5d88 823f 0e4b 863f
00000290: e730 8a3f 8a2c 873f 8fd9 8a3f 9dde 853f
000002a0: 02e7 8f3f 9378 823f 4d82 843f 8127 813f
000002b0: 6dea 923f 8625 863f 6325 a13f fcd9 853f
000002c0: 4ad7 7a3f e664 853f cf18 893f 420c 8a3f
000002d0: 005b 5a3f bd1d 863f eb9c 803f 3579 893f
000002e0: 18e5 7b3f 11b8 843f d2a7 793f 3125 803f
000002f0: ab23 843f 3c91 853f 0749 853f 248f 863f
00000300: 55f9 73bd 3237 f1bd 77b5 b73c ad94 e63c
00000310: dbc5 a73c be3f 2e3d a110 18bc 7ed9 203d
00000320: 3234 80bc 8e52 a0bd 7ddd a4bc 978f 3bbc
00000330: da45 bb3d 7bd0 adbc 12e1 b83c 4ca3 c93d
00000340: 4e0b 6ebc 22ef 28bd 52ad a13c aeac 04bd
00000350: 4e1e a2bd a9dc 06ba b692 443d 39f0 603d
00000360: c837 e8bd c709 8ebb ecad 8bbd 38bd afbb
00000370: 7df6 47bd b860 e53b d2c5 86bd c093 fe3c
00000380: 3a47 333d a7d7 10bc ebf1 353d ed16 9a3d
00000390: 71a6 8cbd 37a5 bbbd 954a 4e3d 49e1 5a3d
000003a0: 4750 c6bc cac0 413c 7e16 a0bc c47d c1bd
000003b0: a023 72bd a771 2ebd 73cf 72be 7354 c03d
000003c0: b2ae b0b8 e65a 063d 54ff 223d 2287 0b3d
000003d0: 536d 7a3d c4dd 1bbd dfbc b1bc cce9 ecbd
000003e0: 48eb 5f3d edba c83c 5350 403c 17c9 a7bb
000003f0: c6fe 7bbd 3ba2 473b 596d 7d3d 4288 9f3c
-0.023133224 -0.08246842 -0.055360474 -0.15349586 -0.061065506 0.0034443133 -0.016045434 -0.089879744
0.06701354 0.0045145852 0.0051394287 0.08039904 0.047038034 -0.030266004 -0.085839584 0.111076154
-0.028653787 -0.063800365 -0.09360571 -0.013622545 -0.020691855 -0.08695339 0.007989813 0.03183054
0.04994761 -0.08332248 -0.038960125 -0.13144016 -0.027326524 0.022982202 -0.034607757 0.005666849
0.0014861127 -0.039061617 -0.012897929 -0.085122555 -0.026722196 -0.018277299 -0.028974019 0.044418406
-0.014841351 -0.07921486 0.07620449 -0.029482722 0.039612696 0.095924094 0.2861946 0.042451356
-0.111145444 -0.015454078 0.013186451 -0.012723939 -0.10201913 0.014166797 -0.07424855 0.07523155
-0.15030457 -0.047352422 -0.051443893 -0.100871935 -0.05417814 -0.011290477 -0.03892591 -0.07697117
0.0068638967 0.025565112 0.101889804 -0.017252924 0.02081969 0.024541207 -0.022946624 0.10964254
0.049717482 0.08172674 0.12943989 0.05935906 0.029924173 0.12970594 0.04484677 -0.022494914
0.035654347 0.014857674 -0.077230394 0.047411326 -0.026435528 0.020553032 0.089074455 0.09431156
0.075318806 0.02318931 0.03632098 -0.10108065 0.0030159913 0.13513069 -0.040508334 0.063165456
-0.011705025 -0.006694405 0.057000004 0.011408306 0.037160125 -0.022795528 0.10440149 0.024933895
0.08193923 0.05627687 -0.05296482 0.06872454 -0.015547706 -0.015143643 -0.043882318 0.061426293
0.010179556 0.0127868345 -0.014561474 0.023439461 -0.12397069 0.08252263 0.033029616 0.19887616
-0.01337768 0.07108561 0.0022063097 -0.00019047306 0.13098712 0.059831277 -0.09135285 0.11800777
1.1015879 1.0218694 0.9769579 0.9343383 1.014295 1.0285985 0.9418387 1.0846231
1.121167 1.0177503 1.0442842 1.0529802 0.99026966 1.017625 1.0001277 1.1837634
0.9663556 1.0372193 0.8809558 0.9684111 1.0110481 0.9483375 0.9853708 1.0882659
1.1456052 1.0187335 1.0360545 0.94772106 1.0094422 1.0764304 1.0112836 1.0500246
1.0978497 1.0409095 1.0197865 1.0491655 1.0796174 1.0560467 1.0847644 1.0458561
1.1242373 1.0193046 1.0352265 1.0090181 1.1477791 1.0480201 1.2589535 1.0457149
0.97984755 1.0421417 1.0710696 1.0784991 0.85295105 1.0477825 1.0047888 1.0740114
0.98396444 1.0368673 0.975217 1.001135 1.0323385 1.0434947 1.0412911 1.0512433
-0.059563953 -0.11778106 0.022425396 0.028147066 0.020480087 0.042541258 -0.009281308 0.039269917
-0.015649889 -0.07828246 -0.020125145 -0.011447809 0.091441825 -0.021217575 0.02256826 0.098455995
-0.014529062 -0.04124368 0.019735966 -0.032391243 -0.079159364 -0.0005144575 0.047991477 0.054916594
-0.113387644 -0.0043346616 -0.06820282 -0.005363133 -0.048819054 0.007000055 -0.065807 0.031076312
0.0437691 -0.008840478 0.044420164 0.07523904 -0.06867684 -0.091623716 0.050364096 0.053437505
-0.024208201 0.01182575 -0.019541975 -0.09447816 -0.059116006 -0.042588856 -0.23711948 0.093911074
-8.4248735e-05 0.03280153 0.03979428 0.03406442 0.061139416 -0.03805329 -0.021696506 -0.11568031
0.05466774 0.024503196 0.011737901 -0.0051204073 -0.061522268 0.0030461687 0.06187186 0.019474152

action_model._discrete_distribution.branches.0.bias f4 [6]
00000000: 02e3 713d ff6c 42bd 7bb3 07bd 6e07 3dbc
00000010: 767f 273c d27a ce3d
0.059054382 -0.047467228 -0.03313015 -0.011537416 0.01022326 0.1008202

action_model._discrete_distribution.branches.0.weight f4 [6, 64]
00000000: f1a3 26bb a934 5abc 0247 aeba edfb d0bb
00000010: b1cd e93c d6e3 a2bb a6c7 2f3c 90c9 553d
00000020: b800 7ebc 4a4c 81bc e7c8 2fbd 08d1 b4bd
00000030: 1979 963b f97b 75bd 65df 90bb 3dd1 393b
00000040: 1309 593d b5e3 acbc afbc 74bb c20a 19bc
00000050: bad7 483c ea88 47bc b064 98ba 079a 69bb
00000060: 6e8d 6d3c 6d81 663a 6f8d fb3b af02 21bd
00000070: 4f48 1b3d def1 5cbd fba9 88bd 3ddd a33c
00000080: d7f3 053d cde2 7d3d 69a4 0dbd f686 6cbc
00000090: fe8b 40bd 08e2 1cbd a749 d83c ec69 01bb
000000a0: 941c 1ebd d679 0cbc 788b 73bd a216 dd3c
000000b0: f93f 86b9 8f3d 29bd 33a1 8f3d 75ac c13b
000000c0: 1f96 2c3b 8284 a4b9 f540 60bd d97b ae3c
000000d0: 031f 293c e3f2 81bc 8328 fabc 9e03 02bd
000000e0: 1135 a63d f9e4 943c 584c 6e3d cd88 3dbc
000000f0: 5c25 c33c 8615 34bd 6150 cb3d e842 0fbd
00000100: 7ec0 133d cad4 893b 97c9 8f3c 5ad5 b3bc
00000110: 23ca 91bc 3e46 5b3c 0a36 8b3a df94 86bd
00000120: df35 dd3b 3525 1cbc a760 75bc 8461 3b3e
00000130: b9e9 ff3b f9ba 7fbc d5c9 6f3c c3aa 383d
00000140: eed4 21be 0cb5 b43c bec8 9535 a8de 55bb
00000150: c381 963b 0ea1 943c f58b aabb d528 48bd
00000160: fb7a 19bc 31b9 22ba 186c c5bc 7b6f 373d
00000170: 2530 b1bd 60c0 023d b400 2c3d a136 3fbc
00000180: 9804 ee3c 7aee de3c abe5 933d 2759 d13c
00000190: cc09 76bc 9005 273c 986e e6bc 423b e33b
000001a0: 09e8 e3bc 54a9 00bd 8203 f7bc e74f 62bc
000001b0: b4bc b43d 36ec b2bc 3dc2 d4bb 34bd 003c
000001c0: 47ff 82bc d157 1b3c 18fb 183d dddd 92bc
000001d0: 3b67 4d3a 4575 163c 6141 6b39 3fa7 cabc
000001e0: 9e70 f73d 6e19 773b 0ef0 7ebb ebb0 a1bb
000001f0: 1b14 983c 105c 923d e98c 99bc 2881 e63c
00000200: 8737 ab3c c859 6cbc 95dc 803a 37a3 f9bb
00000210: f5b7 b4bb 5264 15bc 1e9b d73d d998 653d
00000220: 7327 e43c b85e 99bc 5c61 453a 08a5 19be
00000230: 9864 b8bb 4928 7f3c c037 8abc a494 30bc
00000240: 96e8 803c 3a95 7a3c e633 4d3b e213 08bc
00000250: 0566 e13a 0143 0b3c 2e61 13bd 61de 803c
00000260: 84f3 033d 1f8c 983a 6fbc 513c b1dc 423c
00000270: b0c6 13bd 07ba ac3d 2aba 373d c2a6 073e
00000280: 4a3a 07bd eff7 e3bc f5bd f6bd 339d 24bb
00000290: ccb7 5ebb 8d2f 93bd 728d 36bc 4c05 b2bb
000002a0: 4ea8 523d 45ba 95bd f8a3 cf3d 899a 9aba
000002b0: 37f0 3f3d 0d96 0ebc 0091 5ebd b429 373c
000002c0: 4ee0 293b e7fe 9e3c 7ae7 383d 4d79 853c
000002d0: c955 89bc c79a 073b 50f3 dcbb 059b b8bc
000002e0: 1cbe 67be 7afd 0abc 737f f2bc a7ca 1e3c
000002f0: 73c0 7ebc 33a9 c8bc 1c5b acbc 251b 393d
00000300: 41e0 8dbb 3205 69bb 5464 773c c7c6 89bb
00000310: 1b4b afbb d35c d73b f99d 54bc 8794 0d3b
00000320: f974 a8bc 89b2 c2bb e6ec 593d 6cd6 203d
00000330: e1f7 3b3d 8fc5 9d3c 3c8d 3a3c 1f1f d7bc
00000340: 072d 4d3d 78fb a43b 4e20 dc3b f958 8cbc
00000350: dabd 233a dc89 153c aea9 3abd 7423 173a
00000360: aa64 1a3c 83ce cdbb f29d cd3a 56e1 bfbc
00000370: 8a0d fb3b 6498 053d b9b7 ac3c e7ae 2b3c
00000380: b76d 193d 8fff e039 2188 60bb a129 0037
00000390: 6e45 c23c 51ae c03c a2fe 41bb 897d 5abc
000003a0: fb09 31bc 0e06 d73c cfa3 4fbd f096 73bd
000003b0: 0752 b23c a693 86bd 39a0 20bc dd56 39bc
000003c0: 1831 113c 3a1f ef3a 0c1d 80bc e49c f03a
000003d0: dceb 9dba 8428 0bbc 03ea 88bb f4c0 99bc
000003e0: e50d c23c 3dc9 7c3c 5452 8abb ffee f03b
000003f0: 444e 68ba 0b8f c73b 3a9d 9f39 3a35 653c
-0.0025427307 -0.013318219 -0.0013296308 -0.006377688 0.028540464 -0.004971008 0.010728752 0.052194178
-0.015503101 -0.015783448 -0.042916205 -0.08828932 0.0045920727 -0.059932683 -0.004421162 0.0028353475
0.05298717 -0.021104673 -0.003734391 -0.009340944 0.0122584645 -0.012178639 -0.0011626687 -0.0035644786
0.0144990515 0.00087930897 0.0076767723 -0.0393092 0.037910756 -0.0539416 -0.06673046 0.020002956
0.032703247 0.061983872 -0.034580622 -0.014436474 -0.047008507 -0.038301498 0.026402308 -0.0019746972
-0.038601473 -0.00857397 -0.05945918 0.026988331 -0.00025606135 -0.041318472 0.07013168 0.005910451
0.0026334596 -0.00031379244 -0.054749448 0.02129929 0.010322335 -0.015862888 -0.030536896 -0.03174173
0.0811559 0.018175589 0.058178276 -0.01156826 0.023821525 -0.04396584 0.099274404 -0.034975916
0.036072247 0.0042062746 0.01755218 -0.02195232 -0.017796582 0.013383446 0.0010620963 -0.06571364
0.0067508067 -0.009530355 -0.014976657 0.18298918 0.0078098443 -0.015608543 0.014635523 0.045084726
-0.15803882 0.022058986 1.1159789e-06 -0.0032633934 0.0045931055 0.018143203 -0.0052046725 -0.048867065
-0.0093677 -0.0006207405 -0.024099395 0.04478405 -0.08651761 0.031921744 0.041992858 -0.011670739
0.029054925 0.027213324 0.0722154 0.025555206 -0.015016984 0.010194197 -0.028128907 0.0069345543
-0.027820604 -0.031411484 -0.03015304 -0.0138129955 0.08825055 -0.02184115 -0.0064928816 0.00785761
-0.015990866 0.009481386 0.037348837 -0.017928058 0.0007835512 0.009183233 0.00022435702 -0.024737952
0.12082027 0.0037704366 -0.0038900408 -0.0049344203 0.018564275 0.07146466 -0.018743949 0.028137758
0.020900501 -0.014425702 0.0009831364 -0.0076183337 -0.0055150934 -0.0091181565 0.10527633 0.05605397
0.027850842 -0.018721923 0.0007529461 -0.1500436 -0.005627226 0.01557357 -0.016872287 -0.010777626
0.015735906 0.015294367 0.0031311451 -0.008305522 0.0017196542 0.008499862 -0.03598135 0.015731039
0.032214656 0.0011638439 0.012801274 0.011893437 -0.036078155 0.084339194 0.044855274 0.13247207
-0.033014573 -0.027828185 -0.1204795 -0.0025118112 -0.0033984063 -0.07186804 -0.011142122 -0.0054327603
0.05143004 -0.07310919 0.101386964 -0.0011795323 0.046859946 -0.008702767 -0.0543375 0.011179376
0.002592105 0.019408656 0.04514263 0.016293192 -0.016764538 0.002069162 -0.0067428723 -0.022534857
-0.22631115 -0.008483285 -0.029601788 0.009691871 -0.015548813 -0.024494743 -0.021039538 0.045191903
-0.0043297117 -0.0035556075 0.015099604 -0.0042046043 -0.0053495294 0.006572345 -0.012977117 0.0021603422
-0.02056359 -0.005941693 0.05320444 0.03926699 0.045890693 0.019259242 0.011386212 -0.026259957
0.05009177 0.00503486 0.006717718 -0.01713227 0.00062462466 0.0091271065 -0.045571975 0.0005765476
0.009423414 -0.0062807216 0.001568733 -0.023422878 0.007661526 0.032616034 0.0210837 0.010478712
0.037458148 0.00042915015 -0.0034260827 7.639087e-06 0.023714747 0.02352062 -0.0029601236 -0.013335594
-0.010805602 0.026248004 -0.05069333 -0.059470117 0.02176763 -0.065711305 -0.009803825 -0.011312214
0.0088618025 0.0018243559 -0.01563885 0.0018357304 -0.0012048441 -0.008493546 -0.004178287 -0.018768765
0.023688266 0.015428838 -0.00422124 0.0073527093 -0.000886176 0.00609005 0.00030443986 0.013989741

network_body.linear_encoder.seq_layers.0.bias f4 [256]
00000000: 2cc0 8c3b 8cf5 4eba fc75 dbbb 86aa bf3b
00000010: cd24 c2bc 4d45 17bc 5539 98bc 0767 48bc
00000020: efc6 67bb d00f af3c ab10 0c3c e6af 59bb
00000030: f8f5 3cbb 3e6f b83b 67c4 b93c 0cfb a9bb
00000040: 4b39 a1bb 5a4c 173c e413 6e3c f2c6 84bc
00000050: 9973 50bc abf4 a03b 3c60 c73b 4753 0dbc
00000060: 2b5e a03c 5ee2 13bc 716f e2bb 65b1 073c
00000070: f227 8d3c 4409 003c 43fe c1bb a7d7 fe3a
00000080: bc03 fabb 607d 6bbc e6b2 6cbc 2d6d 1bbc
00000090: 5d1f 75bc 8df0 ee3b 463a 3b3a 33bd 153c
000000a0: 687b 3abc 2735 7aba a8fe 3dba ccfb bfb8
000000b0: 4fa1 d13c 45c0 193c 5664 a53c c6a3 81bb
000000c0: 22fa 8bbb 5e79 593c e5fb 84bb 45b5 88bb
000000d0: 20b8 023c a1b5 94bb ec20 bcbb b7b8 673a
000000e0: af7e d23c 3fd5 863c 6dad 45bb 8c51 a3bb
000000f0: 3499 373b 6324 f93a 937e 36bc b905 02bc
00000100: fa52 c93b 0404 843b 8c9f e5bc 6d39 e6bb
00000110: 4ab7 0bbb f62e 0e3c 9afa 0dbc 4ca1 16bc
00000120: 2fcb 473a e5b5 89bc 4736 9b3b ed39 193b
00000130: c0d3 a1bc 6135 92bb 25a8 bf3b d3d4 683c
00000140: 4b39 523b 80a0 20bb e5fe 37bb d515 06bc
00000150: 96ff 78bb 842a 62bc e1bf d03c f437 80bc
00000160: 5196 fb3b bd21 08bc 1255 d5bb 59e6 21bc
00000170: 4e48 a63c defa 423c e04e b03c e543 b93b
00000180: 6ce1 67bb df3a 863b f69f 9fbc ab2e febc
00000190: 4e63 abbb 4365 4a3c 7c46 a8bc df2b 5cbc
000001a0: 5ce7 c9b9 a776 b439 cc0b f93c 620b 2ebb
000001b0: f30a afbc 15d9 3d3c d9eb 593c 29f7 c43c
000001c0: c0fe b23c d5d0 d0bb 35fc e3bb 3513 973c
000001d0: 8c6a 2bbc 31c0 de39 e449 c2bb ed66 75bc
000001e0: 92ba c2bb 7276 0b3c acee 61bc 8dd7 8f3a
000001f0: 0656 363b a7b9 663c 5c26 6c3a 325a 61bb
00000200: ad4c 0c3b 5e73 3dbc af60 453b 469f cc3b
00000210: 04dc 19bc 60cb a23c c63e aabc eb86 5e3c
00000220: ec0e 12bc 06e7 9539 9aa7 9fbc 530a 49bc
00000230: 6b3e b93c 5757 a3bc 9b74 3dba 5e33 cebb
00000240: 2b0e a139 275e 9f3a 4d4a ffbb 23ce 9bbb
00000250: 47b5 99bc 3b8b 5abc 633d 5e3b 4371 333b
00000260: 5878 083a ec40 123c f21c 57bb 197a 803b
00000270: a943 73bc 9273 8b3b 8fd9 3bbb 8bd8 c63b
00000280: 3a34 86bb e567 dbb9 192e 40bc c014 64bb
00000290: c5e3 153b cc82 ac3c 0e51 c0bc aedf afbc
000002a0: 03e6 b83c 08a6 98bc 8e67 833a 7b72 1bba
000002b0: 5692 54bb fdc4 743c 41f0 09bd 804c 49bb
000002c0: 3623 513c 6066 28ba 3733 37bb 1549 00bb
000002d0: 7a42 cabc 48f5 363c e6eb 593c 55c8 cb3c
000002e0: 6743 3e3b 6a21 51bb b5e6 3ebc 3b34 593c
000002f0: 277b 1e3b 223c 5b3b a93e 88bc cc11 a43c
00000300: 7734 38bb c7ea b23b 4a7b e83b 78f0 c23b
00000310: cec6 2dbc 0e5a b7ba 711a c33b 068f 4bbc
00000320: ebae 6cbc 8ee6 003d 209b 403c cd11 35bc
00000330: c529 0c3a 87ea ecbc 0a6a ba3c 13d2 ef3b
00000340: 44f1 7aba fc66 9b3b 5214 e93c 1405 e9bb
00000350: d071 8abc 72d2 3d3b 7d0e 603b 9774 323b
00000360: 235f 8ebb 9df1 79bc 551d af3c ab73 85bb
00000370: 5f56 933c 5442 c43c 31ed 1b3b 8f18 a938
00000380: 1be7 30bc f71d 02bb a699 febb 717d 1a3d
00000390: 20fc a5bb b5af 18bb e838 27bb 56b4 ed3a
000003a0: a7cd b03a 179a ddbb 9595 363b 1302 623b
000003b0: 3d72 00bc 35dd 0cbc 6c4d 123c 6d6c 113b
000003c0: 1727 e53c fe54 4cbc 62ea 2f3c 2a18 de3a
000003d0: d800 edba b76e 72bc 4858 debb 1608 17bd
000003e0: 39d1 97b9 eebb d739 a62e e1ba 66db 5ebb
000003f0: 53af 823c fc2c bf3a 4245 3f3b d28a bf3b
0.0042953696 -0.00078948657 -0.0066974144 0.0058491854 -0.023699189 -0.009232831 -0.018582026 -0.012231595
-0.0035366376 0.021369845 0.008548896 -0.0033216416 -0.0028833132 0.0056284955 0.02267666 -0.005187398
-0.00492016 0.009234512 0.0145311095 -0.016208146 -0.012722873 0.004911979 0.00608447 -0.008625812
0.019576153 -0.009026138 -0.0069102575 0.00828204 0.017230961 0.007814709 -0.005920203 0.0019442932
-0.0076298397 -0.014373153 -0.01444695 -0.009486479 -0.014961091 0.0072918595 0.00071421673 0.009139347
-0.011381961 -0.00095446635 -0.00072477246 -9.1544905e-05 0.025589613 0.00938422 0.020189445 -0.003956291
-0.0042717615 0.013273565 -0.0040583485 -0.0041719996 0.007978469 -0.0045382534 -0.0057412293 0.00088394753
0.025695173 0.016459106 -0.0030163184 -0.0049840864 0.00280149 0.0019008036 -0.011138576 -0.007935935
0.006143925 0.004028799 -0.02803018 -0.0070258887 -0.0021318966 0.008678189 -0.008665705 -0.00919373
0.0007621524 -0.016810367 0.004736695 0.0023380474 -0.01975429 -0.0044619297 0.005848902 0.0142108975
0.0032077606 -0.0024509728 -0.0028075513 -0.008183916 -0.0037994138 -0.013804082 0.02548212 -0.01565168
0.007677831 -0.008308825 -0.0065103853 -0.009881579 0.02029815 0.011900632 0.021521986 0.0056538456
-0.0035382165 0.0040963735 -0.019485455 -0.031028112 -0.005230344 0.012353244 -0.020541422 -0.013438194
-0.00038510084 0.00034420678 0.030401133 -0.0026557078 -0.021367526 0.011587401 0.013300859 0.024043636
0.02184999 -0.006372551 -0.0069575557 0.018441776 -0.0104624145 0.00042486333 -0.0059292186 -0.014978153
-0.005942651 0.008512126 -0.013789814 0.0010974273 0.002782227 0.014082349 0.00090084015 -0.0034386036
0.0021408007 -0.01156315 0.0030117442 0.006244573 -0.009390835 0.019872367 -0.020781886 0.013581972
-0.00891469 0.0002859162 -0.019489098 -0.012270528 0.022612771 -0.019939108 -0.00072271534 -0.0062927445
0.0003071887 0.0012158797 -0.0077908398 -0.004754798 -0.018763198 -0.013338859 0.00339111 0.0027380742
0.0005205921 0.008926611 -0.003282365 0.003920805 -0.014847674 0.0042557204 -0.002866361 0.0060682944
-0.0040955814 -0.00041848343 -0.011729741 -0.0034802407 0.0022871357 0.021058463 -0.02347615 -0.021468963
0.022570616 -0.018633857 0.0010025369 -0.00059298397 -0.0032435856 0.014939544 -0.03367639 -0.0030715764
0.012764743 -0.00064239465 -0.002795411 -0.001957481 -0.024689902 0.011166878 0.0133008715 0.0248758
0.0029031874 -0.0031910785 -0.0116516845 0.013257082 0.0024182291 0.003345259 -0.016631441 0.020028017
-0.0028107443 0.0054601165 0.0070947753 0.0059490763 -0.010606481 -0.001398863 0.00595408 -0.012424236
-0.014446001 0.031469874 0.011755735 -0.011051607 0.00053468003 -0.028920425 0.022755641 0.007318744
-0.00095726945 0.0047425013 0.028452072 -0.007111201 -0.016899973 0.0028964547 0.0034188323 0.0027230137
-0.0043448373 -0.015255359 0.021376291 -0.0040726266 0.01798552 0.023957409 0.00237925 8.0631224e-05
-0.010797287 -0.0019854286 -0.007769781 0.037717286 -0.005065456 -0.002329809 -0.0025516097 0.0018135409
0.0013489024 -0.0067627537 0.0027860154 0.00344861 -0.0078397365 -0.008597662 0.008929592 0.002218987
0.027972741 -0.012471436 0.010737034 0.0016944457 -0.0018081916 -0.014796904 -0.0067854263 -0.036872946
-0.00028956847 0.00041148014 -0.001718004 -0.0034005283 0.015952742 0.001458555 0.0029185568 0.005845406

network_body.linear_encoder.seq_layers.0.weight f4 [256, 247]
00000000: 310c 713d 3626 753c c4f8 75bd 2cd1 c1bd
00000010: c005 bf3c 41a3 7abd 3f82 7bbd eca0 8abd
00000020: 7539 febb 92e1 9b3d 0f49 ba3c f4e7 80bd
00000030: 08a2 50ba 4b8a 57bc 7d78 d9bd b6c6 4abd
00000040: 52ed 2c3d 60af 433c 938d 3d3d 5860 9fbd
00000050: d1b9 f5bd 7c4d 61bc edb6 abbd ceba 243d
00000060: aa32 933d cfa5 88bd 5fa9 90bd 8d05 613d
00000070: 1ba1 093d b0aa 213b bf09 873b 935e 1bbe
00000080: b47e f43c eb10 ee3d b235 bcbd 70cb e5bc
00000090: 4b1c 343c 68a8 7fbd 2384 023d 98c0 5c3d
000000a0: 0701 cd3d 3f37 61bd 339c 03bd 4840 5b3d
000000b0: d4ce 1cbe e5b1 9bbd 856b 033e 2634 563d
000000c0: d694 b93c 8442 a9bc 3855 b6bc 6b0f 993d
000000d0: 9d2d afbd ad32 4ebc bf8d babd e66d 5e3c
000000e0: 7360 503d 28e0 96bc ded3 dabd a75a 89bd
000000f0: 133d 1e3c a5be 943c 4ffa fbbc 8aa0 c1bc
00000100: 9b17 96bd 22a4 7d3d 48c0 d93c 8849 a33d
00000110: fc51 653d f545 c7bc 10b9 033c dca7 fe3d
00000120: 6b0e 20bd 4d44 513d 6adc 913c 38fc 61bd
00000130: 9417 6abd 4460 30bd bbf7 a63d 878a 7bbd
00000140: bfa6 9f3d ea7e ebbc 91e6 e9bc 067d 3ebd
00000150: 8482 e23d f424 b03c aeb6 8cbd 4042 35bd
00000160: 7e45 92bd d925 903b caf3 e6bd 4179 6cbb
00000170: 7bb6 a43c 7460 383d 20ba a2bd 1c45 38bd
00000180: de5a a53d 0780 3bbd 6355 793d 3a18 b4bd
00000190: 13d3 5eba 956b 533d 31db aebd 874a ffbc
000001a0: 61dc a6bc 442e be3c add5 75bd 7736 3f3b
000001b0: bab6 253d 5182 26bd e832 603d 5977 fd3c
000001c0: dbbd af3d 1efb 143d 4049 8fbd 7c1b 83bb
000001d0: 3fed 10bd b495 aabd 4bc7 3bbd d885 48bd
000001e0: eb95 1bbc 10c5 813d 2704 3e3d 9be0 7ebc
000001f0: 2efe 1cbd 1797 443b 54de 6e3d 6df0 0c3d
00000200: 0f66 433d 2d3d 55bd e66a df3c ba29 9fbd
00000210: 11d0 9a3d 6cc9 12bc ffb0 3bba 6f44 85bc
00000220: 7f5b fcbc 4f42 a03d d381 79bb 33f4 c7bb
00000230: 49b2 6fbb 120f a03b 9861 3bbe 4aad 8bbd
00000240: de03 96bd 3c14 703c af1c bc3d f9da 3d3d
00000250: 1ae2 28bd 477e 7fbc 6e6b 2e3d af28 23be
00000260: 351e e4bd b154 29be e01f 2bbc 8666 ffbc
00000270: 5e39 2dbd c9ed 6f3d 7b5b 343c 0cdf 173c
00000280: 42e9 e63d bc4d 7d3d 475a 01bd ddda 8bbd
00000290: cd72 13bd 6a1c ea3c c32f 9b3b 609c e3bd
000002a0: 3bc5 643d c2f3 7fbc c1af c9bc f055 29be
000002b0: 3c26 173d 9cf8 e9bd 55b6 963d b119 d83c
000002c0: 4155 00be 5aed 3e3c 9bf8 99bb 125e 873c
000002d0: c21d 09be ea50 6abd 0f19 60bd 17ae f6bd
000002e0: 585e 09be 4029 afbd 2474 9f3d cf66 4fbc
000002f0: 381c 573d a1b1 b53d 7d1b b0bd 92b9 82bc
00000300: 78de a73d 0b96 2abc d3c4 3cbe bfad b53d
00000310: e1d4 a4bd a128 cd3b e341 a3bd c9d1 293d
00000320: 01fa efbd 7015 71bd 9d20 893d 914f 14bd
00000330: 17e3 adbd 7030 383d e48c 40bd 5591 543d
00000340: 979c d9bc e37d b73d df7d eebd b3f6 a03b
00000350: c218 49bb a5f6 a43c b7a2 cbbc c2e0 17bd
00000360: aa4d 82bc 0ddd b5bd 22f1 43bb aada f1bc
00000370: c11c ec3d 08bf 93bd 8b5d bebd 38b9 dabd
00000380: bf10 9bbd 6129 9cbc 5356 973d 1673 193c
00000390: 944b 9e3d a948 81bd 9702 b73d d0ca 83bd
000003a0: 12bc c63d 8c74 f7bd 3815 21bd 6f10 2dbd
000003b0: 9947 2cbb aebf f73c 2ab2 8dbd cabe 1ebd
000003c0: ddc1 3b3d 5829 113d 5b54 463d 20f5 adbd
000003d0: 9b70 18bd 2df2 39bd 08fe c33d 2913 c6ba
000003e0: 1bb1 303d 5623 1ebc 2585 793d 3bc8 88bc
000003f0: f627 3a3d a615 aa3d 3eb8 e5bb 1f0c 11bd
0.058849517 0.0149627235 -0.060051695 -0.094637245 0.023318172 -0.061190847 -0.06140351 -0.06768975
-0.0077583143 0.076113835 0.022739915 -0.062942415 -0.0007958715 -0.01315553 -0.106186844 -0.04950591
0.042218514 0.011943668 0.046277594 -0.07782048 -0.11998332 -0.013751384 -0.083845 0.040217213
0.07187398 -0.066722505 -0.07063555 0.054936934 0.033600908 0.0024668388 0.004121035 -0.15172796
0.029845573 0.116243206 -0.09189929 -0.028051108 0.010993074 -0.062416464 0.031864297 0.05389461
0.100099616 -0.054984327 -0.032131385 0.0535281 -0.15313274 -0.0760229 0.12833984 0.052295826
0.022653978 -0.0206616 -0.022257432 0.07473644 -0.08553622 -0.012585324 -0.09109067 0.0135760065
0.05087323 -0.018417433 -0.10684942 -0.06706744 0.009658116 0.018157313 -0.030759005 -0.023636121
-0.07328721 0.061924107 0.026580945 0.07973009 0.05598639 -0.02432535 0.008039728 0.124343604
-0.03907625 0.051090527 0.017805297 -0.055172175 -0.057151392 -0.043060556 0.081527196 -0.061411407
0.07795476 -0.02874704 -0.028552325 -0.04650595 0.1106005 0.021501996 -0.06870781 -0.044252634
-0.07142161 0.004399043 -0.11276968 -0.0036083015 0.020106545 0.04501386 -0.07945657 -0.044987783
0.08073972 -0.045776393 0.060872447 -0.08793683 -0.00085000804 0.05161627 -0.08537901 -0.031163467
-0.020368757 0.02321542 -0.06001823 0.002917675 0.040457465 -0.040651623 0.054736048 0.030940698
0.08581134 0.036372297 -0.06996393 -0.004001079 -0.035382506 -0.08329335 -0.045844357 -0.04895577
-0.009496192 0.06336415 0.04639068 -0.01555648 -0.038328342 0.0029997283 0.058317497 0.034408975
0.047704753 -0.052060295 0.027272653 -0.077716306 0.07559217 -0.0089591555 -0.00071598584 -0.016267983
-0.030805347 0.07825147 -0.0038071766 -0.006102109 -0.0036574772 0.004884609 -0.18298948 -0.06820162
-0.07324956 0.014653262 0.091851585 0.046351407 -0.041231252 -0.015594072 0.04258292 -0.15933488
-0.11138574 -0.16536213 -0.010444611 -0.031176817 -0.042291038 0.05857638 0.011008139 0.009269487
0.11274959 0.06184171 -0.031580236 -0.06828854 -0.035998154 0.028578002 0.0047359182 -0.111138105
0.055852156 -0.015622081 -0.024619939 -0.16536689 0.036901698 -0.114243716 0.07358996 0.026379438
-0.12532522 0.011653269 -0.0046988255 0.016524348 -0.13390258 -0.057206072 -0.054711398 -0.12044924
-0.13414896 -0.0855279 0.07785824 -0.012658789 0.052517146 0.08871771 -0.08598993 -0.015957627
0.081967294 -0.01041175 -0.18434457 0.0887103 -0.08048416 0.006260947 -0.07971551 0.041459832
-0.11717606 -0.058858335 0.066956736 -0.036208693 -0.084905796 0.04496807 -0.047009364 0.051896412
-0.026563926 0.08959558 -0.11645102 0.0049122213 -0.0030684923 0.02013714 -0.024857862 -0.03707958
-0.015906174 -0.08880053 -0.0029898365 -0.029523212 0.11528922 -0.07214171 -0.09295186 -0.10679859
-0.075715534 -0.0190627 0.07389512 0.0093658175 0.07729259 -0.06312687 0.08936041 -0.06435168
0.0970384 -0.120827764 -0.039326876 -0.042252 -0.0026287793 0.030242767 -0.06918748 -0.03875617
0.04583918 0.03543982 0.04842029 -0.084940195 -0.037216764 -0.045396972 0.09569937 -0.0015111911
0.04313765 -0.009651979 0.060917992 -0.01669704 0.045448266 0.0830491 -0.007010489 -0.03541195

network_body.linear_encoder.seq_layers.2.bias f4 [256]
00000000: d43e d53d 1da3 7abc c58f 4dbd 0b26 8a3b
00000010: d0e1 d6bd ffec 07bd d971 b33d ae5b 3d3b
00000020: 09ba f53d 13b1 b8bc e3b3 a0bc 6183 d6bc
00000030: 495b 7abc 41a3 4c3c e6af 263e e6d2 d23c
00000040: 321e bc3d 97cc 5a3d 5628 24bb df38 88bc
00000050: b67f 54bc 76b6 53bc 2eaf 7b3d cf95 db3c
00000060: c3bd af3d 1ba4 e9bc f3ef 943c 1dce 8bbd
00000070: b0d4 1fbd 5ee2 f8bc c6fa d33c ef95 5bbd
00000080: 281e 1f3d 78d9 24bc fbfb 4e3c 731d d63d
00000090: d9f8 523c e454 f5bd a5db c03c e440 8a3b
000000a0: d345 48bd b3f4 603d 27b0 a6bc d28d bdbd
000000b0: c925 a3ba a143 973d 26af 24bd 7c22 8bbc
000000c0: 87b4 993c 5b9f 3d3d edbc 0a3a 3538 17bd
000000d0: 8e4a a43c d20a 85bd c2fb 67bd ac3e b6bc
000000e0: 5a55 653c 5a00 9f3d 627d 083d c11d 9bbd
000000f0: 25e7 8fbd c810 dc3c ade5 9abc 30e6 793d
00000100: 0afd 903d aae7 a93c c621 523c 3e6d fc3b
00000110: 61db 99bd 43a8 463d 0827 54bd 0968 90bd
00000120: b0d8 a3bc 58f8 31bd 2d4b f73c 5df3 193b
00000130: c2d5 7b3c a08d 0d3d 6baa c53a d5d8 8bbb
00000140: ca59 793d a028 9abc 3370 673c 01de 43bc
00000150: d8b7 eabc f4ae fc3c 4965 aebb ab0c cabd
00000160: 3da2 61bd 7c10 4b3c dfcc 173c 094c d7bc
00000170: 810a 6abd e42b dabc 980d e5bc cd2b f2bb
00000180: 5d42 0abc 98ff b7bc 2398 d8bc 161e 073d
00000190: 05c0 783b 65ce 0cba 7c0b 9a3c 93ba dcbb
000001a0: 7f0e 083e 1a46 8dbd 23fc bebd b69d 093d
000001b0: 96aa a33c b1b8 efbd 9598 203d 62b8 45bd
000001c0: acb4 9cbd c121 283d 416d d93d 0476 6dbb
000001d0: 85a2 573d 41d6 f13c e08a b4bb e18c 773c
000001e0: b00c d0bd afef b83c cf76 5abd 7bca ad3c
000001f0: b64f 4b3d 9289 d6bc 5253 193d bb94 a8bd
00000200: 8c9c 8abc ea41 9abd c50c dc3c 2463 1cbc
00000210: 15af 093b ed47 c1bc a7dd 763d f04e 803d
00000220: 2db0 e8bc ad12 85bd 6b7b 5bbd 26a9 69ba
00000230: 8c7f 823d 96a9 383c 0f6b 92bd 4d12 2dbe
00000240: dc58 4cbb cbcc 303d 6c58 47bc fe40 cbbb
00000250: 5a93 ca3c 3e18 8fbc 7df0 8339 2feb 9d3c
00000260: bd0f 213d 3831 fcbc e30b a3bd 2874 88bc
00000270: ebd7 073c 1ea3 54bd 3e28 e9bc 7f5c 7fbc
00000280: a20c 103d ed17 6bbd 19e0 743b bd80 3dbc
00000290: bcd3 0f3d 920a 703d e7d9 903d 051f 313d
000002a0: 6166 393d 0312 8dbc 4445 4fba 5f9d ba3c
000002b0: 7185 e23d 0e79 923d 111c 81bc 89e7 e5bb
000002c0: c525 74bc 24d2 57bc 11fa e1bc 5499 193d
000002d0: 263b 383c 9124 993a f66f af3c 40fe 1dbd
000002e0: 20b4 a53c bf33 263d 14e7 edbd 24d6 983d
000002f0: 07a0 943d 53d9 5b3d 7380 97bc 0a6e 803d
00000300: 6077 3e3c 3e5d 9e3c 5ea0 c03d 0311 92ba
00000310: 74d2 2abd 2f4d 2b3d b98e 403d 18fe 4bbd
00000320: a682 d53c f50f 0cbc 27ee 07bd eb32 493d
00000330: d3cb f43d 4304 983d e5fc 68bd 68f5 88bd
00000340: 40f1 693d 46c0 0d3e 1c8b a8bd a9a3 993d
00000350: af4b 6abd 8c02 25bb 80e7 9f3d 6887 95bd
00000360: 0a6a e43b f390 97bc d725 a0bc 2103 22bd
00000370: f3bd b9bd 032f 983b baed 573c 6f8d 68bd
00000380: 51ca 873c fe57 073e 13a8 483b 6670 8ebd
00000390: 80bf 24bd 68fb 9abd 8265 3ebc 291e e9bc
000003a0: f181 9d3c 66ad 38bc 4a71 b1bd 5627 f7bc
000003b0: 9baf 243c 479d f03d 3143 e13c 4714 f6bc
000003c0: 1fc2 1fbd 40c5 023d 0ebc b33c c19b 12bc
000003d0: e602 863c 9ac4 483c 08d4 7abc 1089 113d
000003e0: 7fcf 39bc b1de f4b9 6d4e 5dbc 0fe5 f13d
000003f0: 3f65 943c 3ab5 05be 4314 a3bd 4dad a3bc
0.10412374 -0.015297678 -0.050185937 0.004215961 -0.10492289 -0.033185 0.08761949 0.0028893757
0.11998374 -0.022545373 -0.019617027 -0.026185693 -0.015280553 0.012490095 0.16278037 0.02573533
0.09185447 0.05341777 -0.0025048456 -0.01662868 -0.012969902 -0.01292192 0.06144636 0.026804833
0.08581116 -0.028520634 0.018180823 -0.06826422 -0.039021194 -0.030381378 0.025876414 -0.053609785
0.03884712 -0.010061614 0.012633319 0.10454836 0.012876713 -0.11979082 0.023542235 0.0042191613
-0.048894715 0.054920863 -0.020347668 -0.09255566 -0.0012447174 0.07385946 -0.040206097 -0.016984217
0.01876284 0.04629455 0.00052924344 -0.036918838 0.020055082 -0.064962044 -0.05663658 -0.022246681
0.0139974 0.07763739 0.0333227 -0.075740345 -0.07026509 0.02686347 -0.018908346 0.06101054
0.07079513 0.020740349 0.012825435 0.0077034524 -0.07512546 0.04850031 -0.051795036 -0.07051093
-0.020000786 -0.04344973 0.030187214 0.0023491003 0.015370788 0.034558892 0.0015080696 -0.0042677918
0.060876645 -0.0188182 0.0141258715 -0.011954785 -0.028652117 0.030845143 -0.0053221327 -0.098656975
-0.055086363 0.012394067 0.009265154 -0.026281374 -0.057138924 -0.026632257 -0.027960584 -0.0073904754
-0.008438674 -0.022460744 -0.026439732 0.032987677 0.003795625 -0.00053713314 0.018804304 -0.0067361086
0.1328678 -0.068981364 -0.09325435 0.03359767 0.019978803 -0.11705149 0.039208014 -0.048271544
-0.07651648 0.041047815 0.10616542 -0.0036233673 0.052645225 0.02952111 -0.0055097193 0.015109272
-0.1015867 0.022575228 -0.05333596 0.021214714 0.049636565 -0.026188646 0.037432976 -0.08231493
-0.01692035 -0.07532103 0.026861558 -0.009545121 0.0021008898 -0.023593867 0.060269978 0.06265056
-0.02840432 -0.06497703 -0.053584497 -0.000891345 0.06371984 0.011270901 -0.07149326 -0.16901512
-0.0031180894 0.043164056 -0.0121670775 -0.006202816 0.024728466 -0.017467614 0.00025165445 0.019277183
0.03932165 -0.030785188 -0.079612516 -0.01665695 0.008291225 -0.051913373 -0.028461572 -0.015586018
0.035168298 -0.057395864 0.0037365018 -0.011566338 0.035114035 0.05860383 0.070728116 0.043242473
0.04526365 -0.017220503 -0.0007906745 0.022780119 0.11060608 0.071519956 -0.015760453 -0.0070161265
-0.014901583 -0.01317266 -0.027585061 0.03749974 0.011244571 0.0011683871 0.021415692 -0.03857255
0.020227492 0.040576693 -0.1161634 0.07462719 0.07257085 0.053674053 -0.018493867 0.06270988
0.011625141 0.01933157 0.094055876 -0.0011143986 -0.04170461 0.041821655 0.04701111 -0.04980287
0.026063275 -0.008548726 -0.033186104 0.049120825 0.11952939 0.07422688 -0.056881804 -0.066874325
0.05711484 0.13842878 -0.08229658 0.07501919 -0.057201084 -0.002517852 0.07807827 -0.07301217
0.0069706487 -0.018501734 -0.019549293 -0.039553765 -0.09069433 0.004644276 0.013179237 -0.056775507
0.016575964 0.1321716 0.0030617758 -0.06955032 -0.04022169 -0.07567483 -0.011620881 -0.028456764
0.019227 -0.01127181 -0.08664186 -0.030170124 0.010051633 0.11748748 0.02749786 -0.030038966
-0.039003488 0.031926394 0.021940257 -0.008948267 0.016358804 0.012253905 -0.015309341 0.035531104
-0.011340975 -0.00046705225 -0.013507468 0.118112676 0.018114684 -0.13057414 -0.07962849 -0.019980097
