results/bomber-v1/Bomberman/Bomberman-3499982.onnx (onnx, 851372 bytes, 9 tensors)

103 f4 [1, 256, 256]
0	0xbce27939	-0.027645694
1	0x3bbd2799	0.0057725427
2	0x3d1cad60	0.03825128
3	0xbe1768c4	-0.14786059
4	0xbd4feb44	-0.050761476
5	0x3dcf1a3f	0.10112428
6	0xbe79108b	-0.24322717
7	0x3db09b9d	0.08623431
8	0xbc37ec09	-0.011225709
9	0x3d274ebf	0.040846583
10	0xbdc00a2f	-0.09376942
11	0xbcb3129b	-0.021859458
12	0x3d1143e5	0.03546514
13	0x3cb202e6	0.021729898
14	0xbded5f7e	-0.11590479
15	0x3d3a77af	0.045524295
16	0x3c5a872a	0.01333789
17	0x3d9c178a	0.07621677
18	0x3e6e0f99	0.23248138
19	0xbe699d4d	-0.22813912
20	0xbdea96bc	-0.114545316
21	0xbccbb9a0	-0.024868786
22	0x3bcf54f5	0.0063272663
23	0x3e18da26	0.14926967
24	0xbe060f0c	-0.13091677
25	0xbc319c47	-0.010840482
26	0xbc225595	-0.0099081
27	0x3dd8722a	0.1056865
28	0x3e1fe818	0.1561588
29	0x3d8eb057	0.06967228
30	0xbd772f8f	-0.06034809
31	0xbd5d27a8	-0.053992897
32	0xbd401f66	-0.046904944
33	0x3e12a701	0.1432152
34	0x3deccd99	0.11562652
35	0xbde5a641	-0.11213351
36	0xbb7fbbea	-0.0039021918
37	0xbcf757ec	-0.030193292
38	0xbe00f7fc	-0.12594599
39	0x3dc0db91	0.09416879
40	0x3c2a69bf	0.010401188
41	0xbd80730c	-0.062719434
42	0x3e0f66ad	0.14004011
43	0xbceda9e2	-0.02901167
44	0xbaf70c87	-0.0018848338
45	0xbdf9c08e	-0.1219493
46	0x3cf03bd2	0.0293254
47	0xbe3af973	-0.1825922
48	0x3d9d4359	0.07678861
49	0x3e3a05d0	0.1816628
50	0x3da15e65	0.078793325
51	0x3dc4e512	0.09614004
52	0xbdf52f05	-0.11971859
53	0xb889df89	-6.574306e-05
54	0x3e71e0f5	0.2362097
55	0xbdc94542	-0.09827663
56	0x3d76ec36	0.060283862
57	0x3deb1339	0.11478276
58	0x3dbcf7b5	0.09226934
59	0xbd972574	-0.073801905
60	0xbda5f6a7	-0.08103686
61	0xbdacd452	-0.084389344
62	0x3db6796c	0.08909878
63	0x3dc71537	0.09720843
64	0xbc1eac06	-0.009684568
65	0x3db0b37c	0.08627984
66	0xbcd281a6	-0.025696587
67	0x3d0ec7b4	0.03485842
68	0x3e6e5dff	0.23278044
69	0xbe8de8f6	-0.27716798
70	0x3d43bc15	0.04778679
71	0xbbf6d385	-0.0075325393
72	0x3db8abf3	0.09017172
73	0x3bc9b772	0.0061559016
74	0xbdc1a894	-0.09455982
75	0xbddd253b	-0.10798117
76	0xbca9929d	-0.020699793
77	0xbe4044a4	-0.18776184
78	0x3e5eb86a	0.21750036
79	0xbcee3d95	-0.029082099
80	0xbc46965f	-0.012120812
81	0x3e0836cd	0.13302155
82	0x3df7c278	0.12097639
83	0xbe0e1533	-0.13875274
84	0x3ca2308f	0.019798545
85	0xbe0d782a	-0.1381537
86	0xbe578dd4	-0.21050197
87	0xbda2dfe5	-0.07952861
88	0xbdc1a393	-0.094550274
89	0xbbeaf3c2	-0.0071701715
90	0xbe48f8b6	-0.19626126
91	0xbe10128e	-0.14069578
92	0x3da07c8b	0.07836255
93	0xbe19395e	-0.1496329
94	0x3d479aa7	0.048731472
95	0x3d8e9137	0.06961291
96	0x3db0569f	0.08610272
97	0xbd65dd78	-0.056119412
98	0x3dfa55f5	0.12223426
99	0xbdd99654	-0.10624376
100	0x3d12d389	0.035846267
101	0x3b8a3fa8	0.004219014
102	0xbea53954	-0.322703
103	0x3de93ed1	0.113889344
104	0x3c0957e9	0.008382776
105	0x3cde0e5f	0.027106462
106	0x3e12ef5a	0.14349118
107	0xbd9c6ef3	-0.076383494
108	0xbd998141	-0.07495356
109	0xbd677026	-0.056503437
110	0xbdb863fe	-0.09003447
111	0x3ce6899b	0.028141787
112	0xbdf6cdd0	-0.12050974
113	0xbdf27ccf	-0.118402116
114	0xbdb43ebf	-0.0880103
115	0x3e1098b4	0.14120752
116	0x3d06e997	0.032937612
117	0xbe1263b8	-0.14295852
118	0xbd379150	-0.044816315
119	0xbbd126fb	-0.0063828207
120	0xbd992b87	-0.07479005
121	0xbdc1341a	-0.09433766
122	0x3e2445db	0.16042273
123	0x3d33daf1	0.04390997
124	0x3d0ba8e3	0.03409661
125	0xbc68263e	-0.014169274
126	0x3a683396	0.00088577846
127	0xbc5c10c2	-0.01343173
128	0xbdf1358d	-0.11777792
129	0x3e06013c	0.13086408
130	0x3c9b23af	0.018937914
131	0x3ae8ea41	0.0017770008
132	0x3d8a4512	0.06751455
133	0xbd270f48	-0.040786058
134	0xbb98abdd	-0.0046591596
135	0xbe0a9aeb	-0.13535659
136	0x3e1a3bab	0.15061824
137	0x3d17b78a	0.03704027
138	0xbde1cc1e	-0.110252604
139	0x3c8a0155	0.016846338
140	0xbd683e81	-0.056700233
141	0x3c43531a	0.011921668
142	0xbd62584e	-0.055259995
143	0x3dc71aeb	0.09721931
144	0xbcf082e5	-0.02935929
145	0x3c7fc623	0.015611204
146	0xbd29283b	-0.041298132
147	0x3e4c0b00	0.19926071
148	0xbdeb1546	-0.11478667
149	0xbd912da3	-0.07088783
150	0x3e107a5e	0.1410918
151	0x3c478d7c	0.012179729
152	0xbd2c0c97	-0.042004194
153	0x3e21cd8a	0.15801063
154	0xbca0506f	-0.019569604
155	0x3e58ae58	0.21160257
156	0x3c503b96	0.012709519
157	0x3d1af44c	0.037830636
158	0x3e21fda8	0.15819418
159	0xbe278d67	-0.16362534
160	0xbd8e5ef1	-0.069517024
161	0xbd830c15	-0.06398789
162	0x3cce5d34	0.025190927
163	0x3d77715c	0.060410842
164	0x3db79ea2	0.08965804
165	0xbd833391	-0.0640632
166	0x3d38cf67	0.04511967
167	0xbe7c5bcc	-0.24644393
168	0x3d7d9d66	0.061917685
169	0x3dcf3759	0.101179786
170	0x3baa6a10	0.005200632
171	0x3d009ebc	0.03140138
172	0xbcde3bc3	-0.027128106
173	0xbe73f537	-0.23824011
174	0xbe3c7c34	-0.18406755
175	0x3d4e4814	0.050361708
176	0xbc81a4bf	-0.015825627
177	0xbd88ffce	-0.06689416
178	0xbd39069a	-0.04517231
179	0xbd9e40e7	-0.07727223
180	0xbd8f3cd9	-0.06994028
181	0xbc3c887a	-0.011507148
182	0xbd8d9e8c	-0.06915006
183	0x3e650ee6	0.22368965
184	0xbe3d51d2	-0.18488243
185	0xbdadaa73	-0.08479776
186	0xbd7c9739	-0.061667655
187	0xbdde05ab	-0.10840925
188	0xbe303502	-0.17207721
189	0xbde07250	-0.109593034
190	0x3d814432	0.06311835
191	0xbe0c954b	-0.13728826
192	0xbd2ef302	-0.04271222
193	0x3df52c1c	0.11971304
194	0xbdd5ac95	-0.10433308
195	0xbcb256ca	-0.0217699
196	0x3e1f6244	0.15564829
197	0x3e13abaf	0.14420961
198	0xbd41d09b	-0.047318082
199	0xbe051e20	-0.12999773
200	0x3e793813	0.24337797
201	0xbd9c613a	-0.07635732
202	0xbd37b298	-0.044848055
203	0x3ccff7fa	0.0253868
204	0xbcb20e90	-0.02173546
205	0xbdfe1f7a	-0.124083474
206	0x3e811c50	0.25216913
207	0xbddc25d8	-0.107494056
208	0x3e2f5159	0.17120875
209	0xbd893ecc	-0.06701431
210	0x3d660138	0.056153506
211	0xbe15d1fb	-0.14630882
212	0x3d79aaf9	0.060954068
213	0x3d06b8f0	0.032891214
214	0x3cd02b29	0.025411205
215	0xbe0583d4	-0.1303857
216	0x3de16cc7	0.11007076
217	0xbdceb10b	-0.10092362
218	0xbe125593	-0.14290456
219	0x3cf65e49	0.030074256
220	0xbe383cd8	-0.1799196
221	0x3d7e3bf9	0.062068913
222	0xbe986d60	-0.29770947
223	0x3b85672b	0.0040711365
224	0xbe08d52f	-0.13362573
225	0xbe5fdaa5	-0.2186075
226	0x3e0c8bbb	0.13725178
227	0x3e3088de	0.1723971
228	0x3d982fb9	0.074309774
229	0xbcd6fb6f	-0.02624294
230	0x3b64e62e	0.0034927237
231	0x3d9630e2	0.073335424
232	0xbdae0f8c	-0.08499059
233	0xbd3ae91d	-0.04563247
234	0xbd3c11f4	-0.04591556
235	0xbbc68eb7	-0.0060594934
236	0xbd369009	-0.044570956
237	0xbdd7332b	-0.105078064
238	0xbe152c3e	-0.14567658
239	0x3e7df415	0.24800141
240	0xbe237de3	-0.1596599
241	0xbe658f85	-0.2241803
242	0xbd981814	-0.074264675
243	0x3d33a384	0.043857113
244	0xbd77abe7	-0.060466673
245	0x3d8665f7	0.06562417
246	0x3cf5d811	0.030010255
247	0x3caeea6f	0.021352021
248	0x3be87d8e	0.0070950454
249	0xbdf04aa2	-0.11732985
250	0xbca1eb45	-0.019765506
251	0xbdabd2cb	-0.08389815
252	0xbe0fed78	-0.14055431
253	0xbcbda12a	-0.023148138
254	0x3de6c879	0.11268706
255	0x3e01251e	0.12611815

104 f4 [1, 256, 64]
0	0xbd532604	-0.051549926
1	0xbdf2aabb	-0.118489705
2	0x3d94746a	0.07248767
3	0xbd014802	-0.031562813
4	0x3d927b82	0.071524635
5	0x3e0351d5	0.12824185
6	0xbe5af420	-0.21382189
7	0xbe498fbb	-0.19683735
8	0xbe72a472	-0.23695543
9	0xbd08c34b	-0.03338937
10	0x3c2c9e67	0.010535813
11	0xbcdbe32c	-0.026841722
12	0x3e28e127	0.16492139
13	0x3d2b1552	0.04176838
14	0xbe2fcc2b	-0.17167728
15	0xbe145ae5	-0.14487799
16	0xbbb08358	-0.005386751
17	0x3d48aa2f	0.048990425
18	0x3a98f91e	0.0011670922
19	0xbe1262ba	-0.14295474
20	0x3e351ea8	0.17687476
21	0x3a1d495a	0.0006000005
22	0x3e363b4a	0.17796054
23	0x3e2ebb1c	0.17063564
24	0x3d77a060	0.06045568
25	0xbe036e63	-0.12835078
26	0x3d624865	0.055244822
27	0x3dddb52a	0.1082557
28	0xbe3162cb	-0.17322843
29	0xbd9dd608	-0.07706839
30	0x3dfa8137	0.12231677
31	0xbd8a8aac	-0.06764731
32	0xbcc84941	-0.024448993
33	0x3d12b2de	0.035815112
34	0xbe81db47	-0.25362608
35	0xbd9902db	-0.07471248
36	0x3e661b5a	0.22471371
37	0xbe0b5882	-0.13607982
38	0xbe128042	-0.14306739
39	0xbde5f6ef	-0.112287395
40	0x3e06518d	0.13117047
41	0xbd88fcab	-0.066888176
42	0x3e33f2ee	0.17573139
43	0x3d455426	0.048175953
44	0xbe9c021d	-0.30470362
45	0x3d80e8e5	0.06294421
46	0x3d9ec9d2	0.07753338
47	0x3e28dbfe	0.1649017
48	0xbe90081c	-0.28131187
49	0xbdbe0d03	-0.092798255
50	0x3d88b5eb	0.06675323
51	0xbe07d93f	-0.13266467
52	0xbd0dd8e2	-0.034630664
53	0xbda363b2	-0.07978
54	0xbd68a5e1	-0.05679882
55	0x3e44d176	0.19220528
56	0xbcb85e82	-0.022506002
57	0xbdf7e031	-0.12103308
58	0xbe32cc3b	-0.1746072
59	0x3d59cf2a	0.053176083
60	0xbe931bd0	-0.28732157
61	0xbd71958e	-0.058980517
62	0x3da402b3	0.08008327
63	0x3d019a23	0.031641137
64	0xbdddde15	-0.108333744
65	0xbe342a0a	-0.17594162
66	0x3df184a6	0.11792879
67	0x3c660dbe	0.014041362
68	0xbd995f5d	-0.07488892
69	0x3df6303a	0.12020917
70	0x3e59d282	0.21271709
71	0x3d72b8cf	0.05925828
72	0x3c76078e	0.01501645
73	0x3ddd1a6e	0.10796057
74	0x3e558eb4	0.20855218
75	0xbea24703	-0.31694803
76	0x3d8bdd16	0.06829278
77	0xbe2ebbe9	-0.1706387
78	0x3cee813c	0.029114358
79	0xbdac645b	-0.08417579
80	0x3d8398cf	0.0642563
81	0x3db379a9	0.08763439
82	0xbb9c62f2	-0.0047725374
83	0xbe0dc83f	-0.13845919
84	0xbc6f7506	-0.014615303
85	0xbdc4cc85	-0.096093215
86	0xbc60138f	-0.013676538
87	0x3e59ace3	0.21257357
88	0xbce22fdf	-0.027610717
89	0x3e29efaf	0.16595338
90	0x3c8b9866	0.017040443
91	0x3d6a98c0	0.05727458
92	0x3c7cc8b5	0.015428712
93	0xbe2f2bd4	-0.17106563
94	0xbe8d6630	-0.27617025
95	0xbc9ddbac	-0.019269787
96	0x3da0fdc1	0.078609
97	0xbdac5667	-0.084149174
98	0x3cc1743b	0.023614993
99	0xbe8982f0	-0.2685771
100	0xbdcc19fa	-0.09965892
101	0x3e86f8b2	0.26361614
102	0x3e86d701	0.2633591
103	0x3dddf47b	0.108376466
104	0xbdffe64d	-0.12495098
105	0xbd4d7f73	-0.050170373
106	0x3d4a1b67	0.04934254
107	0xbe2a3fde	-0.16625926
108	0x3de67fc2	0.112548366
109	0xbe3d1e60	-0.18468618
110	0x3dc68e2a	0.096950844
111	0xbd3b2685	-0.045691032
112	0xbe6dedf1	-0.23235299
113	0x3e49d191	0.1970885
114	0xbdf8d2fa	-0.121496156
115	0xbb59b733	-0.0033220768
116	0xbd111036	-0.03541585
117	0xbe50a181	-0.20374109
118	0x3e7e4e29	0.24834503
119	0xbdfdc9ad	-0.12391982
120	0xbe592481	-0.21205331
121	0x3e7e6b32	0.2484558
122	0x3de3e615	0.11127869
123	0xbe3b8baf	-0.18315004
124	0x3e42648b	0.18983667
125	0x3dae3381	0.08505917
126	0x3dfb3d5c	0.12267563
127	0xbe70e3ab	-0.23524348
128	0x3ea9cfb7	0.33166286
129	0x3e745d1b	0.23863642
130	0xbe36b190	-0.17841172
131	0x3e18f2a3	0.14936309
132	0x3e1e83c6	0.15479955
133	0xbe0a0bfd	-0.13481136
134	0x3db22d06	0.08699994
135	0xbe6cc04f	-0.23120235
136	0x3e2bc6b4	0.16775018
137	0x3e14da46	0.1453639
138	0x3d42fbca	0.047603406
139	0xbd06d158	-0.03291449
140	0x3d85d0c1	0.06533957
141	0x3d7c2a5b	0.06156383
142	0xbdb42ae2	-0.08797242
143	0xbe98e529	-0.29862335
144	0x3e166a22	0.14688924
145	0x3e8992a8	0.26869702
146	0x3e2f8a30	0.17142558
147	0x3c8c1aee	0.017102685
148	0x3e8627d0	0.2620225
149	0x3e39a886	0.18130693
150	0xbdcfa3cf	-0.10138666
151	0xbdd0d667	-0.10197144
152	0x3e588f14	0.2114833
153	0x3d05a922	0.032632
154	0xbdab5a09	-0.08366782
155	0xbe47a0af	-0.1949489
156	0x3e93a31b	0.28835377
157	0xbe1bd327	-0.15217267
158	0x3e47d6e6	0.19515571
159	0xbdd7efeb	-0.105438076
160	0xbe07fd0b	-0.13280122
161	0xbe0a4f1a	-0.13506737
162	0xbdcafa64	-0.099110395
163	0x3dc06d41	0.093958385
164	0x3e4a231a	0.19739953
165	0x3d83c7fd	0.06434629
166	0xbe16c9e7	-0.14725457
167	0xbe853fda	-0.26025277
168	0xbd8c30e1	-0.068452604
169	0x3e129343	0.14313988
170	0x3dfc416b	0.12317165
171	0x3e758923	0.23978095
172	0x3dc24401	0.09485627
173	0x3e6a3757	0.22872673
174	0xbdca2ba1	-0.09871603
175	0x3dca854f	0.09888708
176	0xbe1a01fb	-0.15039818
177	0x3e84c948	0.25934815
178	0x3d1746aa	0.036932625
179	0x3e1b2460	0.15150595
180	0xbe008eb3	-0.12554435
181	0x3cd556bd	0.026042337
182	0xbe7f5b94	-0.24937278
183	0xbd908d95	-0.07058255
184	0xbdcb7dc6	-0.09936099
185	0xbe3f82bc	-0.18702215
186	0x3e12b84a	0.14328113
187	0x3e112562	0.14174417
188	0xbe8b016c	-0.27149522
189	0x3dcd7702	0.100324646
190	0xbe042e56	-0.12908301
191	0x3e52cf5e	0.20586917
192	0xbdff0303	-0.12451746
193	0xbbcd4ab5	-0.0062650093
194	0x3e4f53ff	0.20246886
195	0x3ed9c627	0.4253399
196	0xbe0d5574	-0.13802129
197	0xbe1f811d	-0.15576597
198	0x3e743b1a	0.2385067
199	0x3dad0d44	0.08449796
200	0xbd600d58	-0.054700226
201	0xbe3fa0ab	-0.18713634
202	0x3d80ca8a	0.06288631
203	0x3dd9c922	0.10634066
204	0xbd0c537a	-0.034259297
205	0xbde7d3d4	-0.113197
206	0x3d3a6d72	0.04551453
207	0xbdbfa92c	-0.09358439
208	0xbb9b4c5b	-0.004739327
209	0x3e0c9176	0.13727364
210	0xbe0a7813	-0.13522367
211	0x3cebbc14	0.028776206
212	0x3e71c640	0.23610783
213	0x3c0f68ef	0.008753045
214	0x3e47cb45	0.19511135
215	0xbe3bb008	-0.1832887
216	0x3e2468ae	0.16055557
217	0x3d91c94d	0.07118473
218	0xbdcc4843	-0.0997472
219	0xbdf38409	-0.11890418
220	0x3e72dc37	0.23716818
221	0x3eba051f	0.36332032
222	0xbe9cd245	-0.30629173
223	0xbe75b726	-0.23995647
224	0x3dc0c56f	0.094126575
225	0x3ea9bff3	0.33154258
226	0xbdc12f04	-0.09432796
227	0xbe83978b	-0.25701556
228	0xbcaf1b66	-0.02137537
229	0xbd2c084e	-0.042000107
230	0x3e3179c1	0.17331602
231	0xbdc9522e	-0.09830128
232	0xbd854036	-0.06506388
233	0xbe1c2f3d	-0.15252395
234	0xbe8262d0	-0.25466013
235	0x3dc1c79c	0.094619006
236	0xbce3aba8	-0.027791813
237	0x3d00d4f8	0.031453103
238	0x3e11cf90	0.14239335
239	0x3cdde227	0.027085377
240	0x3e10fc92	0.14158848
241	0xbe4ccecf	-0.20000766
242	0x3de272b4	0.11057034
243	0xbe421693	-0.18953924
244	0x3ea9687c	0.33087528
245	0xbdecba1c	-0.11558935
246	0x3e0f9697	0.14022289
247	0xbd44c9be	-0.04804396
248	0xbdf2ea9a	-0.11861153
249	0xbe716cda	-0.2357668
250	0xbe43e2c7	-0.19129477
251	0x3ed7f687	0.42180273
252	0x3d2176dc	0.039419994
253	0xbd96b050	-0.07357848
254	0xbd8ac9f0	-0.06776798
255	0xbdf56479	-0.11982054

105 f4 [1, 512]
0	0xbcf2cdfa	-0.029639233
1	0xbddd7b6f	-0.10814559
2	0xbe03e31e	-0.12879607
3	0xbdd1ce5e	-0.102444395
4	0xbde2a2ca	-0.11066206
5	0x3c85ad5a	0.016318012
6	0xbd6a13e2	-0.057147868
7	0xbdf09013	-0.1174623
8	0x3d63bdfd	0.05560111
9	0x3b8f2757	0.0043687033
10	0xbb879199	-0.0041372296
11	0x3d4b4172	0.04962296
12	0x3d320556	0.04346212
13	0xbcdbdc4e	-0.026838448
14	0xbe1040f6	-0.1408728
15	0x3e39dd94	0.18150932
16	0xbd4cb67d	-0.049978722
17	0xbdab81c2	-0.08374359
18	0xbca746af	-0.020419447
19	0xba8fb604	-0.0010964279
20	0xba7e0b9f	-0.0009691063
21	0xbde9dcb3	-0.11419048
22	0xbd1c42bd	-0.038149584
23	0x3d24e40b	0.04025654
24	0x3dd5434c	0.104132265
25	0xbdbda1ff	-0.09259414
26	0xbdcafc79	-0.099114366
27	0xbdf6da23	-0.12053325
28	0xbd65ad78	-0.056073636
29	0x3d76eae6	0.06028261
30	0xbc3d62e0	-0.011559218
31	0x3d14547d	0.036213387
32	0xbd0e86d6	-0.03479656
33	0xbd215e07	-0.039396312
34	0x3ca4fc41	0.020139815
35	0xbe0f8183	-0.14014249
36	0xbc931f81	-0.017959358
37	0xbd97681a	-0.07392903
38	0x3cd83238	0.026391134
39	0x3d1022d1	0.035189454
40	0xbb43e3f4	-0.002989051
41	0xbca61ddf	-0.020277916
42	0x3d509e1e	0.050932042
43	0x3d00a339	0.03140566
44	0x3c9f078d	0.01941278
45	0x3db33dbd	0.0875201
46	0x3e319ae7	0.17344247
47	0xbc478111	-0.012176768
48	0xbddbcf14	-0.107328564
49	0x3dac7f44	0.084227115
50	0x3d6d7f09	0.05798248
51	0xbbe0ff6f	-0.0068663876
52	0xbd83978f	-0.06425392
53	0x3d3169f9	0.043313954
54	0xbdd4763d	-0.10374115
55	0x3dad2a89	0.084553786
56	0xbe37ae6d	-0.17937632
57	0xbc13e1b6	-0.009025982
58	0xbbc0e105	-0.0058861994
59	0xbdd428b1	-0.10359324
60	0xbdad6d69	-0.08468134
61	0xbc126b82	-0.008936765
62	0xbd581a4f	-0.052759465
63	0xbd85c658	-0.06531972
64	0x3d2e0274	0.04248281
65	0x3d667575	0.05626436
66	0x3d06c44c	0.032902047
67	0x3d83fc79	0.0644464
68	0x3c4c705b	0.0124779595
69	0x3cdedff7	0.027206404
70	0xbd610bfa	-0.054943062
71	0x3decb5b9	0.11558098
72	0x3d546068	0.051849753
73	0x3d4201b1	0.047364894
74	0x3e229f7c	0.15881151
75	0x3db0fd53	0.08642068
76	0xbc52ae3c	-0.0128589235
77	0x3e16ad02	0.14714435
78	0x3b9c1891	0.0047636707
79	0xbc8c489d	-0.017124468
80	0x3d67a990	0.05655819
81	0x3c8e0b9f	0.017339526
82	0xbd337e1d	-0.043821443
83	0x3c5e2fe2	0.013561221
84	0xbcc22c2e	-0.023702707
85	0xbc8f56e8	-0.017497495
86	0x3dbfcd1f	0.093652956
87	0x3dce3bb9	0.10069985
88	0x3dd90c78	0.10598081
89	0x3d8ec481	0.06971074
90	0xbbfc24dd	-0.007694824
91	0xbddfae1d	-0.10921881
92	0x3cc33443	0.023828631
93	0x3e12c8da	0.14334431
94	0xbc5f8682	-0.013642909
95	0x3d0971ad	0.033555675
96	0xbcf1d7b4	-0.0295218
97	0x3d82441e	0.063606486
98	0x3da88503	0.08228495
99	0xbca99f14	-0.020705737
100	0x3d089dc3	0.03335358
101	0xbd656f55	-0.056014378
102	0x3e1f2efa	0.15545264
103	0x3d2fdbc2	0.042934187
104	0x3d53b2f6	0.051684342
105	0x3d97f1b1	0.07419146
106	0xbd6d9249	-0.058000837
107	0x3def4d80	0.11684704
108	0xbd8dbd13	-0.06920829
109	0x3cc17fb2	0.02362046
110	0xbd8f595e	-0.06999467
111	0x3cdbb55e	0.026819881
112	0x3ce5fe3e	0.028075334
113	0x3d3436aa	0.043997444
114	0x3c58fc95	0.013243814
115	0xbbff67f8	-0.0077943765
116	0xbdc40eed	-0.09573159
117	0x3d5667d6	0.05234512
118	0x39b2cc0f	0.0003410284
119	0x3e36b581	0.17842676
120	0x3ca749b0	0.02042088
121	0x3d8dbe5b	0.06921073
122	0x3d104c57	0.035229053
123	0xbbab6897	-0.005230974
124	0x3ddd48dc	0.108049124
125	0x3dab034b	0.083502375
126	0xbd94eb4e	-0.07271443
127	0x3e32e39a	0.17469636
128	0x3f9006d3	1.1252083
129	0x3f85340b	1.0406507
130	0x3f69348b	0.910958
131	0x3f7494f2	0.9553977
132	0x3f7af02c	0.98022723
133	0x3f8845b1	1.0646268
134	0x3f6f2207	0.93411297
135	0x3f88dadc	1.069179
136	0x3f92db77	1.1473225
137	0x3f830013	1.0234398
138	0x3f8635d7	1.0485181
139	0x3f84f5c8	1.0387506
140	0x3f6a28ab	0.91468304
141	0x3f87127a	1.0552514
142	0x3f693df4	0.9111016
143	0x3fa0d8e3	1.2566189
144	0x3f790401	0.97271734
145	0x3f82f664	1.0231442
146	0x3f664609	0.89950615
147	0x3f779d01	0.96723944
148	0x3f80ce92	1.006304
149	0x3f69fee6	0.9140457
150	0x3f813257	1.0093488
151	0x3f86dd8f	1.0536364
152	0x3f8e355f	1.1110038
153	0x3f86f75d	1.0544239
154	0x3f785cb7	0.9701647
155	0x3f76dbe7	0.96429294
156	0x3f808ba0	1.004261
157	0x3f8b1cb0	1.086813
158	0x3f8a3135	1.0796267
159	0x3f861756	1.0475872
160	0x3f8937cc	1.0720153
161	0x3f85e69b	1.0461
162	0x3f8630b5	1.0483614
163	0x3f7cd4e9	0.98762375
164	0x3f8e41ed	1.1113869
165	0x3f82315a	1.0171311
166	0x3f918c32	1.1370909
167	0x3f87d191	1.061083
168	0x3f907ba5	1.1287733
169	0x3f890477	1.0704488
170	0x3f83985f	1.0280875
171	0x3f83bfa0	1.0292854
172	0x3f963a47	1.1736535
173	0x3f8c149b	1.0943788
174	0x3f9a8664	1.2072263
175	0x3f7f31bd	0.9968527
176	0x3f8444c0	1.0333481
177	0x3f96d437	1.1783513
178	0x3f91009c	1.1328311
179	0x3f8ff3a5	1.124623
180	0x3f66e939	0.9019962
181	0x3f89f9e5	1.0779387
182	0x3f75a8b8	0.9596057
183	0x3f86a1bf	1.0518111
184	0x3f7689c6	0.96303976
185	0x3f81e3e4	1.0147672
186	0x3f825d73	1.0184768
187	0x3f79e70f	0.9761819
188	0x3f835f2b	1.0263418
189	0x3f84db66	1.0379455
190	0x3f8374c3	1.0270008
191	0x3f8e1844	1.1101155
192	0xbd314445	-0.043277998
193	0xbdcf7a2e	-0.10130726
194	0x3d1394a5	0.03603043
195	0x3cf2011c	0.029541545
196	0x3d1bdb43	0.0380509
197	0x3d4a8853	0.049446415
198	0x3d559450	0.052143395
199	0x3cec9e2b	0.028884014
200	0xbd121f10	-0.035674155
201	0xbd9443a3	-0.07239463
202	0x3caa901e	0.020820674
203	0x3a32e201	0.00068238383
204	0x3db73fd6	0.089477226
205	0x3bf69c9a	0.0075259926
206	0x3cf590ec	0.02997633
207	0x3b3e4ea8	0.0029038582
208	0xbcb568e6	-0.022144746
209	0xbcc347ad	-0.023837889
210	0xbbfc3e48	-0.007697854
211	0xbd2f4977	-0.04279467
212	0xbd8cbdd6	-0.06872146
213	0xbcb35c8c	-0.021894716
214	0x3d2b1a3f	0.041773077
215	0x3d71b835	0.059013564
216	0xbd513267	-0.051073458
217	0x3b6c9d8a	0.0036104643
218	0xbdb5f955	-0.08885447
219	0xbcd75104	-0.026283748
220	0xbd1b41e5	-0.03790464
221	0x3d649f53	0.055816006
222	0xbd8a2961	-0.06746174
223	0x3c3d08b1	0.011537717
224	0x3c51d1df	0.012806385
225	0x3c9a86b8	0.018863067
226	0x3d91628d	0.07098875
227	0x3d403bc3	0.046931993
228	0xbdb69753	-0.089155816
229	0xbd4dfe95	-0.050291616
230	0x3dbcfc35	0.09227792
231	0x3d36dd36	0.044644557
232	0xbd05b6d4	-0.03264506
233	0xbd53b624	-0.051687375
234	0xbc5e6f35	-0.0135763185
235	0xbd41f494	-0.04735239
236	0xbd9a6d88	-0.07540423
237	0xbd4176a4	-0.047232285
238	0xbdfe86cd	-0.12428055
239	0x3d39a7c0	0.045325994
240	0x39938f4e	0.00028144795
241	0xbcbae82a	-0.022815783
242	0x3db291ba	0.087192014
243	0xbcf8a386	-0.030351412
244	0x3daf0edc	0.08547756
245	0xbd87610f	-0.06610309
246	0x3da3fafe	0.08006857
247	0xbe0eccb1	-0.13945271
248	0x3c554501	0.01301694
249	0xbc7fff5e	-0.015624849
250	0x3d48bfd0	0.04901105
251	0x3c055211	0.008137242
252	0xbd355037	-0.044265952
253	0x3af8840d	0.0018960253
254	0x3d533d5a	0.05157218
255	0x3c9aa0c3	0.018875485

action_model._discrete_distribution.branches.0.bias f4 [6]
0	0x3d9f97bb	0.07792612
1	0xbbfb422b	-0.0076678
2	0xbcaccc1c	-0.02109342
3	0xbc1e7319	-0.009670996
4	0xbba0bf8c	-0.0049056467
5	0x3daa9d7e	0.083308205

action_model._discrete_distribution.branches.0.weight f4 [6, 64]
0	0xbb26a3f1	-0.0025427307
1	0xbcbe659c	-0.02324181
2	0xbaaf2b04	-0.001336426
3	0xbbd0f9c2	-0.0063774297
4	0x3d423446	0.047413133
5	0xbba2e3d6	-0.004971008
6	0xbca5beb3	-0.020232534
7	0x3d55c990	0.052194178
8	0xbc7e00b8	-0.015503101
9	0xbc814c4a	-0.015783448
10	0xbd504991	-0.05085141
11	0xbe068deb	-0.13140075
12	0x3b967919	0.0045920727
13	0xbda1643c	-0.07880446
14	0xbb90df65	-0.004421162
15	0x3c39a42f	0.011330648
16	0x3d94cdf3	0.07265844
17	0xbcace3b5	-0.021104673
18	0xbb74bcaf	-0.003734391
19	0xbc190ac2	-0.009340944
20	0x3cdf129a	0.02723055
21	0xbc4788ea	-0.012178639
22	0xba9864b0	-0.0011626687
23	0xbb698b88	-0.0035636146
24	0x3d08afc6	0.033370756
25	0x3a66816d	0.00087930897
26	0x3bfb8d6f	0.0076767723
27	0xbd6b74b8	-0.05748436
28	0x3ce067a7	0.027393175
29	0xbd5cf1de	-0.0539416
30	0xbdaf5034	-0.085602194
31	0x3d6308fd	0.055428494
32	0x3c629ccf	0.013831331
33	0x3da1aa28	0.07893783
34	0xbbc88dfa	-0.0061204406
35	0xbd086df0	-0.03330797
36	0xbc0e9361	-0.00870213
37	0xbd1ce208	-0.038301498
38	0x3cd849a7	0.026402308
39	0xbb0169ec	-0.0019746972
40	0xbd78335e	-0.060595863
41	0xbc134e1e	-0.008990793
42	0xbda776a5	-0.081769265
43	0x3d601f0e	0.054717116
44	0x3b9b8ddf	0.004747137
45	0xbd293d8f	-0.041318472
46	0x3d8fa133	0.07013168
47	0x3bc1ac75	0.005910451
48	0x3b2c961f	0.0026334596
49	0x3ca5290a	0.02016117
50	0xbd96c6b9	-0.07362122
51	0x3d2489f3	0.04017062
52	0xbd29a613	-0.041418146
53	0xbc81f2e3	-0.015862888
54	0xbcfa2883	-0.030536896
55	0xbd44b97f	-0.048028465
56	0x3d947d0f	0.072504155
57	0x3c94e4f9	0.018175589
58	0x3d6e30de	0.058152072
59	0xbc3d88cd	-0.01156826
60	0x3cc3255c	0.023821525
61	0xbd82fe8c	-0.06396207
62	0x3df1f6b1	0.11814631
63	0xbca40fca	-0.02002706
64	0x3d13c07e	0.036072247
65	0x3b70a705	0.0036720645
66	0x3c8fa1a2	0.017533127
67	0xbcb3d553	-0.021952307
68	0x3cb43d4a	0.022001881
69	0x3c5b463e	0.013383446
70	0xbd5b51c2	-0.053544767
71	0xbd8694df	-0.06571364
72	0x3bdd35df	0.0067508067
73	0xbc1c2535	-0.009530355
74	0xbb32456c	-0.0027202023
75	0x3e8620f2	0.2619701
76	0x3bffe9b9	0.0078098443
77	0xbd62f390	-0.05540806
78	0x3c6fc9d5	0.014635523
79	0x3dc2e647	0.09516578
80	0xbe16903b	-0.14703457
81	0x3cb4b50c	0.022058986
82	0x3595c8be	1.1159789e-06
83	0xbb55dea8	-0.0032633934
84	0x3cacf1b6	0.02111135
85	0x3c94a10e	0.018143203
86	0xbbaa8bf5	-0.0052046725
87	0xbd48282d	-0.04886644
88	0x3cf94c69	0.030431943
89	0xba22b931	-0.0006207405
90	0xbcc56c18	-0.024099395
91	0x3b3bdbff	0.0028665063
92	0xbdabb200	-0.0838356
93	0x3d02c060	0.031921744
94	0x3b0fbee7	0.0021933855
95	0xbdaae35b	-0.08344146
96	0xbc30099f	-0.010744481
97	0x3d878bae	0.06618439
98	0x3db67f1b	0.08910962
99	0xbc69609b	-0.014244224
100	0xbc3953ca	-0.011311481
101	0x3c270590	0.010194197
102	0xbce66e98	-0.028128907
103	0x3be33b42	0.0069345543
104	0xbcedeabd	-0.029042596
105	0xbdd9b8bb	-0.10630938
106	0xbd53da3c	-0.051721796
107	0x3b8ce088	0.004299227
108	0x3dff0deb	0.124538265
109	0xbcb2ec36	-0.02184115
110	0xbbd4c23d	-0.0064928816
111	0x3c00bd34	0.00785761
112	0xbc82ff47	-0.015990866
113	0x3bcc4fa2	0.006235079
114	0xbb209a84	-0.002450616
115	0x3cb328d9	0.021870064
116	0x3b691100	0.0035563111
117	0x3c167545	0.009183233
118	0x396b4161	0.00022435702
119	0xbd8c6ce7	-0.06856709
120	0x3cd14580	0.025545835
121	0x3b77196e	0.0037704366
122	0xbb7b4231	-0.0038339014
123	0xbba1b0eb	-0.0049344203
124	0x3c98141b	0.018564275
125	0x3d092d85	0.033490676
126	0x3cac7c77	0.021055443
127	0x3b888aa7	0.0041669193
128	0x3cab3787	0.020900501
129	0xbc8e05c2	-0.01733673
130	0x3a7aa9b8	0.0009562033
131	0xbbf9a425	-0.0076184445
132	0x3bd5c76b	0.0065240166
133	0xbc156452	-0.0091181565
134	0x3ddfc21f	0.109256975
135	0x3d6598d9	0.05605397
136	0x3ce42773	0.027850842
137	0xbc995eb8	-0.018721923
138	0x3cddbf3b	0.027068725
139	0xbdd1b21b	-0.10239049
140	0xbbb86498	-0.005627226
141	0x3b67ce41	0.003537074
142	0xbc8a37c0	-0.016872287
143	0x3c933cba	0.017973293
144	0x3cd3a367	0.025834752
145	0x3c7a953a	0.015294367
146	0x3b4d33e6	0.0031311451
147	0xbc0813e2	-0.008305522
148	0x3c87f304	0.016595371
149	0x3c0b4301	0.008499862
150	0xbd13612e	-0.03598135
151	0x3c80ddfc	0.01573085
152	0x3d3540aa	0.04425112
153	0x3a988c1f	0.0011638439
154	0x3c51bc6f	0.012801274
155	0x367979ac	3.7174714e-06
156	0x3baa7ddc	0.005202992
157	0x3dacba07	0.084339194
158	0x3d066cfe	0.032818787
159	0x3dec6e6a	0.11544497
160	0xbd388777	-0.045051064
161	0xbc7c985d	-0.015417186
162	0xbdb1ed1c	-0.08687803
163	0xbc6e5bd8	-0.014548264
164	0xbafcbc10	-0.0019282121
165	0xbd932f8d	-0.07186804
166	0xbc368d72	-0.011142122
167	0xbbb2054c	-0.0054327603
168	0x3d1821ad	0.03714149
169	0xbd521eb4	-0.051298812
170	0x3d4336fa	0.04765985
171	0x3c056078	0.008140676
172	0x3d7bba45	0.061456937
173	0xbc0e960d	-0.008702767
174	0xbd5e9100	-0.0543375
175	0x3c3729b4	0.011179376
176	0x3b29e04e	0.002592105
177	0xbcb04893	-0.021518981
178	0x3d079a53	0.03310616
179	0x3ce81549	0.028330462
180	0xbc9a99f2	-0.018872235
181	0x3b079ac7	0.002069162
182	0xbbdcf350	-0.0067428723
183	0xbd0a7160	-0.03379953
184	0xbe48b4ec	-0.19600266
185	0xbc0afd7a	-0.008483285
186	0xbcf2ae9d	-0.029624278
187	0x3c1ecaa7	0.009691871
188	0xbc7ec073	-0.015548813
189	0xbcff67f6	-0.031177502
190	0xbc13817e	-0.009003041
191	0x3d11b164	0.035569564
192	0xbb8de041	-0.0043297117
193	0xbbd6a461	-0.006550357
194	0x3c779f6c	0.015113693
195	0xbb89c808	-0.004204754
196	0xbb645576	-0.0034840978
197	0x3bd75cd3	0.006572345
198	0x3a4bfab4	0.0007781193
199	0x3b0d9487	0.0021603422
200	0xbca874f9	-0.02056359
201	0xbbc2b289	-0.005941693
202	0x3d3462fd	0.044039715
203	0xbd0a0e53	-0.033705067
204	0x3d3bf7e1	0.045890693
205	0x3c8e7b73	0.01739285
206	0x3c3a8d3c	0.011386212
207	0xbd19362f	-0.03740519
208	0x3d9312b2	0.071813
209	0x3ba4fb78	0.00503486
210	0x3bdc204e	0.006717718
211	0xbc8c58f9	-0.01713227
212	0x3d20e254	0.039278343
213	0x3c1589dc	0.0091271065
214	0xbd3aa9ae	-0.045571975
215	0x3a1720fe	0.0005765109
216	0x3c38f911	0.011289851
217	0xbbcdce83	-0.0062807216
218	0x3acd9df2	0.001568733
219	0xbcce4822	-0.02518088
220	0xbcca2344	-0.02467502
221	0x3d059864	0.032616034
222	0x3c9d6d7c	0.019217245
223	0x3d4bb016	0.049728476
224	0x3d11c8fc	0.035592064
225	0x3b309721	0.0026945549
226	0x3cb3d085	0.021950016
227	0xbaf39f5b	-0.001858692
228	0x3ce5442f	0.027986614
229	0x3cc0ae51	0.02352062
230	0xbb41fea2	-0.0029601236
231	0xbc5a7d89	-0.013335594
232	0x3d707595	0.058705885
233	0xbcee3c40	-0.029081464
234	0x3c3a0817	0.011354468
235	0xbd28c1cd	-0.041200448
236	0x3d18a3a9	0.037265453
237	0xbd8693a6	-0.065711305
238	0xbc20a039	-0.009803825
239	0xbc3956dd	-0.011312214
240	0x3c113118	0.0088618025
241	0xbcca66ba	-0.024707187
242	0xbc8f6716	-0.01750521
243	0x3b72b88a	0.0037036263
244	0x3bfb5291	0.007669755
245	0xbc0b2884	-0.008493546
246	0xbb88ea03	-0.004178287
247	0xbc9c3f4e	-0.019073155
248	0xbc8aa4b7	-0.016924245
249	0x3c7cc93d	0.015428838
250	0xbb8aeb2e	-0.0042394614
251	0x3bf0eeff	0.0073527093
252	0xba684e44	-0.000886176
253	0xba903857	-0.0011003119
254	0x3b0e46bd	0.0021709644
255	0x3c8151df	0.01578611

network_body.linear_encoder.seq_layers.0.bias f4 [256]
0	0xbb8aa196	-0.0042306883
1	0x3c1a0941	0.00940162
2	0xbcdceeab	-0.026969275
3	0x3a5ea96f	0.00084938755
4	0xbca4bcfa	-0.020109642
5	0xbc6876ae	-0.014188452
6	0xbcb24aa8	-0.021764114
7	0xbcaa60ca	-0.020798106
8	0xbb86b1a1	-0.0041105305
9	0x3cc61e63	0.024184411
10	0x39b610da	0.000347263
11	0x3cd340d3	0.025787747
12	0xbc96b3da	-0.018396307
13	0xbc33cb97	-0.010973833
14	0x3c878a67	0.016545488
15	0xbcb477eb	-0.022029838
16	0x3c661b9f	0.014044671
17	0xbc971676	-0.018443327
18	0x3c3c7fff	0.011505126
19	0xbcc1fee5	-0.023681113
20	0xbc18e5cc	-0.009332132
21	0x3cda99da	0.02668469
22	0x3c7a4f40	0.015277684
23	0xbc81dfbd	-0.015853757
24	0x3d0021a0	0.031282067
25	0xbb8ced6e	-0.0043007648
26	0x3bd404f5	0.0064703175
27	0x3d1e6455	0.038669903
28	0x3bc0a8d7	0.0058795023
29	0x3bef3207	0.007299665
30	0x3c69b289	0.0142637575
31	0xbc16579a	-0.009176159
32	0xbc3dc7e0	-0.011583298
33	0xbc6e9bc2	-0.014563503
34	0xbba8a376	-0.005146439
35	0xbc950f1c	-0.018195681
36	0xbc89989b	-0.0167964
37	0x3b2b10c7	0.002610253
38	0x3aa2946f	0.0012403856
39	0x3c69e231	0.01427512
40	0xbc9a8511	-0.01886228
41	0xbcb117b3	-0.021617746
42	0x3c3b5092	0.011432784
43	0x3b1092e0	0.00220602
44	0x3c207b8c	0.009795081
45	0x3aee9ae4	0.001820412
46	0x3cb1270f	0.02162507
47	0x3c9812a6	0.01856358
48	0xbcaafa1b	-0.020871213
49	0x3bedd304	0.007257821
50	0x3d04fb15	0.032466013
51	0x3c08e888	0.008356221
52	0x3c08bb8f	0.008345499
53	0x3b88a93a	0.004170564
54	0x3ae369b7	0.0017350231
55	0xbc15a43b	-0.009133394
56	0x3cdf5035	0.027259925
57	0x3bd18601	0.0063941483
58	0xbca7c11c	-0.020477824
59	0xbb89dc5c	-0.004207177
60	0xbcf5bf33	-0.029998397
61	0xbd09edec	-0.033674166
62	0x3ace0d09	0.0015720438
63	0xbd05af40	-0.032637835
64	0x395e7b72	0.00021217557
65	0xbc40ad23	-0.011760029
66	0xbc9999fd	-0.018750185
67	0x3cb24164	0.021759696
68	0xbccb9639	-0.024851905
69	0x3c4d73cd	0.012539816
70	0xbc84d45d	-0.016214544
71	0x3c0c0981	0.008547188
72	0x3aeae7d0	0.0017921869
73	0xbbf02523	-0.007328646
74	0x3baac7c2	0.0052118013
75	0x3c7258e5	0.014791702
76	0xbba2d98f	-0.0049697827
77	0xbc27d7e2	-0.010244342
78	0xba9b8283	-0.0011864457
79	0x3c81029c	0.015748315
80	0x3cfc2ab9	0.03078209
81	0x3ce9c065	0.028534124
82	0xbcda4a96	-0.026646893
83	0x3a341e1c	0.0006870942
84	0xbbca59c0	-0.00617525
85	0xbc45bdb8	-0.012069158
86	0x3bfe180e	0.0077543324
87	0x3ace8404	0.0015755896
88	0x3ce3560c	0.027750991
89	0x3c0ec9ed	0.008715135
90	0x3c8b7802	0.017024998
91	0x39f96a76	0.000475723
92	0x3c3452f5	0.011006107
93	0xbbcadc87	-0.0061908397
94	0x3c906540	0.017626405
95	0xbba3ae37	-0.0049951333
96	0xbc65cb5f	-0.014025538
97	0x3ae22e0f	0.0017256158
98	0x3bcae769	0.006192137
99	0xbca8ecd8	-0.020620748
100	0x3a8f8d93	0.0010952227
101	0xbaaec4d9	-0.0013333812
102	0xbca71831	-0.020397278
103	0xba165598	-0.00057348004
104	0xbcd7867c	-0.026309244
105	0x3bced013	0.0063114255
106	0x3c841b71	0.016126366
107	0xbc821542	-0.015879277
108	0xbb584edf	-0.0033005995
109	0x3ce710cd	0.028206253
110	0x3c8e5a89	0.017377155
111	0x3ccfd3a7	0.025369478
112	0x3ca25cf3	0.019819712
113	0x3cb33f1b	0.021880677
114	0x3c5dd3a5	0.0135392295
115	0x3cce5fef	0.02519223
116	0xbb6a8c6f	-0.0035789271
117	0x3c3f6ebb	0.011684115
118	0xbcac0f01	-0.021003248
119	0xbca09ae2	-0.019605104
120	0xbc237b13	-0.009978074
121	0x3ba397a1	0.004992441
122	0xbc7140f6	-0.014724961
123	0xbcd1d379	-0.025613533
124	0xba484db7	-0.0007640975
125	0x3c781077	0.015140644
126	0x39f09f07	0.00045894852
127	0xbcbef679	-0.023310887
128	0x3c351d1a	0.011054302
129	0xbc78ca56	-0.015184959
130	0x3c8535c0	0.016260982
131	0xbb2503f9	-0.002517937
132	0xbbd84e13	-0.006601104
133	0x3cd6bb95	0.026212493
134	0xbc501f1b	-0.012702729
135	0x3c985562	0.018595401
136	0xbc570e76	-0.013126006
137	0x3ca3e8e5	0.020008514
138	0x3b134563	0.0022471778
139	0xbc0ed09e	-0.00871673
140	0x3c3f100a	0.011661539
141	0xbc9a3057	-0.018821878
142	0x3b2f78e2	0.0026774933
143	0xbce0ce6f	-0.027442185
144	0x3b97de45	0.004634651
145	0xbd062aa0	-0.032755494
146	0xbb5bc914	-0.00335366
147	0x3c8a8316	0.01690821
148	0xbcedde93	-0.029036796
149	0xbc223f56	-0.009902796
150	0xbd0fc5af	-0.035100635
151	0xbcb82a0b	-0.022480985
152	0xbc72fb90	-0.014830485
153	0x3d09c1f3	0.03363223
154	0x3cc57423	0.02410323
155	0xba8d4c8b	-0.0010780258
156	0xbc971777	-0.018443806
157	0x3ba10955	0.0049144425
158	0x3bebda95	0.007197688
159	0xbb796b64	-0.0038058395
160	0x39b0733c	0.00033655192
161	0xbba74eb1	-0.0051058163
162	0xbcda413b	-0.026642432
163	0xbc29e5b4	-0.010369707
164	0xbbfd09de	-0.0077221235
165	0x3ca0c4bf	0.019625066
166	0xbca84eb0	-0.020545334
167	0xbc9d9e6b	-0.019240579
168	0x3c90660c	0.017626785
169	0xbc7b4246	-0.015335625
170	0xbcf39de0	-0.029738367
171	0x3cc2e3c6	0.023790251
172	0xbbf3eafc	-0.007443784
173	0xbb346f1c	-0.0027532047
174	0xbc979708	-0.018504634
175	0xbc69f62b	-0.014279882
176	0x3c2372da	0.009976113
177	0x3c9f2c0d	0.019430185
178	0x3cdd5dcd	0.027022267
179	0xbc03ca6c	-0.008043867
180	0xbcb8f56a	-0.02257796
181	0xbb896f87	-0.0041942033
182	0x3cac87c5	0.021060834
183	0x3cd302c2	0.025758151
184	0x3cc801ff	0.024415014
185	0xbbbe5cd5	-0.0058094063
186	0x3bc99477	0.0061517316
187	0x3b9f089e	0.004853322
188	0xbb962d8f	-0.0045830677
189	0x3cae8888	0.021305338
190	0xbca9a5f5	-0.020709017
191	0xbb6eb253	-0.0036422207
192	0x3cc999ae	0.024609413
193	0xba14e491	-0.0005679811
194	0x3beb5a63	0.007182406
195	0xbc709046	-0.014682835
196	0x3c810308	0.015748516
197	0xbcd94719	-0.02652316
198	0xbb658c0b	-0.00350261
199	0x3b187a9f	0.0023266447
200	0x3c477f57	0.012176356
201	0x3d26150d	0.04054742
202	0x3ccb7bb7	0.024839265
203	0xbca83cd1	-0.020536812
204	0x3c49e680	0.012323022
205	0xbc50df4f	-0.012748553
206	0x3ba2b3aa	0.0049652653
207	0x3c241b43	0.010016265
208	0x3c3128ae	0.010812921
209	0xbb413b84	-0.0029484937
210	0x3d22768f	0.039663848
211	0x3b70ef2a	0.0036763647
212	0xbc011503	-0.007878545
213	0xbbbc2f96	-0.0057429774
214	0x3ca61200	0.020272255
215	0x3b18e384	0.002332897
216	0x3c7f86c7	0.015596098
217	0xbc69c56d	-0.014268261
218	0x3ce0ba5b	0.027432611
219	0x3b51d622	0.0032018502
220	0x3b893769	0.0041875136
221	0x3cbe641f	0.0232411
222	0x3ccda379	0.025102364
223	0x3c7ceb1a	0.015436912
224	0xbc93c232	-0.018036935
225	0x3b62ab04	0.0034586797
226	0xbb8918ba	-0.004183856
227	0x3d27340a	0.040821113
228	0xbbfa8818	-0.007645618
229	0x3a5af7b1	0.0008352949
230	0x3b2c3385	0.0026275825
231	0x3c50df47	0.012748546
232	0x3cb0fa9d	0.021603877
233	0x3baffccc	0.005370712
234	0xbc1bde6e	-0.009513481
235	0xbb808324	-0.003921883
236	0x3cb2da61	0.021832647
237	0xbcd72d5b	-0.026266744
238	0x3c229c84	0.009925012
239	0x3b0301ed	0.0019990162
240	0x3c31ddca	0.010856101
241	0xbc1b9726	-0.009496486
242	0x3c31c179	0.01084935
243	0x3c21dcab	0.0098792715
244	0x3c917a22	0.017758433
245	0xbca68986	-0.020329248
246	0xbcb336d9	-0.02187674
247	0xbd1f17cf	-0.038841065
248	0x3c68c592	0.014207261
249	0xbb598c2d	-0.0033195124
250	0xbb994090	-0.004676886
251	0x3cf682f0	0.030091733
252	0x3cfdfab6	0.031003337
253	0xbc841cbc	-0.016126983
254	0xbafb828e	-0.0019188689
255	0xbb965e3d	-0.004588871

network_body.linear_encoder.seq_layers.0.weight f4 [256, 247]
0	0x3d7109f2	0.058847375
1	0x3c751d61	0.014960618
2	0xbd75fb03	-0.060053837
3	0xbdc1d24d	-0.0946394
4	0x3cbf013e	0.023316022
5	0xbd7aa580	-0.06119299
6	0xbd7b847e	-0.06140565
7	0xbd8aa20d	-0.0676919
8	0xbbfe4b2b	-0.0077604256
9	0x3d9be071	0.07611168
10	0x3cba448d	0.022737766
11	0xbd80e915	-0.06294457
12	0xba512eb9	-0.00079796795
13	0xbc579320	-0.013157636
14	0xbdd976ac	-0.10618338
15	0xbd4ac3cd	-0.049503136
16	0x3d2ceeda	0.042219974
17	0x3c43d21d	0.01195195
18	0x3d3d9039	0.04628012
19	0xbd9f5fe3	-0.07781961
20	0xbdf5ba43	-0.11998417
21	0xbc615c8d	-0.013754976
22	0xbdabb8cf	-0.08384859
23	0x3d24b86b	0.040214937
24	0x3d9334f2	0.07187833
25	0xbd88a6f0	-0.06672466
26	0xbd90aa80	-0.0706377
27	0x3d610502	0.054936416
28	0x3d099edc	0.033598766
29	0x3b21954e	0.0024655643
30	0x3b86f809	0.0041189236
31	0xbe1b5f1d	-0.15173002
32	0x3cf47a32	0.029843424
33	0x3dee1217	0.11624544
34	0xbdbc36d3	-0.091901444
35	0xbce5d540	-0.028055787
36	0x3c341376	0.010990968
37	0xbd7fa4a6	-0.06241288
38	0x3d0281e4	0.031862155
39	0x3d5cbe59	0.053892467
40	0x3dccff09	0.100095816
41	0xbd613579	-0.054982636
42	0xbd039b2c	-0.032130405
43	0x3d5b3faf	0.05352753
44	0xbe1ccf8c	-0.15313548
45	0xbd9baf96	-0.0760185
46	0x3e036c7c	0.12834352
47	0x3d563b0c	0.052302405
48	0x3cb994d3	0.022653973
49	0xbca93c19	-0.02065854
50	0xbcb64c25	-0.022253105
51	0x3d990e4a	0.074734285
52	0xbdaf2ebe	-0.08553837
53	0xbc4e4480	-0.012589574
54	0xbdba8ee0	-0.091092825
55	0x3c5e7101	0.013576747
56	0x3d505e34	0.05087109
57	0xbc96e7c2	-0.018421058
58	0xbddad4ff	-0.10685157
59	0xbd895aeb	-0.06706794
60	0x3c1e343e	0.00965601
61	0x3c94c088	0.018158212
62	0xbcfbfed1	-0.030761154
63	0xbcc1ab30	-0.023641199
64	0xbd9618bc	-0.073289365
65	0x3d7da1e3	0.061921965
66	0x3cd9b783	0.026576763
67	0x3da348c4	0.07972863
68	0x3d6551c1	0.05598617
69	0xbcc73fb8	-0.024322376
70	0x3c03bb30	0.008040234
71	0x3dfea7b1	0.12434328
72	0xbd201026	-0.0390779
73	0x3d514222	0.05108846
74	0x3c91d9e5	0.017804096
75	0xbd61fbb2	-0.055171676
76	0xbd6a1349	-0.057147298
77	0xbd306283	-0.043062698
78	0x3da6f69a	0.08152504
79	0xbd7b8c4a	-0.061413087
80	0x3d9fa59e	0.07795261
81	0xbceb810b	-0.028748056
82	0xbce9eb13	-0.028554475
83	0xbd3e7e3d	-0.04650711
84	0x3de28163	0.11059835
85	0x3cb021be	0.021500465
86	0xbd8cb7cf	-0.06870996
87	0xbd3544ed	-0.044255186
88	0xbd92469f	-0.07142376
89	0x3b904583	0.0044028177
90	0xbde6f4eb	-0.11277183
91	0xbb6c9c9c	-0.0036104089
92	0x3ca4b424	0.020105429
93	0x3d385f09	0.045012508
94	0xbda2ba7a	-0.07945724
95	0xbd384632	-0.04498882
96	0x3da55b31	0.08074034
97	0xbd3b810b	-0.04577736
98	0x3d7955e1	0.060872916
99	0xbdb418ad	-0.08793769
100	0xba5dbd96	-0.00084587315
101	0x3d536fdc	0.05162035
102	0xbdaed7bc	-0.08537242
103	0xbcff4f09	-0.031165617
104	0xbca6e0e3	-0.020370906
105	0x3cbe2c13	0.023214376
106	0xbd75d7ec	-0.060020372
107	0x3b3f260d	0.0029166967
108	0x3d25b47b	0.040455323
109	0xbd268349	-0.040652547
110	0x3d6030a9	0.054733906
111	0x3cfd7585	0.030939827
112	0x3dafbcba	0.085809186
113	0x3d14fd5d	0.03637444
114	0xbd8f4a61	-0.069966085
115	0xbb82e5a3	-0.00399466
116	0xbd10ef7e	-0.035384648
117	0xbdaa96d5	-0.0832955
118	0xbd3bc83c	-0.045845255
119	0xbd488722	-0.048956998
120	0xbc1b9b32	-0.009497451
121	0x3d81c49f	0.063363306
122	0x3d3e0369	0.04638997
123	0xbc7ee3a8	-0.015557207
124	0xbd1cff95	-0.03832968
125	0x3b4487a0	0.0029988065
126	0x3d6edd0a	0.058316268
127	0x3d0cf08b	0.034409087
128	0x3d436a74	0.047708943
129	0xbd553f6c	-0.052062437
130	0x3cdf6664	0.027270503
131	0xbd9f2a37	-0.07771724
132	0x3d9acef0	0.075590014
133	0xbc12cf26	-0.008960521
134	0xba3c3db0	-0.0007180823
135	0xbc8545e0	-0.01626867
136	0xbcfc6001	-0.030807497
137	0x3da042be	0.0782523
138	0xbb79a52e	-0.003809284
139	0xbbc7fa23	-0.0061028167
140	0xbb6fd5a4	-0.0036595846
141	0x3ba028b9	0.004887667
142	0xbe3b6228	-0.18299162
143	0xbd8bae6b	-0.06820377
144	0xbd9605a3	-0.07325294
145	0x3c70103e	0.01465231
146	0x3dbc1c2b	0.0918506
147	0x3d3dda44	0.046350732
148	0xbd28e2e5	-0.04123201
149	0xbc7f8eeb	-0.015598039
150	0x3d2e67da	0.04257951
151	0xbe232847	-0.15933333
152	0xbde41d59	-0.1113841
153	0xbe2954f3	-0.16536312
154	0xbc2b1f81	-0.010444523
155	0xbcff6b08	-0.031178966
156	0xbd2d3b9d	-0.04229318
157	0x3d6fea92	0.058573313
158	0x3c3452a6	0.011006033
159	0x3c17ce26	0.009265458
160	0x3de6e821	0.11274744
161	0x3d7d522c	0.061845943
162	0xbd015c86	-0.031582378
163	0xbd8bda40	-0.06828737
164	0xbd13750c	-0.036000296
165	0x3cea1d73	0.028578496
166	0x3b9b1e0d	0.004733807
167	0xbde39d24	-0.111139566
168	0x3d64c2fc	0.055850014
169	0xbc7ffcb4	-0.015624214
170	0xbcc9b402	-0.024621967
171	0xbe2957c3	-0.16537385
172	0x3d171972	0.0368895
173	0xbde9f915	-0.11424462
174	0x3d96b73f	0.0735917
175	0x3cd81772	0.026378367
176	0xbe0054ce	-0.1253235
177	0x3c3ef68c	0.011655461
178	0xbb99edc0	-0.0046975315
179	0x3c8760b6	0.016525608
180	0xbe091e48	-0.13390458
181	0xbd6a5329	-0.057208214
182	0xbd601b4e	-0.05471354
183	0xbdf6af5c	-0.12045166
184	0xbe095ee8	-0.1341511
185	0xbdaf2b66	-0.085531995
186	0x3d9f7303	0.077856086
187	0xbc4f4c20	-0.012652427
188	0x3d5719f9	0.052515004
189	0x3db5b0a6	0.08871584
190	0xbdb01c9e	-0.08599208
191	0xbc82a862	-0.015949432
192	0x3da7dd57	0.08196514
193	0xbc2a8fb5	-0.010410239
194	0xbe3cc563	-0.18434672
195	0x3db5ac9e	0.08870815
196	0xbda4d617	-0.08048647
197	0x3bcd1ba6	0.0062593995
198	0xbda34313	-0.07971778
199	0x3d29cf20	0.041457295
200	0xbdeff849	-0.117172785
201	0xbd7119f1	-0.05886263
202	0x3d891e93	0.06695285
203	0xbd145549	-0.036214147
204	0xbdade133	-0.08490219
205	0x3d3833e3	0.044971358
206	0xbd408fe9	-0.047012243
207	0x3d548f16	0.05189427
208	0xbcd9a119	-0.026566075
209	0x3db77be8	0.0895918
210	0xbdee7f00	-0.11645317
211	0x3ba0eb80	0.0049108863
212	0xbb493c1d	-0.0030705996
213	0x3ca4fe86	0.020140897
214	0xbccba739	-0.024860011
215	0xbd17e16b	-0.03708021
216	0xbc82522c	-0.015908323
217	0xbdb5dd8e	-0.08880149
218	0xbb44147d	-0.0029919439
219	0xbcf1e9fb	-0.029530516
220	0x3dec1ba0	0.115287066
221	0xbd93c029	-0.07214386
222	0xbdbe5c9b	-0.09295007
223	0xbddabcc1	-0.10680533
224	0xbd9b1179	-0.07571692
225	0xbc9c2afb	-0.019063463
226	0x3d9755bf	0.07389402
227	0x3c197598	0.009366415
228	0x3d9e4afb	0.07729145
229	0xbd8148ff	-0.06312751
230	0x3db70235	0.08935968
231	0xbd83cb31	-0.0643524
232	0x3dc6b6ec	0.09702858
233	0xbdf775ad	-0.12082992
234	0xbd211777	-0.03932902
235	0xbd2d12ae	-0.042254142
236	0xbb2c6af4	-0.0026308866
237	0x3cf7bb2c	0.030240618
238	0xbd8db34b	-0.06918963
239	0xbd1ec109	-0.03875831
240	0x3d3bbf9e	0.045837037
241	0x3d112719	0.035437677
242	0x3d46521c	0.04841815
243	0xbdadf641	-0.08494235
244	0xbd1872da	-0.037218906
245	0xbd39f46c	-0.045399114
246	0x3dc3fce7	0.09569722
247	0xbabfd8ae	-0.0014636719
248	0x3d30e2f5	0.043185193
249	0xbc1d5c23	-0.009604487
250	0x3d79b6ff	0.060965534
251	0xbc8864a2	-0.016649548
252	0x3d3a59d0	0.045495808
253	0x3daa2e91	0.08309663
254	0xbbe429be	-0.006962984
255	0xbd10da45	-0.035364408

network_body.linear_encoder.seq_layers.2.bias f4 [256]
0	0x3dd3ddf4	0.103450686
1	0xbccdcd2d	-0.02512225
2	0xbc962971	-0.018330308
3	0x3a751286	0.00093487685
4	0xbdac2ca4	-0.08406952
5	0xbd6e3990	-0.058160365
6	0x3d6c61e0	0.05771053
7	0x3d426023	0.047454964
8	0x3dbac082	0.09118749
9	0xbc8246ad	-0.015902841
10	0x39beee72	0.0003641728
11	0x3c4b8a07	0.012423045
12	0x3c07c851	0.008287505
13	0x3d0407a0	0.032233834
14	0x3e3dc3c3	0.18531708
15	0x3d67b7a9	0.056571636
16	0x3dfc9ab1	0.123341925
17	0x39629bc8	0.00021611073
18	0xbcb19de7	-0.021681739
19	0x3bc89a6a	0.006121923
20	0x3c9e8c2a	0.019353945
21	0xbd377a50	-0.04479438
22	0x3d8ccbfe	0.06874846
23	0xbcba8ca7	-0.022772146
24	0x3e07d022	0.1326299
25	0xbc823d5c	-0.015898399
26	0xbb940377	-0.0045170146
27	0xbd68ce04	-0.056837097
28	0xbd57bc5c	-0.052669868
29	0xbcc57365	-0.024102876
30	0x3c760f72	0.015018331
31	0xbd0be070	-0.034149587
32	0x3c365e1c	0.011130836
33	0xbca40d93	-0.020026004
34	0x3d8e6027	0.06951933
35	0x3dbe621c	0.09296057
36	0x3d85feed	0.06542764
37	0xbdc55335	-0.09635011
38	0x3ce1c668	0.027560428
39	0xbbabf8b3	-0.005248153
40	0xbc9d3829	-0.019191818
41	0x3c704975	0.014665951
42	0xbccc4cb8	-0.024938926
43	0xbdcadb88	-0.099051535
44	0x3c792097	0.015205524
45	0x3dbc977c	0.09208581
46	0xbce69ec3	-0.028151875
47	0xbb9a28d8	-0.004704576
48	0x3d301d91	0.042996947
49	0xbc888655	-0.016665617
50	0x3d339323	0.043841492
51	0xbd4c6bcd	-0.049907494
52	0x3be0719e	0.0068494817
53	0xbd63a802	-0.055580147
54	0xbd63781a	-0.05553446
55	0x3cdf6b54	0.027272858
56	0x3c5e1841	0.013555587
57	0x3db5a706	0.08869748
58	0x3b60e14e	0.003431398
59	0xbda04835	-0.078262724
60	0xbd9c805a	-0.076416686
61	0x3c9190d8	0.017769262
62	0xbc3c94a0	-0.011510044
63	0x3d62ff4a	0.055419244
64	0x3d62f91a	0.055413343
65	0x3d26ca80	0.040720463
66	0xb9694ac1	-0.0002224846
67	0x3c474b9b	0.012164022
68	0xbd71a2f7	-0.058993306
69	0x3d72f739	0.0593178
70	0xbc722904	-0.014780287
71	0xbdbf47bc	-0.09339854
72	0xbcf1486f	-0.029453484
73	0xbd3b95a0	-0.04579699
74	0x3c86ad0f	0.016439943
75	0xbc11b4a6	-0.008893168
76	0xb998c4a8	-0.0002913822
77	0x3d0a7dc4	0.033811346
78	0xbc39e858	-0.011346899
79	0x3adefb4b	0.0017012147
80	0x3d79dcea	0.061001696
81	0xbd937c6a	-0.072014645
82	0xbd5ef767	-0.05443516
83	0x3bed0f2d	0.007234475
84	0xbd2e1add	-0.042506088
85	0x3c20fef2	0.009826409
86	0xbbaceb44	-0.0052770693
87	0xbdee87b2	-0.116469756
88	0xbd86a79e	-0.06574939
89	0x3b01c4af	0.001980107
90	0xbd27ccd1	-0.040966813
91	0xbc8374e8	-0.016046956
92	0xbd26c21d	-0.040712465
93	0xbd6af421	-0.057361726
94	0xbd8cb914	-0.06871238
95	0x3d182acc	0.03715019
96	0xbbb8970a	-0.0056332396
97	0x3baf93d9	0.005358201
98	0xbd0d6c3b	-0.034527045
99	0xba2c7c30	-0.00065797847
100	0x3cc40a86	0.0239308
101	0xbbc01dd6	-0.0058629317
102	0xba1faa2d	-0.0006090727
103	0x3c34ca7e	0.011034606
104	0x3e08e843	0.13369851
105	0xbd2e30c3	-0.04252697
106	0xbd82f8c6	-0.06395106
107	0x3d92bb28	0.071646035
108	0xbbbaa48c	-0.005695885
109	0xbe02b9ff	-0.12766264
110	0x3c0ce613	0.008599776
111	0xbd8814bb	-0.06644579
112	0xbd399ee7	-0.045317557
113	0x3db47813	0.08811965
114	0x3dcf0fd2	0.10110439
115	0xbd0722bf	-0.03299212
116	0x3d0f63de	0.03500735
117	0x3d096801	0.03354645
118	0xbb038628	-0.0020068977
119	0xbc227641	-0.009915889
120	0xbe0086e4	-0.12551457
121	0x3c4fd8c5	0.012685959
122	0xbd7b7fd0	-0.06140119
123	0x3ce59e73	0.028029656
124	0x3d437e1d	0.047727693
125	0xbc1a696c	-0.009424549
126	0x3d4f5c74	0.05062528
127	0xbde26391	-0.11054147
128	0xba5e6004	-0.00084829354
129	0xbdb2342e	-0.08701359
130	0xbc14ca8a	-0.009081492
131	0xbbdf28aa	-0.0068102675
132	0xbb8a6be4	-0.0042242873
133	0xbd3f2622	-0.046667226
134	0x3d2ad5f5	0.04170795
135	0x3d7cda54	0.06173165
136	0xbd30abfe	-0.043132775
137	0xbd804df8	-0.06264871
138	0xbd8502e8	-0.06494695
139	0x3c9231b2	0.017845962
140	0x3d2a0b37	0.0415146
141	0xbc4cdb26	-0.012503421
142	0xbe004bdf	-0.12528943
143	0xbe0f6085	-0.14001663
144	0xbd1cf893	-0.038322996
145	0x3d896ed6	0.067105934
146	0x3b109e9f	0.0022067202
147	0xba356e15	-0.00069210056
148	0x3c2a514e	0.010395361
149	0xbda783d2	-0.081794396
150	0x3cb2afa7	0.021812273
151	0x3cb8ac07	0.022542967
152	0x3d35befa	0.044371583
153	0xbced177e	-0.028941866
154	0xbdab051a	-0.083505824
155	0xbcadeb4b	-0.02123036
156	0x3b613d26	0.0034368723
157	0xbd510ec2	-0.051039465
158	0x3c97a4ab	0.018511137
159	0x3d59e3c7	0.05319574
160	0x3d93267f	0.07185077
161	0xbd6fa7ca	-0.058509625
162	0xbc626e28	-0.013820209
163	0xbcdcf123	-0.026970452
164	0x3bf9fe45	0.0076291882
165	0x3d1a2547	0.037633207
166	0x3e036423	0.12831168
167	0x3c6f9cfa	0.0146248285
168	0x3d737e59	0.059446666
169	0xbc0bde43	-0.008536878
170	0xbbf616ba	-0.0075100334
171	0x3c4ed080	0.012622952
172	0x3d547cbe	0.051876776
173	0x3d7a52c1	0.061114077
174	0x3c037295	0.008022924
175	0x3c9cbf07	0.019134058
176	0x3c75fbc6	0.015013641
177	0xbb20c94d	-0.0024534047
178	0x3d026b39	0.031840537
179	0x3d143884	0.03618671
180	0x3ca88ab1	0.020573946
181	0x3cb4be71	0.022063466
182	0x3c356b0c	0.011072885
183	0xbd1efb51	-0.038813893
184	0x3d08f787	0.033439185
185	0x3d88ca65	0.06679229
186	0xbe25fb9a	-0.1620926
187	0x3cb6d37e	0.022317644
188	0x3dab1d60	0.08355212
189	0x3d54e517	0.05197629
190	0xbc468cd2	-0.012118535
191	0x3d22ea59	0.039774273
192	0xb9d00c80	-0.00039682165
193	0x3ac5db9c	0.0015095356
194	0x3d8e929d	0.06961558
195	0x3c8b6773	0.017017102
196	0xbd4fa680	-0.050695896
197	0x3d2322b8	0.039828032
198	0x3d874b97	0.066062145
199	0xbd2fcf72	-0.042922445
200	0xbcf841db	-0.03030484
201	0xbc686c0e	-0.0141859185
202	0xbc070607	-0.008241183
203	0x3c6089be	0.013704715
204	0x3dd602d6	0.1044976
205	0x3db6c332	0.08923949
206	0xbd0bc0ce	-0.03411942
207	0xbdbbcb3c	-0.09169623
208	0x3d5d2d72	0.05399842
209	0x3e1511d6	0.14557585
210	0xbdeb16cb	-0.11478957
211	0x3d4cc1b9	0.049989436
212	0xbd89faa1	-0.06737257
213	0x3c934c0f	0.017980604
214	0x3e0b973a	0.13631907
215	0xbd544151	-0.051820103
216	0x3ca73e8c	0.020415567
217	0xbc462ae2	-0.012095185
218	0x3cacfa00	0.021115303
219	0xbcd7bfee	-0.026336636
220	0xbdf1ff35	-0.11816255
221	0xbc13dc63	-0.009024712
222	0xbcb4f285	-0.022088299
223	0xbda94608	-0.082653105
224	0x3cb72071	0.022354336
225	0x3e0c9f17	0.13732563
226	0xbbb58c8c	-0.005540436
227	0xbd76b62e	-0.060232334
228	0xbd5b974d	-0.05361109
229	0xbcfd9327	-0.030953957
230	0xbc2e2e53	-0.010631162
231	0x3d04da99	0.032435033
232	0x3c9e157b	0.019297352
233	0xbd7107e9	-0.058845434
234	0xbde6f602	-0.11277391
235	0xbc872afa	-0.016499985
236	0x3cd4c774	0.025974013
237	0x3de194cd	0.110147096
238	0xbba3596f	-0.0049850265
239	0xbd6c91f4	-0.05775638
240	0xbd827667	-0.0637024
241	0xbc97da08	-0.018536583
242	0x3d96e40a	0.07367714
243	0x3bd4fc94	0.006499836
244	0x3a835de6	0.0010022491
245	0xbc625b50	-0.013815716
246	0xbd680162	-0.056641944
247	0x3d30d5af	0.043172535
248	0xbbda9dab	-0.0066716275
249	0xbbb629e6	-0.005559194
250	0xbbb39a9a	-0.0054810764
251	0x3d7aa168	0.061189085
252	0x3c26f908	0.01019121
253	0xbe34a448	-0.17640793
254	0xbdc798c2	-0.09745933
255	0xbceb98fc	-0.028759472
