results/bomber-v1/Bomberman/Bomberman-4010387.onnx (onnx, 851372 bytes, 9 tensors)

103 f4 [1, 256, 256]
00000000: 8bb1 9abc 6e29 a03c f013 563d c3a8 0ebe
00000010: 3083 71bd d542 0b3e 25cb 6abe baae 6c3d
00000020: 751b 14ba f19c eb3c 8164 34be 15b8 11bd
00000030: 4230 683d 97eb 023d e2fd d9bd 9b70 773c
00000040: 2620 cc3c 40ea 423d ed6b 683e 4ad6 89be
00000050: 3ce7 c7bd d57c b3bc 99d7 073c 1e37 2e3e
00000060: f528 05be 5bfe e7b9 1d0e 6a3d 1c5c df3d
00000070: d33c 293e fca1 8c3d 3c28 35bd 3ca7 80bd
00000080: 707f 91bd e123 273e 183d fe3d ce91 d9bd
00000090: c467 0b3a bfc4 22bd dc9c d4bd 9f50 6c3d
000000a0: ac30 cebc 96a5 dfbd a365 e83d d0cf 19bd
000000b0: 5dce 3d3c 79dc eebd 0169 483c b362 1fbe
000000c0: 2cc7 e13d 45d6 433e 16d9 ba3d ec35 b13d
000000d0: 2ce2 1dbe 0903 553b dd49 8f3e 1269 c4bd
000000e0: ffa9 943d 7c17 f53d 35c4 d93d 4980 a1bd
000000f0: a510 bbbd bdb9 03bd 56ed ef3d 86d8 df3d
00000100: 54c8 8ebc 8fb2 d93d 5c05 08bd d8db 873d
00000110: f347 613e b4cb 8dbe 465c db3c b987 d8bb
00000120: 17ef f83d 08ce 5fba f029 a9bd 5c55 09be
00000130: c997 b33b 184e 3cbe db6f 453e 1580 9cbc
00000140: 4419 c03b 38c1 383e 6473 103e 3019 e7bd
00000150: f5f2 613c 0b4f 1dbe 3ab4 69be ed5c b5bd
00000160: 6ba2 d3bd 60af a1bb abf7 27be 2f27 2bbe
00000170: 4778 5f3d 5b7d 1bbe 6a4c 483d 8b79 ac3d
00000180: 51d9 d83d 46bb cbbd c3c8 113e f191 dfbd
00000190: 83e2 323d a8f5 85bc 68cd b2be 7b5b ae3d
000001a0: 4c35 953c c546 f1bb 15cd 0e3e 5f70 8ebd
000001b0: 7cfe 65bc bd57 8abd 9592 91bd 39d3 a93c
000001c0: 2fca 0abe 1ad6 0abe 956d 96bd 63a6 0d3e
000001d0: 632f 3c3d f9f7 4ebe 907b 52bd f0df 8bbc
000001e0: deac a3bd df6e a2bd fde6 203e cfa4 703d
000001f0: fafc 94bc f4e3 00bd dbb3 e13b 44cf 78bc
00000200: 40b0 0fbe b2b7 073e 2649 773d d787 3e3b
00000210: 19c1 123d a949 3ebd 81e7 2bbd c4c6 09be
00000220: f46e 173e be1d 793d 26f8 f8bd e066 8f3b
00000230: ca0a 5fbd f1f8 183c 2a70 78bd 119f ae3d
00000240: 6b00 a03c 7853 6d3c 0c0b 9ebc f6e6 423e
00000250: 7657 dabd d23b a3bd 4739 123e e842 01bd
00000260: 133a e6bc c810 333e 41e6 b3bc 6b97 703e
00000270: 4ceb 0b3d f2f6 0f3c 7fe6 043e 0fcf 3abe
00000280: 47ad 8cbd 5d9d 96bd 744f 903d 9f08 c93d
00000290: d4be 773d 66ed 61bd 486c 493d 416c 89be
000002a0: 10ad 7a3d 2a52 a63d 1380 2f3d 022a 93bc
000002b0: 2e74 eaba f749 69be 3e77 0bbe eb1d 883d
000002c0: 1d4e 9bbd 5ee1 3ebd 5dd6 b2bc b10e 8cbd
000002d0: 8018 60bd 5fa5 4b3c 83d6 07be db84 563e
000002e0: df91 73be dce5 a0bd dbad 8fbd 2e44 07be
000002f0: 876b 22be 050c d3bd 254e 053e eebc f6bd
00000300: 8a67 f1bc 9e49 b53d 97e1 00be 6560 8dbc
00000310: 9c13 513e 9a57 213e da00 24bd 12bf aebd
00000320: 0d2b 743e b6d0 a9bd 1912 f7bb 101d a73d
00000330: 5a63 4fbc d975 efbd faec 8d3e 3ec7 e7bd
00000340: e658 403e 32f0 5cbd a33a 473d c5b9 08be
00000350: da26 4b3d 80ea e23c 338d 043d 7045 1cbe
00000360: 998f c03d 69f7 cebd 8ab7 5abe ed75 003b
00000370: 67de 42be 09ce 183d 6eb6 a4be 3487 0c3a
00000380: 4b07 05be 3c4c 57be cc97 403e 19e6 2c3e
00000390: 993d 843d 6fe3 4d3c 44fc 213c 179f 183d
000003a0: 586b 85bd db88 66bd 365b 6bbd c30c f13c
000003b0: 3af5 4dbd e302 c3bd 245f f8bd 9682 723e
000003c0: e201 0bbe 08e7 4bbe af76 8dbd de42 183d
000003d0: 9186 1bbd e0de 9d3d 6e17 903d 9c0c ff3c
000003e0: b323 3dbd b1a2 98bd 98d2 333d 77ff 87bd
000003f0: 2101 45be 6007 f8bc 4905 d13d a66b ed3d
-0.018883487 0.019551005 0.052265108 -0.13931565 -0.058963 0.13599713 -0.22929056 0.05778382
-0.00056498434 0.028761359 -0.17616464 -0.035575945 0.056686647 0.031962957 -0.106441274 0.015102531
0.024917673 0.04758668 0.2269742 -0.26921302 -0.09760901 -0.02191011 0.008291149 0.17013213
-0.13003905 -0.00044249263 0.057142366 0.1090624 0.16527109 0.068668336 -0.044227824 -0.062818974
-0.07104385 0.1632228 0.124139965 -0.10623513 0.00053178915 -0.039738413 -0.10381481 0.057694074
-0.025169693 -0.10920255 0.11347511 -0.0375517 0.011584845 -0.116631456 0.012232066 -0.15564995
0.11024317 0.19124706 0.09123437 0.08652863 -0.15418309 0.003250303 0.2798604 -0.09590353
0.07258987 0.1196737 0.10633127 -0.078857966 -0.09134034 -0.032159556 0.1171519 0.109299704
-0.017429508 0.106297605 -0.033208236 0.06633729 0.22000103 -0.27694476 0.026777398 -0.0066079763
0.12154978 -0.0008537476 -0.08259952 -0.13411468 0.0054807407 -0.18389165 0.1928095 -0.019104043
0.005862387 0.18042457 0.14106518 -0.11284101 0.013790836 -0.15362184 -0.22822657 -0.08855615
-0.10333713 -0.0049342364 -0.16403072 -0.16714166 0.054558065 -0.15184538 0.048901 0.0842162
0.10588325 -0.09947829 0.14236741 -0.10916508 0.04367305 -0.01635249 -0.34922338 0.08513542
0.01821389 -0.0073631727 0.1394542 -0.06955027 -0.014037725 -0.06755016 -0.071080364 0.020730602
-0.1355369 -0.13558236 -0.0734512 0.13833003 0.04594363 -0.20211782 -0.05138737 -0.017074555
-0.07991956 -0.07931303 0.15713115 0.058750924 -0.018187035 -0.031467393 0.0068878955 -0.015186135
-0.14032078 0.13253668 0.060372494 0.0029072666 0.035828684 -0.046456967 -0.041968826 -0.1345473
0.14788419 0.06081938 -0.121567056 0.0043762773 -0.05445365 0.009336696 -0.060653843 0.08526433
0.01953145 0.0144852325 -0.019292377 0.19033417 -0.10661213 -0.07970394 0.14279662 -0.031557947
-0.028103864 0.1748687 -0.02196038 0.23495261 0.034159943 0.008786904 0.12978552 -0.18243049
-0.068689875 -0.073542334 0.070464045 0.098160975 0.060484722 -0.05515804 0.04917553 -0.26840404
0.0612002 0.0812114 0.04284675 -0.017964367 -0.0017887407 -0.22782122 -0.13619706 0.066463314
-0.07583258 -0.046601646 -0.021830732 -0.0683874 -0.054710865 0.012429564 -0.13265423 0.20949118
-0.23786114 -0.07856342 -0.07015582 -0.13209602 -0.15861331 -0.10305027 0.13018091 -0.12047754
-0.029468317 0.08851932 -0.12586056 -0.017257879 0.20417637 0.15756074 -0.040039875 -0.085325375
0.23844548 -0.082917616 -0.007539999 0.0815984 -0.012657965 -0.116923995 0.2771986 -0.11317299
0.18783912 -0.053940006 0.048639905 -0.13352115 0.0495976 0.027699709 0.03236122 -0.15260863
0.09402389 -0.101057835 -0.21359077 0.001960154 -0.19030152 0.037305865 -0.32170433 0.0005360723
-0.12991063 -0.21025175 0.18807906 0.1688465 0.06457061 0.012566431 0.009886805 0.037261095
-0.06514615 -0.05628286 -0.057460032 0.02942503 -0.050282694 -0.09522035 -0.12127522 0.23682627
-0.13574937 -0.1991235 -0.06907403 0.037173145 -0.03797013 0.07708526 0.07035719 0.031133942
-0.046176624 -0.07452906 0.04390201 -0.06640523 -0.19238712 -0.030276954 0.10206086 0.11592798

104 f4 [1, 256, 64]
00000000: 7da5 9cbd a5cf 11be 6025 b03d 3a93 81bc
00000010: 4b36 8f3d 0343 163e 8da5 54be f492 7dbe
00000020: d527 7dbe c3a7 41bd 2052 51bd 896d 3fbd
00000030: 6bef 353e 4dc7 663b 933a 59be efd9 c6bd
00000040: d4d3 683c 8f66 023d 2b22 143c b79c 26be
00000050: 7b04 233e ce3e 9bbc f65d 4c3e 0ce9 403e
00000060: 1ab0 3d3d 6b47 2bbe c41b 103d 8b4b e43d
00000070: 4dd2 3bbe 79c7 c3bd 6da7 d83d e6aa a5bd
00000080: 84cf a23c b3a3 1f3d 8e62 8cbe 034f babd
00000090: 3f21 5c3e 21f5 21be f4bd 0abe 0a76 b1bd
000000a0: 6fd9 1b3e 72b1 8fbd eca7 2c3e b8e6 3c3d
000000b0: aef9 9fbe 6034 3d3d 53de 763d 8bf4 3c3e
000000c0: f997 86be df49 ccbd eea8 a03d 1e4a f3bd
000000d0: f35e fabc 84e3 cabd cdd4 8cbd a3cd 373e
000000e0: 5c05 adbc 3960 e4bd cd8b 1abe 9ab1 ef3c
000000f0: c693 9dbe 6219 dabd a7e0 573d b82f 903c
00000100: a2a5 e9bd b311 31be d4ba d13d c53f 473d
00000110: 241d 99bd 6e68 de3d 406a 443e 202b 573c
00000120: 8e37 133d 0d83 fc3d b7ae 0a3e cc88 a4be
00000130: 7ac7 5b3d 4dab 4cbe 3deb 10bb 9be5 58bd
00000140: 72b4 e23d 1678 a13d 1094 d43c 2fdb 01be
00000150: 7b58 05bc 1b44 b2bd 73d7 62bc 432a 503e
00000160: 8e4e fcbb a6eb f33d 0b8a d53c 2841 873d
00000170: 88c3 e83c 2400 54be 0aa2 87be e60b 39bd
00000180: 586f 093e 1255 65bd 1d3e 09bd e858 96be
00000190: 8bc8 a9bd 6fd4 733e 32ac 7d3e 3f9b d63d
000001a0: 3aef ffbd 4229 febc 7235 553d bdf8 23be
000001b0: 95bc 043e a91c 32be 9495 da3d a3ee 6bbd
000001c0: d239 4abe 5d2b 673e 5adf 08be 7297 c2bc
000001d0: 6260 84bd 2f8b 42be 19f7 5d3e 0658 e4bd
000001e0: 006c 68be 23de 8a3e 0580 f13d e414 2bbe
000001f0: 135c 463e e994 053d 0371 8c3d 26a7 6bbe
00000200: cfa6 b33e 83a4 823e b2dd 24be 058d 0b3e
00000210: 15da 243e abb3 19be 7ea7 8c3d 2226 5cbe
00000220: 29fd 403e 5283 2a3e 3d92 7b3d e91a 48bc
00000230: db47 813d e6b6 a33d 669b 6ebd 6ef7 a3be
00000240: 84ba 263e 53bf 873e b6cf 393e b627 163d
00000250: d3c3 923e 08b3 3e3e d146 e9bd 2844 f7bd
00000260: b491 4a3e 51de 353d e78d 8dbd beaf 52be
00000270: 5149 8e3e 6291 2abe 9c4d 583e 9af7 acbd
00000280: 89d9 11be d362 15be 4547 f8bd 8c3a c73d
00000290: 3281 603e c6b8 193d aa17 23be bc4f 8dbe
000002a0: e18c e9bd d98d 1e3e 9008 1d3e 5ac4 7e3e
000002b0: 1c5d ed3d a68a 783e f70e a2bd 0105 aa3d
000002c0: 5d2a 22be 7e99 8c3e bdc9 c33c d24b f73d
000002d0: 6ee9 0fbe c4d1 653d d2c6 87be f332 59bd
000002e0: 3ef0 babd 032c 2ebe 1ad3 063e 5ea5 403e
000002f0: 2f8c 8cbe 87c1 d03d f1f7 06be ba20 643e
00000300: b624 dfbd dd16 f83b 02bc 4e3e 3e77 ce3e
00000310: 4e6a 41be 7ebb 30be 6123 813e a7d4 c13d
00000320: ab17 4dbd cabd 29be aa43 573d cb2f ab3d
00000330: fdc4 3cbd ffb8 e4bd 1c8d bd3d d134 edbd
00000340: f68b 003d e256 163e 9ed6 abbd 1f9d f53c
00000350: 0431 7c3e a976 813d 442c 3d3e 5ec6 47be
00000360: 9019 363e 12bc ba3d 27d2 a7bd f8ed 24be
00000370: 01cc 653e a42b a83e 2d12 94be 34c7 80be
00000380: adae b33d 0a5c 8c3e 69dc 27be 119e 58be
00000390: e69c 433b dda3 09bd da33 223e c6b8 dabd
000003a0: d9f4 88bd c4dd 0bbe ec56 57be 7748 823d
000003b0: 59e8 95bc c804 383d 3c62 143e 85bc 9b3c
000003c0: e2c6 f33d 371c 37be a6fb b63d a649 47be
000003d0: 4cca 9d3e 2fe2 cfbd 33ea d33d f18c fdbc
000003e0: 9a6b e4bd 4d3b 55be 7645 4fbe b6ba c83e
000003f0: 44c2 163d ca36 fbbd 032f a0bd c74b d1bd
-0.07648752 -0.14239366 0.08600879 -0.015817273 0.069927774 0.14674 -0.20766278 -0.2476309
-0.24722226 -0.04727913 -0.05110371 -0.04673532 0.17767112 0.0035214007 -0.2121375 -0.09709536
0.01421066 0.03183609 0.009041349 -0.1627072 0.15919678 -0.018950846 0.19957718 0.188389
0.04631052 -0.16726463 0.03518273 0.11147221 -0.18341942 -0.09559531 0.10578809 -0.08089237
0.019874342 0.038974475 -0.2741894 -0.090971015 0.21497057 -0.15816166 -0.13549024 -0.08665092
0.15219663 -0.07016267 0.16860932 0.046118468 -0.31245178 0.046192527 0.06027062 0.1845266
-0.2628782 -0.09975027 0.07844721 -0.11879371 -0.030562853 -0.099066764 -0.06876526 0.17949538
-0.02112072 -0.111511655 -0.15092392 0.029259492 -0.30776805 -0.10649373 0.05270448 0.01760088
-0.11408545 -0.17291908 0.10240713 0.0486448 -0.07476261 0.10859762 0.19181156 0.01313284
0.035941653 0.123296835 0.13543211 -0.32135618 0.053657033 -0.19987221 -0.002211287 -0.052953344
0.110695735 0.07884233 0.025949508 -0.12681268 -0.008138771 -0.08704396 -0.013845312 0.20328622
-0.007699794 0.11910181 0.0260668 0.066042244 0.028413549 -0.20703179 -0.26490813 -0.045177363
0.1342138 -0.055989332 -0.0335065 -0.29364705 -0.08290204 0.23811506 0.24772719 0.104788296
-0.12496801 -0.031025533 0.052052923 -0.16012855 0.12962563 -0.17393745 0.10673061 -0.05760063
-0.19748619 0.22575136 -0.13366452 -0.023753855 -0.06463696 -0.18998407 0.21676292 -0.11149602
-0.22697449 0.27122602 0.11791996 -0.16707188 0.19371061 0.032612715 0.06857493 -0.23012981
0.35088202 0.25516137 -0.16100195 0.13628013 0.16098817 -0.15009944 0.06867884 -0.21498922
0.18846573 0.16651657 0.06141876 -0.012213447 0.063125335 0.079938695 -0.05825367 -0.3202471
0.16282088 0.26513156 0.18145642 0.036658965 0.28665027 0.18622983 -0.1139046 -0.12073547
0.19782144 0.04440147 -0.06911831 -0.20574853 0.2779031 -0.16657022 0.21123356 -0.08445664
-0.1424314 -0.1458848 -0.121229686 0.09727964 0.21924284 0.03752973 -0.15926996 -0.27599895
-0.11403824 0.15483798 0.15335298 0.2487959 0.11590025 0.2427164 -0.079130106 0.08301736
-0.15836473 0.27460855 0.023899907 0.120750085 -0.1405389 0.05610825 -0.26518875 -0.053027105
-0.09127854 -0.17008977 0.13166466 0.18813083 -0.27450702 0.101931624 -0.1318052 0.22278109
-0.10895674 0.007571085 0.20188907 0.4032535 -0.18888208 -0.17259023 0.25222304 0.09464388
-0.0500714 -0.16576305 0.052554764 0.08358725 -0.0460863 -0.11168098 0.0925543 -0.115823396
0.031383477 0.1468158 -0.08390544 0.029982148 0.24628073 0.06321461 0.18473917 -0.19509265
0.17783189 0.09117903 -0.0819438 -0.16106403 0.22441103 0.32845795 -0.28920117 -0.2515198
0.08773551 0.2741397 -0.16392674 -0.21154048 0.0029848157 -0.033603538 0.15840092 -0.10679774
-0.06687326 -0.13658816 -0.21029252 0.06361478 -0.018299269 0.044926435 0.14490598 0.019010792
0.11903168 -0.17881857 0.08934717 -0.19461688 0.30818403 -0.10150563 0.10347404 -0.030950995
-0.11153336 -0.20823403 -0.20241341 0.3920495 0.03680636 -0.122663096 -0.07821467 -0.102195315

105 f4 [1, 512]
00000000: d006 8dbc 102b efbd 9571 17be bed8 cfbd
00000010: 2d49 f5bd 2501 b1bc 22ad fdbb ca94 18be
00000020: fab0 c73d 2e9c 42bc 3f12 cd3c 3464 333d
00000030: 019e 543d d2a5 85bc 0465 e0bd 60af 233e
00000040: 18b1 4ebd 77cd b7bd fe5c 6439 32c0 3a3b
00000050: ff6a 143a 29ac bdbd b728 f7bc e515 493d
00000060: f57d c93d a7cd debd d834 b5bd 0fa7 0ebe
00000070: 81cb b9bc 254a 293d fd0e b5bc 80f7 993d
00000080: e7a5 91bd a5ba 04bd 1b20 373c b377 0cbe
00000090: 3f9e e73a c15e 1cbd 8074 0a3b e520 393b
000000a0: 215c eabc b450 8ebc fb1f 5c3d 2b02 64bc
000000b0: 803d 313c c1f9 ba3d 8726 553e c868 a5bb
000000c0: aebb c3bd 2e7a 4e3d 1efc 873d 70bf 9d3c
000000d0: 12aa aebd 6ab8 253d 9c2a 0abe b052 893d
000000e0: 6633 44be b41e 283c 79ee 5abc a031 dcbd
000000f0: d4f1 bcbd 1044 0e3b 9045 56bd a71d 6abd
00000100: 4867 433d 15b4 aa3d be4f dd3c 07a9 783d
00000110: cae2 143c faea 423d c3a5 5fbd 6925 9c3d
00000120: 462e 983d e39e dc3c f2d4 533e 35ed 033e
00000130: 7b90 53bc 5d77 1b3e 6078 103d b3ed 55bc
00000140: e623 8f3d 6d22 023c 269f 0cbd 1698 aa3c
00000150: 29ae 39bc 3ec8 343b 0a7b e53d d7d0 bb3d
00000160: 4abc f93d 6ba7 933d b754 38bb 0a74 07be
00000170: d826 373d 1800 143e 1502 91bc 75eb 633d
00000180: 8f3f a5bc 4c31 753d 42c0 dc3d 63e3 2ebc
00000190: 28d7 9a3c f899 f1bc b4fd 2d3e 8144 4c3d
000001a0: b8ef a73d 463d 5c3d cfdf 86bd c0d4 ec3d
000001b0: 268f afbd 0e7b c73c 3e92 bdbd 563e 4b3d
000001c0: 2ab6 3f3d ccdb 073d d20e 35bc 9e8a a83b
000001d0: 47c8 e0bd 1ca1 563d d3dc 04bd b82c 2f3e
000001e0: a6ef 0b3d a734 8c3d 0274 3a3d 4c7c c1bb
000001f0: 1222 063e a6c8 bb3d 1705 adbd bc75 273e
00000200: 4346 913f 474e 833f ac69 693f e12a 6c3f
00000210: 4453 773f 4d3b 843f 61a2 7b3f 9962 813f
00000220: 51aa 903f 00e1 7e3f 9be0 853f 8ae9 833f
00000230: 6045 6e3f c17a 893f 4e5f 723f 33ed 9e3f
00000240: c0c9 7d3f 26fa 803f c956 6b3f b6ff 7b3f
00000250: 1107 843f 416e 693f 07fc 823f 3c86 873f
00000260: b368 913f 1e76 853f 4c62 783f e641 763f
00000270: 4870 803f 3685 803f f9f6 883f 10b9 863f
00000280: 4e94 813f 830b 863f 9883 823f eb79 7e3f
00000290: 7906 8f3f c608 833f 0af3 8c3f f739 853f
000002a0: ff65 8e3f 546a 8b3f 3d38 823f add5 7b3f
000002b0: 4549 913f b99e 8f3f 3567 9d3f c0bd 803f
000002c0: 1454 863f 8d3f 943f d50b 903f 53ca 943f
000002d0: 47f6 643f 44b1 8a3f 4372 6c3f bc25 833f
000002e0: db2b 783f 9a0d 833f d099 823f ad8e 7b3f
000002f0: c358 813f 480a 863f e237 823f 84cb 8c3f
00000300: 53b0 2cbd 1c7b a1bd b8a2 623d c4a5 3f3c
00000310: 6459 033d 4a11 393c 3ffd 453d a465 ed3c
00000320: 4a04 efbc f831 8abd 2592 173d 4377 c8b9
00000330: 58ed da3d 3e0e 2d3c 1ded b53b d7ea f43b
00000340: 8b51 26bd 799a e9bc c887 15bd 3095 7cbd
00000350: 9dcd 98bd 30de 4ebd 90a4 293d 05a4 923d
00000360: 6684 babd 3fbc dd3c 2dcd dcbd 0b4b 1dbc
00000370: 0b22 08bd 8a44 033d 3944 69bd 0c8f 903c
00000380: bd7e 7ebc ab91 18bc 1d56 093d 3e66 5f3d
00000390: 6d1e e8bd b74f 1bbd f1d6 373d 5a40 803c
000003a0: ba0d 7cbd 9ae5 9bbd 5234 4abc c700 28bd
000003b0: 5376 96bd 9475 6bbd 132e 12be 6e99 2f3d
000003c0: 0ab8 bf3a 50b0 c33b 1284 bf3d dbf8 c53c
000003d0: 02df a13d f2ab 80bd e6d8 a83c a5b2 0cbe
000003e0: 94bd 623d 849b ccbc a1d7 0b3d df76 0b3c
000003f0: a1b5 74bd 028f 8e3b 03f7 6e3d 0231 71ba
-0.017215163 -0.116781354 -0.14789422 -0.10148762 -0.11976848 -0.021606991 -0.0077415863 -0.14900509
0.097505525 -0.011878056 0.025033114 0.043796733 0.051908497 -0.01631442 -0.10956767 0.15984869
-0.05046186 -0.08974736 0.00021778417 0.0028495905 0.00056616956 -0.092613526 -0.030170782 0.049093146
0.098384775 -0.10879069 -0.0884797 -0.13930915 -0.022680046 0.041330475 -0.022101874 0.0751791
-0.071117215 -0.03240456 0.011177088 -0.13717537 0.0017671062 -0.038176302 0.0021126568 0.0028248366
-0.028608384 -0.017372467 0.053741436 -0.0139165325 0.010817885 0.09129668 0.20815478 -0.0050478913
-0.095572814 0.05040949 0.066398844 0.019256324 -0.08528532 0.040459074 -0.13492817 0.067052245
-0.19160232 0.010261226 -0.01336252 -0.10751653 -0.092258126 0.002170805 -0.052312434 -0.057157185
0.04770592 0.08335129 0.027015563 0.060708072 0.009087274 0.047587372 -0.054601442 0.07624323
0.07430701 0.026931232 0.20686701 0.12883456 -0.012912865 0.15182252 0.03527105 -0.01305716
0.06989269 0.007942778 -0.034331463 0.020824473 -0.011333027 0.0027585174 0.112051085 0.091706924
0.121941164 0.07209667 -0.0028126666 -0.13227859 0.04471478 0.14453161 -0.017701188 0.05564447
-0.020171909 0.059861466 0.10778858 -0.01067433 0.018901423 -0.029492363 0.16991311 0.049870018
0.082000196 0.053769372 -0.06585657 0.11564016 -0.08572225 0.02435067 -0.09256409 0.049619995
0.046804585 0.0331686 -0.011050897 0.0051434776 -0.109757 0.05239974 -0.032437157 0.17106903
0.034164093 0.0684598 0.04552079 -0.00590471 0.13098934 0.0916913 -0.084482364 0.16353506
1.1349567 1.0258263 0.9117687 0.9225293 0.9661143 1.0330597 0.98294646 1.0108215
1.1301976 0.9956207 1.0459169 1.0305645 0.9307461 1.0740587 0.94676673 1.2416137
0.9913597 1.0076339 0.919293 0.9843706 1.0314656 0.9118386 1.0233163 1.058784
1.1360077 1.0426672 0.9702499 0.96194303 1.0034266 1.0040653 1.070037 1.0525227
1.0123384 1.0472263 1.0196409 0.9940478 1.117385 1.0237052 1.101167 1.0408314
1.1124877 1.0891824 1.0173413 0.9837292 1.1350485 1.1220313 1.2297121 1.0057907
1.0494409 1.1581894 1.1253611 1.1624244 0.8943829 1.0835347 0.9236185 1.0245891
0.9694192 1.0238526 1.020319 0.9826458 1.0105213 1.0471888 1.0173304 1.0999608
-0.042160343 -0.078848094 0.055330962 0.011697236 0.03206767 0.011295626 0.048337217 0.02897913
-0.02917685 -0.06747812 0.03700461 -0.0003823583 0.10689801 0.010562478 0.0055519477 0.007474284
-0.04060511 -0.028516041 -0.036506444 -0.061665714 -0.074610926 -0.050504863 0.041416705 0.071601905
-0.09107284 0.027067302 -0.10781322 -0.009600411 -0.03323559 0.032047786 -0.056949828 0.017646335
-0.015533146 -0.009312074 0.03352939 0.054540865 -0.11333928 -0.03791782 0.04488272 0.015655685
-0.06153653 -0.076121524 -0.012341576 -0.041016366 -0.07346787 -0.057485178 -0.14275388 0.04287093
0.0014626991 0.005971946 0.09351362 0.024166515 0.079038635 -0.06282796 0.020611238 -0.13740022
0.055356577 -0.0249765 0.034141187 0.008512228 -0.059743527 0.004350544 0.058341037 -0.0009200723

action_model._discrete_distribution.branches.0.bias f4 [6]
00000000: 437e 763d c2df f13a 09d9 0fbd b6be 0abc
00000010: c149 fa3c d51c bf3d
0.060179006 0.0018453526 -0.03511909 -0.008468321 0.030552747 0.09331671

action_model._discrete_distribution.branches.0.weight f4 [6, 64]
00000000: f1a3 26bb 9c65 bebc 042b afba c2f9 d0bb
00000010: 6405 f33c d6e3 a2bb 4506 363c 90c9 553d
00000020: b800 7ebc 4a4c 81bc 9149 50bd 5a23 02be
00000030: 1979 963b 3d17 7abd 65df 90bb b634 c13b
00000040: 0eea 673d b5e3 acbc afbc 74bb c20a 19bc
00000050: f76f 213b ea88 47bc b064 98ba e165 69bb
00000060: 06f9 7f3c 6d81 663a 6f8d fb3b 4d07 26bd
00000070: 55d0 193c def1 5cbd 91f7 8abd fd08 633d
00000080: b058 013d ea19 753d 02fd d5bb adf1 7ebc
00000090: 009c d8bc 08e2 1cbd a749 d83c ec69 01bb
000000a0: 88be 0fbd 4466 59bc 7c75 d0bd 3841 083d
000000b0: dffe 54bc 8f3d 29bd 33a1 8f3d 75ac c13b
000000c0: 1f96 2c3b 64b5 5ebc 0bdc 64bd cdb0 b73c
000000d0: 11c6 b13b e3f2 81bc 8328 fabc fc6b dcbc
000000e0: 9675 3d3d f9e4 943c de30 6e3d cd88 3dbc
000000f0: 5c25 c33c 6a88 02bd 049e cd3d ca0f a4bc
00000100: 7ec0 133d 05a7 703b a2a1 8f3c 53d5 b3bc
00000110: e015 013d 3e46 5b3c c1ef f0bd df94 86bd
00000120: df35 dd3b 3525 1cbc 6c45 32bb 8e01 5d3e
00000130: b9e9 ff3b 62f5 84bd d5c9 6f3c 33cf 053e
00000140: 9165 07be 0cb5 b43c bec8 9535 a8de 55bb
00000150: 0166 b13c 0ea1 943c f58b aabb 6327 48bd
00000160: 7e9d 233d 31b9 22ba 186c c5bc 7531 d2bc
00000170: 2b8d 97bd 60c0 023d 35da efbb 5be3 aabd
00000180: 43f3 a5bc 61de 9a3d 4bbe f43d da9e c2bc
00000190: 0f4d efba 9005 273c 986e e6bc 423b e33b
000001a0: 4f7e 35bd c3c1 0fbe 0455 dabc 672a 283c
000001b0: d544 093e 36ec b2bc 3dc2 d4bb 34bd 003c
000001c0: 47ff 82bc 5769 cb3d 3103 44bc a78b 003d
000001d0: f21a 05bd 4575 163c bd48 6b39 c324 9fbd
000001e0: 9ccb 9f3d 6e19 773b 3142 7bbb ebb0 a1bb
000001f0: 1b14 983c 7083 e33c f76a fa3c a78a 883b
00000200: 8737 ab3c c205 8ebc b8a9 7a3a 25a4 f9bb
00000210: 7fd1 f5bb 5264 15bc d258 273e d998 653d
00000220: 7327 e43c b85e 99bc 3bbf dd3c 9137 94bd
00000230: 9864 b8bb c1df 8f3c c037 8abc 8734 713b
00000240: 7ec4 1f3d 3a95 7a3c e633 4d3b e213 08bc
00000250: 58b5 593c 0143 0b3c 2e61 13bd 65dc 803c
00000260: e39b f73c 1f8c 983a 6fbc 513c 56f2 9abc
00000270: 8991 0fbc 07ba ac3d f6df 3f3d 6a6e ec3d
00000280: 7c29 febc 95cc e7bc c163 c9bd aef6 08ba
00000290: 549e 82bc 8d2f 93bd 728d 36bc 4c05 b2bb
000002a0: 583d 2c3d 907b 05bd 85da 9f3d 53b3 baba
000002b0: 6647 423d 0d96 0ebc 0091 5ebd b429 373c
000002c0: 4ee0 293b 281c c6bb 4b0d 413d d85e 6a3c
000002d0: 56cf 86bc c79a 073b 44f3 dcbb 85af bdbc
000002e0: 6029 46be 7afd 0abc 9dae f2bc a7ca 1e3c
000002f0: 73c0 7ebc e212 05bd c3a6 bcbc 64b1 113d
00000300: 41e0 8dbb 61a4 d6bb 6c9f 773c 08c8 89bb
00000310: c983 15bb d35c d73b d614 39bb 8794 0d3b
00000320: f974 a8bc 89b2 c2bb fd62 343d 0702 d1bc
00000330: e1f7 3b3d 18a1 843c 3c8d 3a3c 995a 41bd
00000340: 9cf3 983d 78fb a43b 4e20 dc3b f958 8cbc
00000350: 515a 2d3d dc89 153c aea9 3abd 1339 173a
00000360: 5ead 4c3c 83ce cdbb f29d cd3a 0ab5 14bd
00000370: b030 c0bc 6498 053d 7593 933c 16b0 4b3d
00000380: fedb 0c3d d724 943b 02a2 a8bb c5a0 48bb
00000390: 8806 ef3c 51ae c03c a2fe 41bb 897d 5abc
000003a0: cf71 823d d364 49bc 8093 a2bd e510 18bd
000003b0: e390 1d3d a693 86bd 39a0 20bc dd56 39bc
000003c0: 1831 113c faf9 423c 2441 99bc b1c4 a03b
000003d0: 6ac9 24bc 8428 0bbc 04ea 88bb db7a a7bc
000003e0: e70a 653c 3dc9 7c3c 2eeb 8abb ffee f03b
000003f0: 444e 68ba 88a5 17bc ce17 5d3b df51 813c
-0.0025427307 -0.02324181 -0.001336426 -0.0063774297 0.029665656 -0.004971008 0.011109893 0.052194178
-0.015503101 -0.015783448 -0.05085141 -0.12708798 0.0045920727 -0.061057318 -0.004421162 0.005896176
0.056619696 -0.021104673 -0.003734391 -0.009340944 0.0024633387 -0.012178639 -0.0011626687 -0.0035613703
0.015623337 0.00087930897 0.0076767723 -0.040534306 0.009388049 -0.0539416 -0.06785501 0.055428494
0.03157872 0.059839167 -0.006530405 -0.01556055 -0.026441574 -0.038301498 0.026402308 -0.0019746972
-0.035093814 -0.013269011 -0.10178658 0.033265322 -0.013000219 -0.041318472 0.07013168 0.005910451
0.0026334596 -0.013593052 -0.05587391 0.022423172 0.0054252227 -0.015862888 -0.030536896 -0.02690696
0.046254717 0.018175589 0.058152072 -0.01156826 0.023821525 -0.031868376 0.10039905 -0.02002706
0.036072247 0.0036720645 0.017533127 -0.021952307 0.031515002 0.013383446 -0.117644794 -0.06571364
0.0067508067 -0.009530355 -0.0027202023 0.21582624 0.0078098443 -0.064921156 0.014635523 0.13067321
-0.13222338 0.022058986 1.1159789e-06 -0.0032633934 0.021655085 0.018143203 -0.0052046725 -0.048865687
0.039945118 -0.0006207405 -0.024099395 -0.025658349 -0.073999725 0.031921744 -0.0073197135 -0.08344146
-0.020257598 0.07561947 0.11950358 -0.023757387 -0.0018257218 0.010194197 -0.028128907 0.0069345543
-0.04430991 -0.14038758 -0.026651867 0.010264016 0.13405164 -0.02184115 -0.0064928816 0.00785761
-0.015990866 0.09932201 -0.0119636515 0.031383183 -0.0324964 0.009183233 0.00022438444 -0.077706836
0.07802507 0.0037704366 -0.0038339014 -0.0049344203 0.018564275 0.027772635 0.030568583 0.0041669193
0.020900501 -0.01733673 0.0009562033 -0.0076184445 -0.0075017805 -0.0091181565 0.16342476 0.05605397
0.027850842 -0.018721923 0.027068725 -0.07237161 -0.005627226 0.017562749 -0.016872287 0.003680499
0.03900575 0.015294367 0.0031311451 -0.008305522 0.013287865 0.008499862 -0.03598135 0.015730092
0.0302257 0.0011638439 0.012801274 -0.018914383 -0.008762726 0.084339194 0.046844445 0.11544497
-0.03102564 -0.028295795 -0.0983348 -0.00052247464 -0.015944637 -0.07186804 -0.011142122 -0.0054327603
0.04205069 -0.03258854 0.07805351 -0.0014244117 0.047431372 -0.008702767 -0.0543375 0.011179376
0.002592105 -0.006045837 0.047131818 0.014304839 -0.016456287 0.002069162 -0.0067428667 -0.023154983
-0.19351721 -0.008483285 -0.029624278 0.009691871 -0.015548813 -0.03248871 -0.023028737 0.035569564
-0.0043297117 -0.006550357 0.015113693 -0.004204754 -0.0022814146 0.006572345 -0.002824118 0.0021603422
-0.02056359 -0.005941693 0.044039715 -0.025513662 0.045890693 0.016190097 0.011386212 -0.04720554
0.0746834 0.00503486 0.006717718 -0.01713227 0.04232246 0.0091271065 -0.045571975 0.00057686976
0.012492506 -0.0062807216 0.001568733 -0.036305465 -0.023460716 0.032616034 0.018014649 0.049728476
0.03438949 0.004520993 -0.005146266 -0.0030613404 0.029177919 0.02352062 -0.0029601236 -0.013335594
0.063693635 -0.012292105 -0.0793829 -0.037125487 0.038468253 -0.065711305 -0.009803825 -0.011312214
0.0088618025 0.011900419 -0.01870782 0.00490626 -0.0100577865 -0.008493546 -0.0041782875 -0.020444324
0.01397965 0.015428838 -0.0042394614 0.0073527093 -0.000886176 -0.009255774 0.0033736113 0.01578611

network_body.linear_encoder.seq_layers.0.bias f4 [256]
00000000: 0135 773c 63e7 d13b 398b 9dbc 271f 413c
00000010: bf1d 5c3b 318b acbc 601c afbb 336b 0f3a
00000020: de61 5abc 424a 8cbb 2b16 10bc c632 d03c
00000030: 7827 f6bb d78c 6cbc 57fd 07bc b584 e8bb
00000040: e6b9 a13a 978b e4b9 0c66 c1bb 37cd 9ebb
00000050: ed88 e63a b905 9d3c f277 29ba 5f45 1b3c
00000060: 3e8e 103c 83c5 00bb fb9f 1c3b cd5d ce3c
00000070: 0ffc 213c 15ca d03c ae6e 67b9 c093 033b
00000080: e57a babb b274 65bb 4ebc 0c3c dd30 2ebb
00000090: 95e3 3f3b a4c8 843c 0c33 f939 5c66 b23a
000000a0: 57b5 0fbb 88d3 313c 2884 3a3c 46d9 443b
000000b0: 3d70 f4bb 0c05 1abc 5998 9c3c 7fb2 5b3a
000000c0: 56e8 efbb fe59 8d3c 734e 193d 8b73 d2b9
000000d0: 2008 b63b fa60 e3bb ab36 713b e42e 423b
000000e0: 91e9 6e3c 20bd 5a3c a717 a5bb 9f82 383c
000000f0: 6075 2ebc 69b2 8abb 2609 2abc 104a b4bc
00000100: a12c bf3a df78 a9bc 87fe 06bb b08a b13b
00000110: 354a dbbc 0929 163b de47 bebb 1b05 053c
00000120: 3eea 543c 6713 f0bb ac1e 193b 0366 81bc
00000130: cf1b c1bb ced0 06bc eea1 303c 1706 edbb
00000140: 27bb 843c c25e 993c 3092 e6bc 3a69 0938
00000150: 90ac 933a 8218 783b da68 1239 e22f 48bc
00000160: 6a9e 853c f5a2 863b 9a81 013c b3ba 72bc
00000170: c4f4 4abc 98f1 cbbb ca02 00bb 9795 7ebb
00000180: cb7f 2cbc 107c d23b 7637 d13b 6dbc 0fbc
00000190: 07cb f0bb dbb8 0c3c 1495 c73b bd78 c13b
000001a0: 1da4 b4ba 0466 02bc 9618 ea3a cea0 543c
000001b0: fba4 d33b fd31 063d ff4e b4bb b066 a43b
000001c0: f585 803c 907a bc3c 6f62 c43b 9130 58bb
000001d0: a1de 6fbc 2b92 e73c e4ca efbb 5001 b1bb
000001e0: 59b6 85bc 3f91 173c ca48 323b 6801 e6bb
000001f0: 5488 863b 1c38 ebbb 0acd 11bc 4319 a1bc
00000200: a0f3 edbb db93 253c 996c 6db9 d3c2 543c
00000210: bfff 05bc 66b7 3b3c 1106 cf3b 31d5 12bb
00000220: 4e7e 1b3c 42a0 28bc ff14 75bb a063 493c
00000230: bbd7 6dbb 2020 a83b 2d49 9ebb 058d c8bc
00000240: f4a6 41bc 4eaf 55bc 1523 003c af29 a43a
00000250: 97ef 1abc bdb6 5dbc 853f 09bd 15b0 8bbc
00000260: dfb5 3f3a b20a 253c fa8f faba c102 da3b
00000270: cc58 0abc 312a 903c 6024 21bc b2be 553a
00000280: c6b4 78bc e402 323c 6449 1b3b eab0 36bc
00000290: 014c 62bb 17e7 d53a e91d cebb ccb2 06bc
000002a0: da12 a33b 86b0 713b fc35 89bc 071a 923c
000002b0: 8165 993b da83 77ba 7e9d ccb9 7551 643b
000002c0: da44 513c c4d8 183c c0d5 503c f82d d13c
000002d0: d4a0 11bb ce23 273c 3215 a33b 4fcc 473c
000002e0: a466 243c 0216 7dbc 183b 95bb eb2f ccba
000002f0: 0d5e 5ebb e01c cc3c c054 74bc 42fa 643c
00000300: 9424 94bb fbd9 9ebb 2f74 913c 5990 9d3c
00000310: 18af 933b 9e3f 6cbc 3cd0 523c c9b5 443c
00000320: fabf 383b 88bc 983c b6ec 8db9 9f58 54bc
00000330: ee37 8a3b e049 de3b 7f94 f93a 2fbe 463c
00000340: 4ce5 523b 7a94 cf39 05cc 4e3c 3eeb 1dbc
00000350: 5268 e9b9 6ce4 573c f6d9 653c cb56 dbbb
00000360: 87c8 833c bf62 39bc b0f1 fbba 13e8 0dbc
00000370: 998b 4c3c 494e ab3b c909 02bc 82e6 fdbb
00000380: 92fe 31bc d8a5 013a 39fd 8dbc a582 af3c
00000390: 6ae0 9c3b 2911 05bc 10b2 f53a 7186 e13c
000003a0: c28d b23b fd43 89bb 8230 4c3c 8bb1 093a
000003b0: 167f 2e3b 7382 17bc cd84 a23b 2a2b 03bb
000003c0: fe04 99bc 2f01 373c 920d e7b9 94da 843c
000003d0: 0dd0 413b 755b febb 7531 43bb 2ed0 81bc
000003e0: f833 413b a84d 973b 17d9 93bc aa01 9b3b
000003f0: 4c41 0e3d b063 133c 9ebb 223c 3aef 30bc
0.015088321 0.0064057573 -0.019231426 0.011787212 0.0033587066 -0.021062465 -0.0053439587 0.0005470991
-0.013328997 -0.004281313 -0.008794348 0.025414836 -0.0075120293 -0.014437876 -0.008300147 -0.007095898
0.0012338727 -0.0004359155 -0.0059020575 -0.004846241 0.0017588414 0.019167768 -0.00064647116 0.009476989
0.008822976 -0.0019648976 0.0023899067 0.025191212 0.009886756 0.025486985 -0.00022071108 0.002007708
-0.0056909197 -0.0035012183 0.008589817 -0.0026579418 0.0029279937 0.016208954 0.00047531014 0.0013610828
-0.0021928155 0.010853656 0.011384048 0.0030036732 -0.007459669 -0.009400617 0.019115614 0.0008380785
-0.007321398 0.017254826 0.03742833 -0.00040140408 0.005555168 -0.0069390507 0.0036806266 0.002963
0.014582054 0.013350755 -0.00503822 0.011261611 -0.010648102 -0.004232694 -0.010378158 -0.022007972
0.0014585444 -0.020687519 -0.0020598487 0.005418144 -0.026768783 0.0022912642 -0.005806907 0.008118893
0.012995301 -0.0073265317 0.002336423 -0.015795713 -0.0058932076 -0.008228494 0.010780795 -0.007233392
0.016202522 0.018721942 -0.02814588 3.2761345e-05 0.0011266638 0.0037856405 0.00013962705 -0.012218447
0.01631089 0.0041087815 0.007904435 -0.01481502 -0.012387458 -0.0062238686 -0.0019532912 -0.0038846487
-0.010528515 0.006423481 0.0063847853 -0.008772952 -0.0073484215 0.008588995 0.0060907695 0.0059042857
-0.001378182 -0.007958893 0.001786011 0.012977792 0.006458876 0.032762516 -0.005502581 0.005017124
0.015688876 0.023007661 0.0059931795 -0.0032987932 -0.014640481 0.02826794 -0.0073178876 -0.005401768
-0.016322302 0.009250938 0.002720403 -0.0070192106 0.004105607 -0.0071783196 -0.008898983 -0.019665366
-0.0072617084 0.010106052 -0.00022642537 0.012985903 -0.00817865 0.0114573 0.006317862 -0.0022404904
0.009490563 -0.010292115 -0.0037396548 0.012291819 -0.0036291915 0.0051307827 -0.0048305006 -0.024481306
-0.01181959 -0.013042284 0.007820864 0.001252463 -0.009456537 -0.013532338 -0.033507843 -0.017051736
0.00073131727 0.010073351 -0.0019116395 0.0066531603 -0.008444022 0.017598243 -0.009835333 0.0008153721
-0.0151798185 0.010864947 0.0023694867 -0.011150578 -0.0034530165 0.001631948 -0.0062901867 -0.008221339
0.0049766125 0.0036878898 -0.016749375 0.017834676 0.0046812897 -0.00094419497 -0.00039027253 0.0034838591
0.012772763 0.009329025 0.0127462745 0.025534615 -0.0022221105 0.010201408 0.004976892 0.012194707
0.010034237 -0.015447142 -0.0045541637 -0.0015578246 -0.003393057 0.024916112 -0.014912784 0.013975682
-0.004520962 -0.0048477626 0.017755596 0.01923387 0.004506957 -0.014419464 0.01286703 0.012006232
0.0028190599 0.018644586 -0.0002706998 -0.012960582 0.004218093 0.006783709 0.0019041448 0.012130304
0.0032180129 0.0003959274 0.012621884 -0.009638606 -0.00044518948 0.013177019 0.014029017 -0.006693696
0.01608683 -0.011315047 -0.0019221809 -0.008661288 0.012484455 0.005227838 -0.007936903 -0.007748426
-0.010863917 0.0004945672 -0.01733266 0.0214246 0.0047874944 -0.008121767 0.0018745083 0.027529927
0.0054490278 -0.004189013 0.012462737 0.0005252591 0.0026626042 -0.00924741 0.0049596787 -0.0020014741
-0.018679138 0.011169716 -0.00044069864 0.016217507 0.002957347 -0.0077623674 -0.0029784117 -0.015846338
0.0029480439 0.0046174116 -0.018047852 0.004730423 0.03473024 0.008995935 0.009932427 -0.010799224

network_body.linear_encoder.seq_layers.0.weight f4 [256, 247]
00000000: 450a 713d bd1e 753c b0fa 75bd 24d2 c1bd
00000010: e401 bf3c 2da5 7abd 2b84 7bbd e4a1 8abd
00000020: 7d48 febb 9ae0 9b3d 3345 ba3c ece8 80bd
00000030: 5a19 51ba c491 57bc a076 d9bd acc3 4abd
00000040: fcee 2c3d bfd0 433c 5c90 3d3d d75f 9fbd
00000050: 37ba f5bd fd5b 61bc c3b8 abbd 7eb9 243d
00000060: fe34 933d c7a6 88bd 57aa 90bd 1c05 613d
00000070: 2f9f 093d 7a9b 213b b7fa 863b 185f 1bbe
00000080: d87a f43c 1712 ee3d aa36 bcbd 01d5 e5bc
00000090: d214 343c 85a4 7fbd 3782 023d acbe 5c3d
000000a0: 15ff cc3d 5935 61bd 0a9b 03bd d03f 5b3d
000000b0: 87cf 1cbe 8aaf 9bbd 816c 033e 2d3b 563d
000000c0: 1d95 b93c d13b a9bc dc4b b6bc 730e 993d
000000d0: 952e afbd f143 4ebc b78e babd 8f71 5e3c
000000e0: 875e 503d 7be7 96bc d6d4 dabd df5a 89bd
000000f0: 9a35 1e3c c9c0 943c 2bfe fbbc e9aa c1bc
00000100: 9318 96bd 36a2 7d3d cab7 d93c d048 a33d
00000110: e351 653d b43e c7bc 2cbd 033c efa7 fe3d
00000120: a80f 20bd a142 513d acda 913c 90fb 61bd
00000130: 2713 6abd 3062 30bd c3f6 a63d 0b8c 7bbd
00000140: c7a5 9f3d c480 ebbc 6dea e9bc 1b7e 3ebd
00000150: 8c81 e23d c122 b03c a6b7 8cbd cb44 35bd
00000160: 7646 92bd ac46 903b c2f4 e6bd 4097 6cbb
00000170: c9b2 a43c 2b5f 383d 6eba a2bd 1046 38bd
00000180: 3d5b a53d e980 3bbd 6056 793d a118 b4bd
00000190: 5cb4 5dba fe6f 533d b0d7 aebd 634e ffbc
000001a0: 3de0 a6bc 552c be3c 99d7 75bd 5e28 3f3b
000001b0: ceb4 253d 2783 26bd fc30 603d cc75 fd3c
000001c0: e3bc af3d 7ffd 143d 384a 8fbd 79e4 82bb
000001d0: 2bef 10bd ac96 aabd 1bc8 3bbd 0087 48bd
000001e0: a49a 1bbc abc4 813d 8b03 3e3d 1be3 7ebc
000001f0: 73ff 1cbd ea89 443b 2cdd 6e3d adf0 0c3d
00000200: 966a 433d 193f 55bd 0a67 df3c 2b2a 9fbd
00000210: 19cf 9a3d 97ce 12bc 5128 3cba 9945 85bc
00000220: 5b5f fcbc ca42 a03d d29f 79bb faf8 c7bb
00000230: 48d0 6fbb e229 a03b 1862 3bbe 42ae 8bbd
00000240: 9705 96bd cf10 703c 371c bc3d c3da 3d3d
00000250: c3e2 28bd 5d8e 7fbc fc67 2e3d 4228 23be
00000260: 4d1d e4bd 0755 29be f31e 2bbc 626a ffbc
00000270: 4a3b 2dbd 10eb 6f3d 0254 343c b5ce 173c
00000280: 4ae8 e63d 4e52 7d3d 335c 01bd 34da 8bbd
00000290: b974 13bd ba1d ea3c bb20 9b3b 189d e3bd
000002a0: 4fc3 643d 58fb 7fbc bbb3 c9bc be57 29be
000002b0: 9419 173d 09f9 e9bd 4bb7 963d b917 d83c
000002c0: c954 00be 1cf7 3e3c 97ec 99bb fd60 873c
000002d0: 431e 09be d652 6abd fb1a 60bd 4faf f6bd
000002e0: d85e 09be 5a2b afbd 2c73 9f3d 914b 4fbc
000002f0: 4c1a 573d b2b0 b53d 751c b0bd 1ba8 82bc
00000300: 80dd a73d 258f 2abc 53c5 3cbe c7ac b53d
00000310: 08d6 a4bd d91c cd3b 0743 a3bd 42cf 293d
00000320: 3df8 efbd cf19 71bd 9f1e 893d 2755 14bd
00000330: 27e1 adbd 0434 383d c88f 40bd 698f 543d
00000340: 73a0 d9bc fa7b b73d d77e eebd abec a03b
00000350: c136 49bb cdfe a43c 93a6 cbbc 49e1 17bd
00000360: 8651 82bc 82dd b5bd 210f 44bb b4e9 f1bc
00000370: c91b ec3d 00c0 93bd 8f5c bebd b5bc dabd
00000380: 6d11 9bbd b42a 9cbc cb55 973d 2576 193c
00000390: 074b 9e3d f348 81bd 4102 b73d 25cb 83bd
000003a0: f8b6 c63d 8475 f7bd 2417 21bd 5b12 2dbd
000003b0: 9865 2cbb d2bb f73c 22b3 8dbd b6c0 1ebd
000003c0: f1bf 3b3d 6c27 113d 6f52 463d 18f6 adbd
000003d0: 8772 18bd 19f4 39bd 10fd c33d c8f5 bfba
000003e0: 14e2 303d bc5f 1dbc 1eb6 793d 6c66 88bc
000003f0: ef58 3a3d 202e aa3d f930 e4bb 26db 10bd
0.058847684 0.014960942 -0.060053527 -0.09463909 0.023316331 -0.06119268 -0.061405342 -0.067691594
-0.007760106 0.07611199 0.022738075 -0.06294426 -0.0007976495 -0.013157312 -0.10618329 -0.049503013
0.0422201 0.011951624 0.04628025 -0.07781952 -0.11998408 -0.013754842 -0.0838485 0.04021596
0.07187842 -0.06672435 -0.0706374 0.054936513 0.033599075 0.0024659322 0.004119243 -0.15172994
0.029843733 0.11624544 -0.09190114 -0.02805567 0.010991292 -0.062412757 0.031862464 0.053892776
0.100095905 -0.054982517 -0.03213028 0.053527653 -0.1531354 -0.07601841 0.1283436 0.05230253
0.02265411 -0.020658405 -0.02225297 0.07473459 -0.08553807 -0.012589441 -0.09109252 0.013576879
0.0508714 -0.018420925 -0.106851265 -0.067067854 0.009656334 0.018158333 -0.030760845 -0.023641067
-0.07328906 0.061922275 0.026576895 0.07972872 0.055986296 -0.024321891 0.008040708 0.124343745
-0.03907743 0.051088933 0.017804466 -0.05517155 -0.05714717 -0.04306239 0.08152535 -0.061412852
0.077952914 -0.028747924 -0.028554166 -0.046506982 0.11059865 0.021500947 -0.06870966 -0.04425506
-0.071423456 0.004402956 -0.112771526 -0.0036100894 0.020104783 0.045012634 -0.07945715 -0.04498869
0.08074043 -0.045777235 0.06087339 -0.0879376 -0.00084573566 0.051620476 -0.08537233 -0.031165307
-0.020370597 0.023214499 -0.060020063 0.0029168348 0.040455632 -0.04065242 0.054734215 0.030939959
0.08580949 0.036374565 -0.06996578 -0.003994521 -0.03538434 -0.0832952 -0.045845132 -0.04895687
-0.009497318 0.063363396 0.046390098 -0.015557076 -0.038329553 0.002998943 0.058316395 0.034409214
0.04770907 -0.052062128 0.027270813 -0.07771715 0.07559032 -0.008960388 -0.00071776385 -0.016268538
-0.030807188 0.07825239 -0.0038089645 -0.0061026784 -0.003659265 0.0048878053 -0.18299139 -0.068203464
-0.07325285 0.014652445 0.09185069 0.046351206 -0.04123188 -0.015597907 0.042579636 -0.15933326
-0.11138401 -0.16536342 -0.010444391 -0.031178657 -0.04229287 0.058573782 0.011006357 0.009265591
0.112747744 0.06184607 -0.03158207 -0.06828728 -0.035999987 0.028578628 0.0047341264 -0.11113948
0.055850323 -0.01562389 -0.024621835 -0.16537377 0.036889628 -0.11424453 0.07359179 0.0263785
-0.12532343 0.011655595 -0.004697393 0.01652574 -0.1339045 -0.057207905 -0.05471323 -0.12045156
-0.13415086 -0.085531905 0.07785639 -0.012652294 0.052515313 0.088715926 -0.08599178 -0.0159493
0.08196545 -0.010410105 -0.18434648 0.08870845 -0.08048636 0.0062595424 -0.07971769 0.041457422
-0.117172696 -0.058862504 0.06695294 -0.03621402 -0.0849021 0.04497148 -0.04701212 0.05189458
-0.026565766 0.089591935 -0.116452865 0.0049110255 -0.0030702802 0.02014103 -0.024859702 -0.037080083
-0.015908014 -0.0888014 -0.0029916244 -0.029530384 0.11528737 -0.072143555 -0.09294998 -0.10680524
-0.07571683 -0.019063331 0.073894106 0.009366547 0.07729154 -0.06312742 0.08935977 -0.06435231
0.09702867 -0.12082961 -0.03932871 -0.042253833 -0.0026305672 0.030240927 -0.069189325 -0.038758002
0.045837346 0.035437986 0.04841846 -0.08494204 -0.037218597 -0.045398805 0.09569752 -0.0014645392
0.043184355 -0.009605344 0.060964696 -0.016650401 0.04549497 0.08309579 -0.006963846 -0.035365246

network_body.linear_encoder.seq_layers.2.bias f4 [256]
00000000: 1d02 043e 040d 2bbd 505a bebb 3792 47ba
00000010: 8299 93bd c108 22bd 9b3c 383d 3609 1c3d
00000020: 4163 873d 8fdd bb3b db03 163c 929f 153c
00000030: 8dc3 e73c 7d95 033d 303a 2e3e e792 233d
00000040: 1a9e 003e d58f c43c 48f3 82bc d5cb a7bc
00000050: 9cb1 c73b 4052 e5bc b313 6f3d b67a 9c3b
00000060: 7acc e13d 4cc3 1fbd 3379 75bc b902 28bd
00000070: d181 3ebd 1609 fbbc dcca 4ebb 8a73 4bbd
00000080: 78ea fc3b d2a7 63bc ad32 643d 8e52 7c3d
00000090: b684 863d d6a3 99bd 4846 b53c 10d4 9b3b
000000a0: 2a62 d6bc 4c9f 823c e220 0dbd 6017 b3bd
000000b0: 1532 f83b 8d6e aa3d 06e1 17bd bb31 e9bb
000000c0: 7165 283c 8dcc bb3b 9663 653d 12a2 1fbd
000000d0: eb6e 08ba 089f 18bd 5f88 24bd b197 b83b
000000e0: b259 723c d303 6a3d c955 c83c 803f 5fbd
000000f0: 29ed 82bd e6f9 6dbb 8324 8fbb 32c2 813d
00000100: 13c2 493d 7236 e33c bc0f 9639 932c 693c
00000110: f9e1 9fbd 1d34 743d 4c27 1ebd a2fd bbbd
00000120: f516 17bd 5c93 e3bc 799c 22bb 1a91 69bc
00000130: 9ece 043b d929 753c 5730 2abd 8ea4 4e3c
00000140: 7bb8 4d3d 45ab 89bd 55e2 cabc b440 37bb
00000150: 7c02 c1bc 8b57 343c 3da9 8fbc 2a6b 0abe
00000160: 2bf1 75bd 3e4a 283c 2300 a2bc 55e5 27bd
00000170: 345b 6bbd 3380 6abd f256 2ebd 2852 0d3c
00000180: 5590 6b3b 24ef 20bb d6d6 0fbd d060 00bc
00000190: 6f09 253d 9f61 0cbd 142a 8dbc cafb 24bc
000001a0: 523f 013e 25cd 78bd 565c 4fbd 8874 523d
000001b0: 8f71 c1bc e45b d3bd fde9 313d 24e0 19bd
000001c0: c0da 03bd f3fd 533d 4bc3 f13d 4a0c 01bd
000001d0: c22f 823d d6d0 cd3c ab31 e9bc beac adbc
000001e0: 0fba ecbd f1d8 0b3d 5795 3abd 6b46 033d
000001f0: 2563 3f3d df00 22bd 5ffa cf3c 8d7a d3bd
00000200: 86cc 67bc 18a3 7ebd ef3a bc3b 748f fb3b
00000210: 8fa4 6d3b 8ee0 10bd 98f3 2d3d 9186 863d
00000220: ffa3 36bd 11aa 55bd 4e88 2bbd 6618 e03a
00000230: 2c7f 463d 52b6 04bd fb97 d8bd e35f 23be
00000240: 42ce 1fbd 2020 913d fef7 b53c 94e4 c5bc
00000250: 2a1d 263d bda8 b3bd 255e c7bb 36e6 423d
00000260: 0224 563d 22e4 a3bc c20a a1bd b5ba 22bc
00000270: 8eb5 f53b 056a 5abc a82a bfbb 136c 533d
00000280: b813 933d 03df 5dbd 425a bb3b 60d7 b5bb
00000290: d238 523c 4420 0c3d b287 b13d d920 b93b
000002a0: 0aca ea3c a710 dabc 0b09 1abc 85df 5a3c
000002b0: ae35 733d d04c 9d3d a739 89bb be76 a53c
000002c0: c5a8 853c 2ccc 313c 76de 223c c11e 0a3d
000002d0: 6b41 d73c c98a 9b3c fd5d d13c 67c7 a0bc
000002e0: 7d22 103d 6dd7 893d 545d 3abe 4102 c33b
000002f0: f962 9c3d 37e7 473d 16e7 49bc 1e58 053d
00000300: 9913 473c 0ff6 2cbb 16b4 7d3d 34f1 7e3c
00000310: 2cb8 60bd 764b f93c 97a2 993d bb2e 39bd
00000320: 393e 97bc f7c8 0ebd 16b1 173a 0dba c6bb
00000330: c3fd e03d f72d 983d 385f 05bd 3de9 9dbd
00000340: a8f2 723d 448e 0a3e f015 d7bd 3278 733d
00000350: 0657 8ebd d252 9b3c 22aa f83d 241e d8bc
00000360: a5bd 8dbc ad0b 18bc 7b1a d83c 3c62 a1bd
00000370: ea5b ccbd 2910 d7bb 6096 c1bc 3888 97bd
00000380: cfbf bc3c 298f 0a3e e4a2 8bbc 743a 73bd
00000390: 5180 d2bc 50c7 56bc 5ea3 94ba bba1 7f3c
000003a0: f2fc 013d ab08 e6bc 1170 11be d192 9ebc
000003b0: 31eb fbbb 149f cc3d 19f0 023d 6ea1 a0bd
000003c0: 46fc 2fbd 4344 dbbb 9353 583d b32d c8bc
000003d0: 3a21 d43c 478e 3c3c 9f64 cfbc 6816 393d
000003e0: 9f80 1bbc 3ace c9bb d648 eabc d49d 9a3d
000003f0: 5083 103c aeb7 27be 611d e3bd fc45 43bd
0.12891431 -0.04176046 -0.005809106 -0.0007613035 -0.07207014 -0.03955913 0.044979673 0.03809472
0.06610728 0.005733199 0.009156193 0.009132283 0.028291488 0.032124985 0.17014384 0.03993502
0.12560311 0.023994366 -0.015985146 -0.020482937 0.0060941707 -0.027993321 0.058368396 0.0047753705
0.11025329 -0.03900461 -0.014982509 -0.04101822 -0.04651052 -0.030643981 -0.003155402 -0.049670734
0.0077183805 -0.013894992 0.05571239 0.061602168 0.06568281 -0.07501952 0.02212824 0.0047555044
-0.026169855 0.0159451 -0.034455188 -0.08744693 0.0075743296 0.08321867 -0.037079833 -0.007116524
0.010278092 0.0057311715 0.056003176 -0.03897292 -0.00052045163 -0.03726104 -0.040169116 0.0056333174
0.014791893 0.057132553 0.024454968 -0.054503918 -0.06392891 -0.003631228 -0.004368366 0.06335868
0.04925735 0.027735922 0.00028621953 0.014231819 -0.07806773 0.05962001 -0.038611695 -0.09179236
-0.036887128 -0.027780227 -0.0024812503 -0.014255786 0.0020264755 0.014963591 -0.041550007 0.012612475
0.050224762 -0.0672212 -0.024766127 -0.002796215 -0.023560755 0.0110072 -0.017536754 -0.13517442
-0.06004445 0.010271607 -0.019775456 -0.040990192 -0.057460025 -0.057251167 -0.042563386 0.008625545
0.0035944183 -0.0024556601 -0.035116993 -0.007835582 0.0402922 -0.034272786 -0.017231978 -0.010069797
0.12621811 -0.060742516 -0.050625168 0.051380664 -0.02361372 -0.10320261 0.04343604 -0.037567273
-0.032191038 0.051755857 0.11804827 -0.03150586 0.06356765 0.025123995 -0.028466066 -0.021200534
-0.11558925 0.03414244 -0.045552578 0.032049578 0.04672541 -0.039551612 0.02538794 -0.10326109
-0.014147883 -0.062167257 0.00574433 0.007677013 0.0036261415 -0.035370402 0.042468637 0.06568635
-0.044589993 -0.05216414 -0.041878037 0.0017097115 0.048461124 -0.032400437 -0.10575863 -0.15954547
-0.039015062 0.070862055 0.022212978 -0.024156846 0.040555157 -0.08772419 -0.006084221 0.047582828
0.052280433 -0.020006243 -0.0786338 -0.00993221 0.0074984496 -0.013330941 -0.0058339424 0.05161674
0.071814954 -0.05416776 0.0057175467 -0.0055493563 0.01283093 0.03421046 0.0866846 0.0056496677
0.028660793 -0.026619269 -0.00940157 0.013358955 0.059377365 0.076806664 -0.004187781 0.020198222
0.016315827 0.010851901 0.009940734 0.033720735 0.02627631 0.018987076 0.025557512 -0.019626332
0.03518914 0.06730542 -0.18199664 0.0059511964 0.07636065 0.048804488 -0.012323162 0.03255474
0.012150669 -0.002639178 0.06193932 0.015560437 -0.05486314 0.03043149 0.07501715 -0.04521058
-0.018462287 -0.034859624 0.0005786581 -0.0060646595 0.10985901 0.07430642 -0.03256151 -0.07710502
0.059313446 0.13530833 -0.10502231 0.0594408 -0.06950192 0.01896039 0.12141825 -0.02638156
-0.017302344 -0.0092801275 0.026379814 -0.07880065 -0.09978469 -0.0065632057 -0.023631275 -0.073990285
0.02304068 0.13531174 -0.017045446 -0.059381917 -0.025695952 -0.013109043 -0.0011340191 0.015602524
0.031735368 -0.028080305 -0.14202906 -0.019357117 -0.007687949 0.09991279 0.031967256 -0.0784329
-0.042965196 -0.006691487 0.052814078 -0.024435854 0.02589475 0.011508531 -0.025316535 0.045187384
-0.009491115 -0.0061586173 -0.028599184 0.075496346 0.00882037 -0.16378662 -0.11089588 -0.047674164
