Assets/Models/Bomberman.onnx (onnx, 478636 bytes, 6 tensors)

action_model._discrete_distribution.branches.0.bias f4 [6]
000000 0e 00 9f bb 22 87 2f b9 cb b6 94 3a f2 8a 01 3b
       -0.0048523014 -0.00016739641 0.001134598 0.0019766656
000010 aa ac dc 3b 38 80 3b 3a
       0.0067344503 0.000715259

action_model._discrete_distribution.branches.0.weight f4 [6, 256]
000000 b4 69 18 bc 04 c7 c1 3b 00 6f b7 3b ca e9 a9 3c
       -0.009302545 0.005913617 0.005597949 0.020741362
000010 38 dd 75 bc dc 01 29 3c 0e 1a 91 bb a4 11 5b bc
       -0.015006356 0.010315385 -0.004428155 -0.013370905
000020 5e bc 9a bc 8a ea 03 bc 2e da 64 3c 6f 45 9e bb
       -0.018888649 -0.008051524 0.013968034 -0.0048300545
000030 6e 97 82 bc ba 3a 19 bc b6 62 65 bb 75 ae f0 3a
       -0.015941348 -0.00935238 -0.0035001463 0.0018362539
000040 78 5a 0e bd e8 14 1e bc 28 6f 27 bc a0 e1 09 bc
       -0.034754246 -0.009648539 -0.010219373 -0.00841561
000050 e6 48 3f 3c 0e 1d 2c 3c ad c3 40 3c 40 ea d2 bb
       0.011675095 0.010504974 0.011765403 -0.006436616
000060 3d 59 28 3c e9 e7 c5 3b 89 98 67 bc e4 67 0b bc
       0.010275182 0.0060396087 -0.014135488 -0.008508656
000070 e5 2c 8a bc 65 01 08 bc d2 5c 06 bc 5c 1b 92 bc
       -0.01686711 -0.008301114 -0.008200841 -0.017835312
000080 11 f9 c5 bb 01 72 16 3c 6e 1f ac 3c 05 2e ce bc
       -0.006041654 0.009182454 0.02101108 -0.025168428
000090 e8 c4 94 3b b5 06 58 bb 31 f4 05 bc 32 d7 b8 ba
       0.0045400746 -0.0032962982 -0.008175896 -0.0014102219
0000a0 78 6a ae bb 58 bf 0e bd 6f 75 80 bc a7 19 87 3b
       -0.0053227507 -0.03485045 -0.015680997 0.004122931
0000b0 a9 a0 ca 3b da ef 0d bc 5e 2f 6f bb da 4e 6e 3c
       0.006183703 -0.008663142 -0.003649674 0.014545167
0000c0 a0 e8 5a 3c 38 ee 42 bc 18 f3 08 bb b0 5c 08 bc
       0.013361126 -0.011897616 -0.0020896848 -0.00832288
0000d0 7f 61 db 3c 9f 0e 0d bc b3 00 a0 bb cb a4 6d 3b
       0.026779888 -0.008609443 -0.004882896 0.0036261554
0000e0 4e d1 42 bc 68 9f 48 3c 88 4c f1 bc f6 94 68 bc
       -0.011890722 0.012245037 -0.029455438 -0.014195671
0000f0 12 6a f7 3b d1 cd 12 bc bc af 06 bd 66 02 79 bc
       0.0075504864 -0.008960203 -0.032882437 -0.015198326
000100 a0 b4 a0 3b 98 e0 9a 3a d1 fc 85 3c 38 c3 92 bc
       0.0049043447 0.0011816202 0.016355904 -0.017915353
000110 30 c8 18 bc b1 2e ed 3b 9e 1d 8f 3b 07 8a ac 3a
       -0.009325072 0.007238232 0.0043675443 0.0013163694
000120 23 d5 3e 3c 7d 80 b2 bb b0 19 4f bc 9a 37 e2 bc
       0.011647495 -0.005447446 -0.012640402 -0.027614404
000130 21 71 00 3c 74 07 47 b9 82 66 f2 ba e7 44 b7 bc
       0.007839472 -0.00018980895 -0.0018493684 -0.022371722
000140 86 40 35 bb 6b c8 82 3a bf 29 67 bc c9 98 21 3d
       -0.0027656867 0.0009977942 -0.014109074 0.039452348
000150 10 5e a5 bc 3b bb 6b bc 1c 1d b5 3c f3 1a b9 bc
       -0.020186454 -0.014387901 0.022108607 -0.022595858
000160 1e 6d ad bc 6d fc 3f bc 90 76 a9 bc cb 20 a6 3c
       -0.021170195 -0.011717898 -0.020686418 0.020279309
000170 5f 9a 00 b9 c8 16 02 3c be 2e d1 ba bd 5c cb bc
       -0.00012264539 0.007940002 -0.0015959365 -0.024824494
000180 a8 7b a4 3c 02 0b 1f bc 47 fc ab bb c8 0d ce 3b
       0.020078495 -0.009707214 -0.0052485797 0.006288264
000190 a8 20 14 bc 75 b5 c5 3b 89 78 1d bb 61 23 f0 3b
       -0.009040989 0.0060335943 -0.0024028143 0.0073284362
0001a0 c2 17 1c bc 30 f2 74 bb f2 01 ec bb 82 3f 07 bc
       -0.009527149 -0.00373758 -0.0072023803 -0.008254888
0001b0 7a 79 33 bb 8f fb 32 bb ad b0 ca 3b c4 c8 45 bd
       -0.0027385638 -0.0027310585 0.006185612 -0.04828717
0001c0 25 fb b0 bc f6 3c 3e 3c ee c1 6c bc c1 0e 56 3c
       -0.02160413 0.011611214 -0.014450533 0.013065041
0001d0 f6 b6 37 3c 17 f8 88 3c bb 37 fd bb 6f 8d 26 3c
       0.011213055 0.016719861 -0.007727591 0.010165556
0001e0 97 13 1a bc a0 56 95 bc 35 f1 8b 3c 91 07 88 ba
       -0.009404085 -0.018229783 0.01708279 -0.0010378232
0001f0 9a cf 4c 3c b3 20 00 bd 58 ef e8 bb fd 12 3b 3c
       0.012500668 -0.031281184 -0.00710861 0.011418101
000200 ee b5 0f bc 68 a3 50 ba ec 3a 2d 3c b4 97 37 bc
       -0.008771403 -0.000795892 0.01057313 -0.011205602
000210 37 52 07 3d 2f 37 a1 3b b9 23 f2 ba 00 54 a7 bc
       0.03303739 0.0049199085 -0.0018473781 -0.020425797
000220 b6 a5 1f bc b6 86 53 bb 10 01 f2 bc e8 59 ab bc
       -0.009744098 -0.003227634 -0.029541522 -0.020916894
000230 44 cf a6 3b 81 6b 8a bb c5 1c de bc 6b 01 53 bc
       0.005090626 -0.0042242412 -0.027113328 -0.012878756
000240 c9 09 5f bc 52 b0 06 bb 79 07 45 3c 48 3d 90 3b
       -0.013613173 -0.0020551872 0.012025707 0.0044018365
000250 63 53 5d 3c e7 f7 97 bc 6a 79 b1 bc fc f9 1b 3c
       0.0135086505 -0.018550826 -0.02166434 0.00952005
000260 df b0 7a bc 14 46 88 3c a9 08 29 3b ea 2f 5e b7
       -0.015300958 0.016634978 0.0025792515 -1.3243387e-05
000270 9d 5d f5 3b 97 34 95 3c 61 32 9a bc a1 fe 52 3c
       0.007487966 0.018213553 -0.01882285 0.012878091
000280 d5 a3 28 b9 06 97 4b bb a9 64 13 bc 53 91 88 bc
       -0.0001608276 -0.0031065359 -0.008996167 -0.016670858
000290 49 f7 be bc 5c ef 5b b7 60 3a 8d 39 7e b7 08 bc
       -0.023311274 -1.3109147e-05 0.00026937108 -0.008344529
0002a0 4f 08 ea 3a e4 6d 7b 3b 67 0f 91 ba 0f 1a d9 bb
       0.0017855259 0.003836506 -0.0011067212 -0.006625421
0002b0 c6 e9 26 bd b8 e3 99 bc 11 cd 9a bc ef 7c 20 bb
       -0.040750287 -0.018785343 -0.018896611 -0.0024488529
0002c0 8c 58 e9 bc 31 04 a2 3b d0 b7 cc 3b bf 37 13 bc
       -0.028484605 0.0049443473 0.006247498 -0.008985459
0002d0 2c 01 c8 bc 95 79 11 3c d6 59 c1 3b d6 be a3 3b
       -0.024414621 0.008879085 0.005900602 0.0049971147
0002e0 af 90 fa bb 0b 6d 49 3c 59 bf 88 bc d9 46 0b 3d
       -0.007646642 0.012294064 -0.016692804 0.034003112
0002f0 d6 06 0a bd ea 58 ef ba 1c f7 b0 bc 14 99 1f 3c
       -0.033697926 -0.0018260751 -0.021602206 0.0097410865
000300 b8 6b 1a bc 4c 1d 47 bd 2f 6a a6 bb 06 64 f5 bc
       -0.009425096 -0.048611924 -0.005078576 -0.029954921
000310 47 33 07 3b 9a 1c f1 3b 61 1c 5f bc 4a eb 07 bb
       0.002062993 0.007358146 -0.013617606 -0.0020739608
000320 d6 99 0d bc 5b 21 88 3b f4 19 9f 3c 82 f8 60 3c
       -0.008642634 0.004154367 0.019421555 0.013731124
000330 af 25 0b 3b e2 f2 c6 bc 31 66 83 bb f7 c7 c3 3c
       0.0021232178 -0.024285737 -0.004009985 0.023899062
000340 f1 40 f1 bc 2a 76 21 bb b8 f8 b8 bc 73 2c 7a 3b
       -0.029449912 -0.0024637082 -0.022579536 0.0038173466
000350 87 00 50 bc 21 6d a7 ba 6c d9 20 3d 5c 5a cd bc
       -0.012695438 -0.0012773612 0.03926985 -0.0250675
000360 85 13 ce 3b e3 e2 ff bc a2 a0 56 3c bb e7 f8 3b
       0.006288948 -0.031236118 0.013099821 0.007595984
000370 0c 78 8b bb 7a e4 51 ba 94 d9 65 bb 4b 91 0e bc
       -0.004256254 -0.0008006763 -0.0035072314 -0.008701633
000380 44 83 fc bc 27 c9 0a bc e2 08 bd bc 32 fe fa 3b
       -0.030824311 -0.00847081 -0.023075525 0.007659697
000390 24 76 d8 39 7b 2c b1 3c d1 24 11 bd ce ae 6a ba
       0.00041286752 0.021627655 -0.0354355 -0.00089524395
0003a0 d6 b7 cb bc 93 54 5e 3b a6 34 39 3a ff 55 6c 3b
       -0.024867933 0.0033924922 0.0007065035 0.0036062
0003b0 8f f7 b8 3c ec 18 0d 3b 45 91 c9 3b 54 04 3e 3c
       0.022578983 0.0021529747 0.0061513507 0.011597712
0003c0 b3 38 ac 3b 2e ba ae 3a 0a c3 ac 3b b9 2a 48 bb
       0.0052557825 0.0013330632 0.005272274 -0.0030543043
0003d0 dd 01 89 bb 5f f9 a7 bc 92 b2 46 bc 02 74 12 bb
       -0.0041811303 -0.020504652 -0.012127535 -0.0022346978
0003e0 b0 7b d6 bc 1a 0d 3a bc 93 3a 8e ba 0d 58 e0 bc
       -0.026182026 -0.011355663 -0.0010851197 -0.027385736
0003f0 7b 9a 0b 3c 17 6d de ba 0d 40 d9 3b 74 49 04 ba
       0.008520718 -0.0016969767 0.00662995 -0.0005046346

network_body.linear_encoder.seq_layers.0.bias f4 [256]
000000 ee 69 30 3c f1 e6 34 3b 0b 7c 05 3d f3 63 8b 3c
       0.010767443 0.0027603472 0.032589 0.017015433
000010 16 49 bf 3c 2b ce 90 3c 17 40 dc bc 04 fb b0 3c
       0.02335028 0.017676434 -0.02688603 0.021604069
000020 5d 82 0e bc 7b c8 11 bc 5c 6b 8b 3b c9 9d 6e 3c
       -0.008698073 -0.008897896 0.0042547416 0.014563986
000030 c0 cd f0 3c 34 47 c9 bc 74 05 d4 3b 27 7e a5 bb
       0.029394984 -0.024570085 0.0064703766 -0.005050439
000040 31 f9 40 3a 4b fa d4 3b 83 0e 2a bc 5e 3d c1 3c
       0.0007361351 0.006499564 -0.010379436 0.023588832
000050 4f 4e 4c b9 ec e9 fa 3c 56 51 c2 3b 37 22 98 bc
       -0.00019484128 0.03062912 0.005930106 -0.018571002
000060 ec 9a 2a bd 04 b8 0f bc 7a 6f 9f 3c 00 f5 e9 bb
       -0.04165165 -0.0087719 0.019462336 -0.007139802
000070 2b 15 bf bb 4c c0 31 bc d5 d6 41 3c 53 02 b7 bb
       -0.005831381 -0.01084907 0.011831005 -0.005584994
000080 8e 17 fa ba 0a 44 32 bc 75 7b aa 3c e7 9f ef bb
       -0.0019080506 -0.01088048 0.020810822 -0.007312763
000090 12 e5 6a bb 3f 86 b8 3c 3c 68 89 bb cd a3 2b bc
       -0.0035842103 0.022524951 -0.004193334 -0.010476065
0000a0 46 69 09 bc ac 0f 52 bc 50 32 b0 3c 9d fe 30 bc
       -0.008386916 -0.012821119 0.021508366 -0.010802892
0000b0 5f 54 ce bb 5a 71 b4 bb b3 e2 16 bc 3d 2e 2c 3c
       -0.006296679 -0.0055066766 -0.009209323 0.010509071
0000c0 0a 4b 4f bc 79 f7 cd 3c 81 e1 f0 39 40 e3 0c 3d
       -0.012652168 0.025142418 0.0004594438 0.03439641
0000d0 25 06 32 38 30 bf 01 3c e1 52 e7 3c bc 96 82 ba
       4.244423e-05 0.007919118 0.028237762 -0.0009963135
0000e0 14 df 43 3c 47 2a 04 bc ea 9b ab 3c c6 6b dc 3b
       0.011955041 -0.00806672 0.020948369 0.006726715
0000f0 0e ae 0a bc b3 83 ad 3c ee 3f cd bb dd 9c ff 3b
       -0.008464349 0.021180963 -0.0062637245 0.007800682
000100 64 24 eb 3c 23 8e 9d bc 0d c6 30 3c 6b 18 6d bb
       0.028703876 -0.019232815 0.0107894065 -0.0036177884
000110 24 24 39 3c 10 28 7d bc c0 39 99 3a 02 0b a0 3c
       0.0113001205 -0.015451446 0.0011690184 0.019536499
000120 5f d0 84 bc 2a 68 e4 3b fc 21 fd 3b 46 90 d2 bb
       -0.01621264 0.006970425 0.0077249985 -0.00642589
000130 63 fe f5 ba b9 bc 2d bc bb d6 36 bc 11 50 f6 3b
       -0.001876783 -0.010604077 -0.011159594 0.007516869
000140 cf ad a4 bc fe 4b 27 3d 51 db d0 bc f2 0e ae bc
       -0.02010241 0.040843956 -0.025495203 -0.02124736
000150 ab 70 75 3b 85 b3 d7 bb a6 78 0d 3c 41 b4 ee bc
       0.0037451189 -0.0065826797 0.008634722 -0.029138686
000160 b9 67 cc 3b 14 c7 14 3c 43 21 b7 3b 48 37 0b 3d
       0.0062379506 0.009080667 0.005588682 0.033988267
000170 bc 56 48 bc 8c de 00 bc 83 74 d7 3c ad d9 cb bb
       -0.01222771 -0.007865559 0.026300674 -0.0062210173
000180 a4 b6 17 3c 61 8a 23 3a 4b 48 c1 3b 30 88 7c 3b
       0.0092598535 0.00062385766 0.0058985106 0.0038533323
000190 f0 45 cd bc f3 be c7 3b 86 1f 92 3c 55 55 a4 bc
       -0.025057763 0.006095761 0.017837297 -0.02006022
0001a0 c6 b5 54 3c 22 44 a9 3c 53 6c 29 bc bb f7 b8 bc
       0.012982791 0.020662371 -0.010340768 -0.022579065
0001b0 5a 02 d5 38 d0 f3 c7 bb 87 af 1e bd 79 f9 8e 3a
       0.000101570695 -0.0061020628 -0.038741615 0.0010908089
0001c0 b3 4f 55 bb 5a 79 b4 bb 0b c4 1c bc cb 4c 20 3c
       -0.0032548725 -0.0055076303 -0.009568225 0.009783934
0001d0 52 b9 25 3b f9 4b 10 3c 20 34 e1 3c 3f de 90 bb
       0.0025287461 0.008807176 0.027490675 -0.004421025
0001e0 2a e5 14 bc 7e 11 0e bc e0 94 cf bc 2f c3 1c bc
       -0.00908784 -0.008671163 -0.025339544 -0.00956802
0001f0 9e fc b6 39 7a ed 83 bc bc d2 15 bd 6a 37 92 bc
       0.0003490196 -0.016104449 -0.036577925 -0.01784869
000200 19 13 85 3c 8f d8 a1 bc df c6 b1 bb 39 06 37 3c
       0.016244458 -0.019756583 -0.0054253186 0.011170917
000210 aa c5 f7 bb c0 7f 70 bc 7b 5f f0 3a 3f d1 82 bb
       -0.007561405 -0.0146788955 0.0018339002 -0.0039922292
000220 93 bd 1e 3c b4 42 23 bc 6f 9f 8f bc 08 19 fe bb
       0.009688753 -0.009964634 -0.017532079 -0.007754449
000230 62 c5 b1 bc 07 a7 c6 bc 30 16 8a 3a 0a e1 9b bc
       -0.021700565 -0.024249567 0.0010535177 -0.019028205
000240 45 d6 34 bb e8 1c a6 bb ca 67 43 3c 6c 3e 57 bc
       -0.0027593535 -0.005069364 0.011926601 -0.013137441
000250 02 e6 c0 ba 1f e0 5e 3c d2 c8 4d bc f9 96 d5 bc
       -0.0014716985 0.013603239 -0.012560086 -0.026072966
000260 10 99 08 3c 87 37 e9 3c 96 57 7b bc 69 47 31 bb
       0.008337274 0.02846886 -0.015340706 -0.002705062
000270 e0 a0 4b bc d4 75 40 bc 5f cc 81 bc 97 b3 00 bb
       -0.012428492 -0.011746842 -0.015844522 -0.0019638294
000280 50 ed b8 3c 05 d7 0e bb da 0a 3c bc 50 e0 6d 3c
       0.022574097 -0.0021795642 -0.011477197 0.014518812
000290 64 4f 9c bb 4d 45 11 bc c5 50 13 ba e3 fc 07 bb
       -0.0047702063 -0.00886662 -0.00056196406 -0.0020750097
0002a0 34 e8 78 ba d8 1e 39 3c ea 7f a4 bc ca 00 b5 3c
       -0.000949505 0.011298858 -0.020080525 0.022095103
0002b0 86 99 cc 3c 3a e8 e8 bb 9a 16 b1 bc 97 08 e2 3c
       0.02497555 -0.0071077617 -0.021617223 0.027591987
0002c0 5a 3a 49 3c 5a f3 ad bc 52 4e 3c 3a 3c 74 49 bc
       0.0122819785 -0.021234203 0.00071833015 -0.012295779
0002d0 cc 43 6d bc 58 8f 43 3c 7a 8b d8 bb b2 19 ff b9
       -0.014481496 0.011936031 -0.006608424 -0.00048656535
0002e0 88 c9 28 3c 02 63 87 3c fa 13 72 3c 7b fb b2 bc
       0.010301955 0.016526703 0.014775271 -0.02184843
0002f0 99 bb 9f 3c 5c 23 f9 3a 88 6d 2e bb 3a d3 5c bc
       0.019498633 0.001900773 -0.0026615579 -0.013478095
000300 d9 3a 1e 3d ec 3d 25 3c 2c 05 10 3c 54 47 b1 3c
       0.03863034 0.010085564 0.008790296 0.021640457
000310 d3 45 98 bc a8 c9 29 3b d3 25 25 3b cf c5 17 3d
       -0.018587982 0.002590755 0.0025199547 0.03705388
000320 a0 90 08 bd 76 2b 46 3c 2d 5e 18 3c 36 f5 34 bc
       -0.03334105 0.012095323 0.009299797 -0.011044791
000330 72 1e 1e bc b7 bd 2c bd a6 d1 e2 bb 74 94 f5 3c
       -0.009650813 -0.042173114 -0.0069219647 0.029978015
000340 96 93 33 bb ef ed f4 ba bf 0a 5c b9 2c fc dd bc
       -0.00274012 -0.0018686632 -0.00020984838 -0.027097784
000350 a1 f9 f5 3b 55 be 52 3b 24 c4 41 3c 2e 89 c4 bb
       0.0075065647 0.0032156904 0.011826549 -0.0059977984
000360 76 8f 55 bc 58 50 00 bb 9b 69 aa 3b 50 23 b7 39
       -0.013034692 -0.0019579139 0.0052005774 0.0003493079
000370 93 88 00 3c 91 77 ae 3c ff e4 b6 bb 03 3f 50 3c
       0.007845062 0.021297248 -0.0055814977 0.012710336
000380 ea c7 a8 3c e3 58 e5 3b a2 46 72 3b 63 ba 17 bc
       0.020603139 0.0069991215 0.003696837 -0.009260747
000390 38 1f ea 3c 8e 59 8e bc 18 6a e9 ba de 34 31 3c
       0.02857934 -0.017376687 -0.0017808108 0.010815827
0003a0 cf 0f 93 3c df b4 8c 3b 23 19 b6 3b 03 7a 2c bc
       0.017951874 0.0042940225 0.0055571957 -0.010527137
0003b0 fc c7 31 bb 4f b1 aa bb 10 17 7d 3c 25 15 d3 bc
       -0.0027127257 -0.005209125 0.015447393 -0.025766918
0003c0 b3 80 3b bb 4a 6d 7e bc 79 c6 d7 ba 99 13 a3 bb
       -0.0028610646 -0.015528986 -0.0016462348 -0.0049767015
0003d0 5b 6c dc 3b ef c7 5e bc 33 8e be 3c ca be 24 bb
       0.006726784 -0.013597473 0.023261165 -0.0025138133
0003e0 af 0f 9f ba 15 ee 6b ba 62 4e b1 bc 89 c7 35 3c
       -0.0012135411 -0.00090000156 -0.021643821 0.011094936
0003f0 7f 8e 38 bc a8 48 cc 3b 34 90 fc bc 9b 74 55 3c
       -0.0112644425 0.0062342472 -0.03083048 0.013028289

network_body.linear_encoder.seq_layers.0.weight f4 [256, 201]
000000 84 a7 2d be 76 db 05 be 15 c3 63 bd c7 35 24 3d
       -0.16958433 -0.13071999 -0.055605967 0.04009035
000010 15 96 89 bd c7 cc 13 be df ea 3b 3d 33 eb d7 3d
       -0.06718079 -0.14433585 0.045878287 0.105429076
000020 aa 1c 28 3d d4 cc a1 bd 7f 2e c3 3d d4 4b ce bd
       0.04104296 -0.07900396 0.09530353 -0.10073057
000030 1e 57 39 3e b7 d7 39 3d 12 3a ed bc 3b 1b 0c 3e
       0.18099639 0.045371737 -0.028958354 0.13682263
000040 47 34 41 be 43 0a 76 3d ba a8 ab 3d 5b 14 72 bb
       -0.18867598 0.06006838 0.083817914 -0.0036938402
000050 39 ab 0b 3d 12 90 1b bd 53 e3 65 bb 21 9e 03 3e
       0.034098838 -0.037979193 -0.0035078123 0.1285329
000060 d6 b6 c3 3c d5 0f ac 3c 12 92 ee 3d 59 2e 4f bc
       0.023890894 0.021003643 0.116489545 -0.0126453275
000070 6c d9 52 bd c8 9b 38 3e 0b f4 84 3d 8c 36 99 3b
       -0.05147688 0.18028176 0.0649186 0.004675692
000080 cb 6a aa bc 1a 3f 84 3e 2b f3 81 3d 92 60 1e 3d
       -0.020802876 0.25829393 0.06345209 0.038666315
000090 55 88 ac 3d 40 fb 97 bd af 96 13 3e 7b 66 29 3b
       0.08424441 -0.07420969 0.1441295 0.0025848437
0000a0 1b fd 64 ba e0 47 82 3c d0 15 3b 3d 8f ae 47 3d
       -0.00087352254 0.015903413 0.0456751 0.048750456
0000b0 41 5d e0 3a bb 9e 72 bd 42 47 f6 bc 99 e7 35 bc
       0.0017117636 -0.05923341 -0.030063275 -0.01110258
0000c0 3c f6 57 be c9 cc 2f bd 40 9d 02 3e 1e 82 ac bc
       -0.21090025 -0.042919908 0.12755299 -0.021058138
0000d0 e0 8f 2a 3a 07 c5 43 bd 9f 59 b9 bd 6a ed 06 bd
       0.00065064244 -0.04779532 -0.09050297 -0.03294126
0000e0 7b e3 41 b9 fc 53 ad 3d 76 9f 30 bd 73 ed 71 3b
       -0.00018490657 0.084632844 -0.043120824 0.0036915212
0000f0 45 2f 97 bd 8c 34 f2 3d 8d 2e 7b bd d5 02 a4 3d
       -0.07382063 0.11826429 -0.06132369 0.08008353
000100 01 4c a7 3c f1 94 1c bd f9 66 81 3d 63 96 87 3c
       0.020421984 -0.03822798 0.063184686 0.016551202
000110 ad 74 2e bd 93 78 14 3d c1 73 d8 bd fc 75 50 bd
       -0.04259174 0.0362478 -0.10568953 -0.05089377
000120 c8 28 d6 3d 09 74 c2 bd 39 22 d2 bc 93 7b 23 3b
       0.10456997 -0.09494788 -0.025651084 0.0024945482
000130 0a de 84 3b 35 b0 de 3c f6 22 34 3d 9f 3e 7b bd
       0.0040547894 0.027183631 0.043978654 -0.061339017
000140 8c 4e 51 bd b0 53 53 bd 4e 8e d2 3c 45 68 a7 3c
       -0.0511003 -0.051593482 0.025702622 0.020435462
000150 8c fc 13 bd 47 b6 a0 3d 4b ee 20 3e 6a fc 7a bb
       -0.03612952 0.07847267 0.15715902 -0.0038297423
000160 94 0b 6a bd a4 6f bd bb ce 43 61 bd 59 e5 16 3e
       -0.057139948 -0.005781131 -0.054996304 0.14735927
000170 9a 24 40 bd 5c 30 01 bd d3 71 88 3d 62 45 81 3d
       -0.046909906 -0.03154026 0.06662335 0.06312062
000180 6c 35 6f 39 3e 34 26 3d 34 13 c8 bd 90 10 03 3d
       0.00022812717 0.040577166 -0.09769288 0.031998217
000190 92 84 a0 3b a4 60 1d bd 37 79 6e 3d 0d 6a 8e bc
       0.004898616 -0.03842224 0.05822107 -0.017384553
0001a0 ac 28 8e 3c 76 96 dd 3d 08 a7 81 3d 71 ed 86 3c
       0.017353378 0.10819714 0.06330687 0.016470643
0001b0 ba 8c df bc 53 63 a1 bc 91 a9 66 3d 48 21 41 3d
       -0.027288783 -0.019700682 0.056314055 0.04715088
0001c0 1e b7 08 bd 27 81 6a 3d 03 5f a8 bd 46 89 81 3d
       -0.03337776 0.057252076 -0.08221247 0.06325011
0001d0 47 f0 12 3d bc 6e d6 3d 08 87 51 3d 6d fc 0c bd
       0.035873678 0.1047034 0.051154166 -0.03442042
0001e0 28 db 87 3d 4d 91 86 3d 7b 28 e4 bd 98 b8 47 3d
       0.066335976 0.06570683 -0.111405335 0.048760027
0001f0 9e 47 5f 3d 26 8a af 3c 02 dc 5f bd 3e b7 bc bc
       0.05451166 0.021428179 -0.054653175 -0.023036595
000200 b8 08 90 3c ba 4a 6d 3e 98 77 d7 3d 86 32 3f 3d
       0.017582282 0.23173037 0.105208576 0.046679042
000210 95 3d 87 bc 96 97 cf 3b e8 1c d3 bd 2e 4e c8 bd
       -0.016508857 0.006335209 -0.10308248 -0.097805366
000220 fb d5 15 bd ee 9a dd 3c 87 b7 30 3b c2 3d c5 bc
       -0.03658102 0.027051415 0.002696486 -0.0240773
000230 84 02 08 be 21 13 a2 3d 62 c6 ef bd 6f 3f 03 3e
       -0.1328221 0.07913805 -0.117077604 0.12817167
000240 3d b0 fa 3d ea 5e 4a be 5c bb 59 bd 8f f8 bb bb
       0.12240646 -0.1976277 -0.053157195 -0.0057364176
000250 a8 76 3d bd a9 d0 4d bd 2e ea 85 bd 62 3e 45 3d
       -0.046255738 -0.050247822 -0.06538807 0.048155196
000260 c6 3d 6e 3d 25 41 82 3d 6c 47 07 3e 25 99 26 bb
       0.05816438 0.063600816 0.13210839 -0.002542087
000270 b4 07 d2 3c 61 31 5f 3b 91 30 bc bd ad 67 44 bd
       0.025638439 0.0034056532 -0.09188951 -0.047950435
000280 10 a9 e0 bc 75 bf 3b 3d ca 84 6b bc e2 20 19 be
       -0.027424365 0.045836885 -0.014374921 -0.1495395
000290 6d d5 0e bb 96 27 ed 3d 3b 67 c6 3d b0 cb 11 be
       -0.0021794692 0.11579816 0.096876584 -0.14237857
0002a0 5a 36 b9 bd b0 5e 3b 3e 3b 4b f5 3c 8a 4e 0f bd
       -0.0904357 0.18297839 0.0299431 -0.03498701
0002b0 c9 4c 1b 3d f2 cc 22 3c 8d fe 52 3d c2 64 16 be
       0.037915025 0.009936558 0.05151229 -0.14686874
0002c0 79 c0 59 3c 9d 25 17 3d 80 e2 49 bd 16 5b bd bd
       0.013290518 0.036901105 -0.049288273 -0.09245889
0002d0 e2 a8 0d 3e ca 66 6c 3d 76 24 0a 3d e9 b4 1d be
       0.13833955 0.057715215 0.033726178 -0.15401043
0002e0 45 1a c6 3b 99 2c 0a 3e ce 57 fb bc 26 7a 4c 3d
       0.006045612 0.13493575 -0.030681517 0.049921177
0002f0 f9 6f b4 3d a0 25 a1 3d ae e7 c9 3d 96 c9 96 bd
       0.088104196 0.078685045 0.098586425 -0.07362668
000300 3e be 53 3d ee db d6 3c aa 01 ce 3d 96 68 a3 3d
       0.0516951 0.026227918 0.10058911 0.079789326
000310 82 ef 2c 3d e6 7e 5f bd 4c 36 26 b9 5a 5f 57 bd
       0.0422206 -0.05456438 -0.00015851221 -0.05258117
000320 29 08 8f bd c5 26 50 3d 49 65 fa 3c 6b 62 80 3d
       -0.06983978 0.050818224 0.030565875 0.06268772
000330 fa e8 96 3d ea 06 ad bd 35 07 ed ba f6 a8 ce 3d
       0.073686555 -0.084485844 -0.0018083813 0.100908205
000340 88 e6 a3 3d dd 6e 8b bd f3 0f 14 bd 53 29 3f 3d
       0.08002955 -0.06808255 -0.036148023 0.04667027
000350 f0 8b d3 3c 4d 13 9f bd 43 19 5f bd 93 16 20 be
       0.025823563 -0.07767353 -0.05446745 -0.15633611
000360 b4 d1 28 bc a9 22 29 bd 5c 65 4f be e5 a8 23 3d
       -0.010303903 -0.04129282 -0.2025351 0.039955992
000370 e4 91 f6 bc d4 e7 97 bd 67 c9 e1 3b 09 db c2 3d
       -0.030098863 -0.074172646 0.006890464 0.09514434
000380 56 3b 52 bd c2 e8 29 3d 4f b5 83 bd bf 09 df 3d
       -0.05132612 0.04148174 -0.06431066 0.10890531
000390 bb e0 77 bd 53 ac 16 3e 12 d9 cc bd 0d c4 b7 3c
       -0.060517054 0.14714174 -0.100023404 0.022432351
0003a0 69 03 ac bd 49 13 45 3d b0 6f e7 3b fe 4e 91 3c
       -0.08399088 0.048114095 0.0070628747 0.017737862
0003b0 0d 12 82 3c f1 3e e1 bc f3 1b 82 bd d1 23 24 bd
       0.015877748 -0.027495833 -0.06352987 -0.04007322
0003c0 a5 eb 9b 39 06 7e 98 bd 27 94 f8 bc 19 9e bd 3d
       0.00029739473 -0.07445912 -0.030344082 0.0925867
0003d0 82 02 e8 3d a8 c3 05 bb 42 77 a2 bd dd 91 bf 3d
       0.11328603 -0.002041081 -0.07932903 0.09353993
0003e0 fc a9 07 3e 02 58 07 3d 3e 6c 84 bd 63 52 ae 3d
       0.13248438 0.033042915 -0.06465958 0.08511808
0003f0 38 cf 94 3d 18 d1 33 bd d4 79 45 3d ac 86 8b 3d
       0.07266086 -0.04390058 0.048211887 0.06812796

network_body.linear_encoder.seq_layers.2.bias f4 [256]
000000 bb 68 3d 3c 55 7a 01 bc 49 ac cd 3c ca e0 22 3b
       0.011560614 -0.007902701 0.025106566 0.0024853223
000010 5a 83 b2 bb 8d 9d ee 3a 5d 17 88 3c 27 c2 85 3c
       -0.005447787 0.0018204913 0.016612703 0.01632793
000020 80 ed ba 3b 0d 27 11 3b ac d2 7c 3c 01 e3 2d bd
       0.0057045817 0.002214852 0.015431087 -0.042452816
000030 ea 16 03 3c 46 d5 32 3c 72 e1 1c 3b 3e f6 27 bc
       0.008001069 0.010915106 0.0023938087 -0.01025158
000040 23 51 85 3c 89 5a 62 bc a0 30 c4 3c 5d 93 f1 3b
       0.01627404 -0.013815531 0.023948967 0.0073723034
000050 2d f8 86 3c 86 97 f9 bc e9 3b 73 bd 74 18 4c 3c
       0.016475761 -0.03046776 -0.059383307 0.012457002
000060 05 51 9f 3b f5 6a d9 3b 61 cb 86 3c 81 d7 bd 3a
       0.004861953 0.0066350647 0.0164544 0.0014483781
000070 cc 4d e8 3b 26 1d ce ba 31 df 09 3d 62 ba fe ba
       0.0070893522 -0.001572524 0.033660118 -0.0019434209
000080 ec c1 56 ba 08 5b 8c 3b 3f 92 43 b9 a0 fc a3 3a
       -0.0008192349 0.0042833127 -0.0001865113 0.0012511201
000090 3b 40 78 bc 06 33 c6 bb 2e 12 5b 3b e2 79 14 3c
       -0.0151520325 -0.006048563 0.0033427584 0.009062262
0000a0 53 84 12 bc 63 38 83 3c f3 0c 69 3b e9 47 b0 3c
       -0.008942681 0.016018098 0.0035560697 0.021518664
0000b0 f7 c6 b0 bb 0c 31 b0 3a 4e 88 04 bb 3e 5c 24 3c
       -0.005394812 0.0013442351 -0.0020222845 0.010031758
0000c0 56 4b 99 bb af a9 fe 3b a5 fc f0 3b ed 9d c9 bc
       -0.00467817 0.0077716927 0.0073543363 -0.024611438
0000d0 7e 09 4c 3c 40 de ae bb 4a d2 8d 3b 09 b7 79 3c
       0.012453435 -0.005336553 0.004328047 0.015241393
0000e0 ff 6a 15 3c 3b 9b 1f ba 9b 12 14 3a 08 46 bf 3b
       0.009119748 -0.00060885 0.00056485244 0.005837206
0000f0 ba 1e c3 ba 56 59 91 bc 0b 7a ec 3b 46 43 48 3b
       -0.0014886477 -0.017742794 0.007216697 0.0030557676
000100 8e 47 ae 3c 98 a2 56 3c a2 70 87 3c 54 ce cc 3a
       0.021274354 0.013100289 0.0165332 0.0015625455
000110 cb 17 ef 3c dc 56 5b 3c 82 a8 da 3c 11 d5 f3 bb
       0.02918615 0.013387408 0.026691679 -0.007441171
000120 c0 96 c3 3a fc be 4a 3c af 04 84 3b 52 14 96 3c
       0.0014922246 0.012374636 0.0040288786 0.018320236
000130 bd bd d5 bc 97 db 34 bd e3 c1 0a bc a8 82 65 3c
       -0.02609145 -0.04415473 -0.008469078 0.014008202
000140 3a 52 3e bc 73 80 a2 3c 7c de 0a bc 7a 36 d9 3c
       -0.011616284 0.01983664 -0.008475896 0.026515234
000150 e4 3c 27 3c 4d 38 e2 3b b0 69 95 3b 56 28 91 3c
       0.010207389 0.006903684 0.004559718 0.017719429
000160 73 c6 0b 3c 3c 96 9a 3b 92 35 31 3c 54 81 0f 3c
       0.008531201 0.0047176164 0.010815995 0.008758862
000170 06 ce 3c 3c 61 7d 00 bc 91 c8 9f bb a1 93 00 3c
       0.011523729 -0.007842393 -0.0048762043 0.0078476975
000180 e7 6f ad 3b 39 23 ca bb 3a 20 6e ba e8 b1 f0 3b
       0.005292881 -0.0061687496 -0.00090837816 0.007345427
000190 bf 06 9f bc 3e 8e 48 3c 08 df 37 3c 49 25 06 bc
       -0.019412396 0.012240944 0.011222608 -0.0081876
0001a0 a0 34 22 bc 62 a0 17 bc dd 44 d9 bb f7 d3 72 bb
       -0.009900242 -0.009254547 -0.0066305236 -0.003705261
0001b0 3c 10 2a 3c 6a 4d 2b 3c 36 d0 58 bc 8f 99 0b 3b
       0.010379847 0.010455469 -0.013233235 0.0021301245
0001c0 13 1c 96 3c a0 8a 94 bb 48 6c 30 bb d8 73 84 3c
       0.018323934 -0.004533127 -0.002692001 0.01616852
0001d0 b4 aa b8 ba 69 e6 5a bc 5e f3 c4 3b cf 32 d4 3b
       -0.001408896 -0.013360598 0.006010457 0.0064757834
0001e0 7c 44 d1 3a 6c 61 77 3c e6 84 55 3c ae ae 23 3c
       0.0015965845 0.015098911 0.013032174 0.009990377
0001f0 a0 1a 86 3b a8 92 b1 3b 18 bb 6d bc 0b 73 04 3c
       0.0040925294 0.005419094 -0.014509939 0.008084069
000200 63 04 11 3c e6 5e 4d 3c a6 b4 55 bb 61 23 69 3c
       0.0088511435 0.012534833 -0.0032608896 0.014229626
000210 5e 63 0b 3c ae 36 2d 3c e8 aa c4 3b f6 7a 27 3c
       0.008507578 0.010572119 0.006001819 0.010222187
000220 75 15 73 3c 77 d3 b8 3b 02 69 85 3c b9 1d 85 ba
       0.014836659 0.005640443 0.016285423 -0.0010155953
000230 e5 2d 03 bd d3 b2 e4 3b 37 92 c1 3c 4b ce dc 3c
       -0.03202619 0.0069793253 0.023629291 0.026953837
000240 88 e2 09 bc c4 52 c5 39 36 f4 a1 bb 26 c2 37 bd
       -0.008415826 0.00037636433 -0.0049424423 -0.04486289
000250 f3 66 0e 3c 30 94 60 3c 24 03 03 ba 1c 46 0b 3c
       0.008691537 0.013707206 -0.00049977214 0.008500602
000260 71 ee ae 3b 1e 0d 94 ba 21 ed 7e 3b 73 1b 9f 3c
       0.005338483 -0.0011295413 0.0038898664 0.019422268
000270 70 ca 11 bd 7d d8 f1 3a 72 d2 4c 3b 11 2c 76 3c
       -0.03559345 0.0018451359 0.0031253365 0.015025155
000280 d4 0f 01 bc 13 19 0f 3b bc b1 10 bc 45 18 e3 3b
       -0.007877309 0.0021835014 -0.008831438 0.0069303834
000290 dc a9 e9 3b 83 10 c0 bb 3d 34 d3 39 49 81 b1 3c
       0.0071308445 -0.0058613434 0.00040283977 0.021668093
0002a0 5b af 3b bc 2a 28 22 bc 92 b0 8a 3b 9e 89 d1 3b
       -0.011455382 -0.009897271 0.0042324746 0.006394579
0002b0 92 c3 10 3c b5 c1 e0 3b e3 7b a6 bb da 48 f6 3c
       0.00883569 0.006859029 -0.0050806864 0.030064035
0002c0 63 1f df bb ce f9 23 3c 30 73 5d bb f7 51 a6 bb
       -0.0068091615 0.010008289 -0.003379058 -0.005075689
0002d0 92 ca 7c 3c 79 8a b1 3b b8 b5 36 bc 13 cb e3 3b
       0.015429156 0.0054181186 -0.011151724 0.0069516986
0002e0 fa 32 e8 bb 76 ab 7e 3c 1a 47 8e 3c 3a 36 9b 3c
       -0.007086155 0.015543809 0.017367888 0.018946756
0002f0 a2 bc 9f 3c 82 be b1 3a 4b 6b 8b 3c 63 f7 bb bc
       0.019499127 0.0013560804 0.017018935 -0.022945112
000300 71 cf 10 3c 86 1c e2 3b 72 ec 1a bd b9 f5 d3 3c
       0.00883852 0.006900373 -0.037823148 0.025874006
000310 e7 26 41 3c d8 7e 26 bd 5a 2a 90 3c 20 61 38 3c
       0.01178906 -0.04064831 0.01759832 0.011253625
000320 f5 aa d4 bb 49 98 07 3a 0d 4b 23 bb 32 7d 48 3c
       -0.006490106 0.00051725336 -0.002491656 0.01223688
000330 ab 60 9e 39 d4 0c f7 3a 6c d0 8c 3c 2f 72 cd 3a
       0.00030208132 0.0018848428 0.017189227 0.0015674288
000340 90 76 d4 3c e5 26 1c bb 03 86 fc 3b 6f ce 3a b9
       0.025935441 -0.0023826894 0.007706405 -0.00017815245
000350 f3 9b 8f 3a 2e c9 5a 3b 0c a7 09 3c 3b 93 6c 3c
       0.0010956511 0.0033384073 0.0084016435 0.014439399
000360 99 3c fb ba b8 ef c1 3c c8 70 35 bd f0 1a 2a ba
       -0.001916784 0.023673877 -0.04429701 -0.00064889994
000370 1a d4 0a 3c 6c 79 e8 3b ca 69 f6 3c ee f4 86 3c
       0.0084734205 0.0070945527 0.030079741 0.016474213
000380 93 af 91 3c 58 59 c1 3b e5 ef 62 3c 51 1b 0c 3c
       0.017783916 0.005900543 0.013851141 0.008551435
000390 26 64 f5 3c 2e a0 61 bc 66 2a 7b 3a ec 9f 47 3c
       0.029954981 -0.0137711 0.0009581208 0.012184124
0003a0 02 19 1b 3c 3c db 2d 3c ec 36 2a 3c 2e 31 64 3c
       0.009466412 0.010611352 0.010389071 0.013927741
0003b0 08 6f 3a 3c c2 2f 84 bd 5c 22 66 3c c7 f3 11 bc
       0.011379011 -0.064544216 0.014046278 -0.008908219
0003c0 e5 eb e6 3b 69 8e 3f 3c ad 0e 76 bc a1 88 dd 3b
       0.007047164 0.011691668 -0.015018147 0.006760672
0003d0 5a 97 97 3c be 50 28 b9 cc 12 a3 3a 67 1a 01 bd
       0.018504787 -0.00016051807 0.0012441515 -0.03151932
0003e0 ba 70 07 bb 43 72 ce 3b e1 15 fa 3c 5b 4e 40 3c
       -0.0020666556 0.006300242 0.03052801 0.011737431
0003f0 17 71 0d 3c 32 a7 25 bd 8f 88 2d 3c 21 c0 93 3c
       0.00863292 -0.040442653 0.01059164 0.01803595

network_body.linear_encoder.seq_layers.2.weight f4 [256, 256]
000000 76 2c a4 3c 44 b4 49 bd 69 9e 95 bd 4f 23 7d bb
       0.020040732 -0.04924418 -0.07305605 -0.0038625782
000010 f9 ae 97 bd a8 c1 07 bd 4f 4e 1e bd 63 c1 a9 3d
       -0.0740642 -0.03314367 -0.0386489 0.08288839
000020 0f 3a 84 3d 75 eb 2f bb 43 49 c1 bc 7e 86 5f 3d
       0.06456386 -0.0026843224 -0.023594504 0.05457162
000030 98 7e 63 3c ce 39 00 be 26 44 c3 bc d5 7e 6d bd
       0.013885163 -0.1252205 -0.023836207 -0.057982285
000040 3e af 9b 3c ed 49 09 3d 30 82 5a 3d 42 56 13 3d
       0.01900446 0.033517767 0.053346813 0.035970934
000050 a3 06 19 3c aa d9 21 be 45 a6 5b bd f0 9b 2d 3c
       0.009339961 -0.15805689 -0.053625364 0.01059626
000060 e7 4e e2 bc 29 ce 8b 3c 8e 6b ba 3d 37 79 82 3d
       -0.027625514 0.017066078 0.09102546 0.06370776
000070 56 17 27 be 27 e4 ed 3c 59 3a 9f bd bf 56 16 bb
       -0.16317496 0.029039456 -0.07774801 -0.0022939888
000080 5b 8f 00 bd 58 b2 80 bb 8c 31 7d 3c b0 38 45 3c
       -0.031386714 -0.00392751 0.015453707 0.012037441
000090 63 f1 a8 bd d7 35 08 be d6 55 8d bd 28 f9 9c bd
       -0.08249166 -0.13301788 -0.069011375 -0.0766471
0000a0 5b d1 96 bc b2 41 d3 bc 6d 12 38 be 96 c9 ad bd
       -0.018410375 -0.025788162 -0.17975779 -0.08485715
0000b0 d9 6d 9a bd 2a 50 f6 3c 24 c1 b1 bd 9d 2f 0b bd
       -0.07540483 0.030067522 -0.08679417 -0.033980954
0000c0 8e a2 55 3c e5 76 95 bd 10 19 54 bc 83 8e db 3d
       0.013039244 -0.07298068 -0.0129454285 0.10720541
0000d0 61 51 e0 bd 73 f4 13 be 6a 93 01 be d0 cf d9 bc
       -0.10953022 -0.14448719 -0.1265389 -0.02658835
0000e0 43 07 b0 bc 1b 50 3d 3c 6f f6 89 ba de 89 56 3d
       -0.021487838 0.011554743 -0.0010525713 0.052377574
0000f0 fb ca 0c bd 31 e9 1e 3d 10 d9 84 bc e0 67 c8 3d
       -0.034373265 0.038796607 -0.016216785 0.097854376
000100 bf a2 be 3d e2 d9 2a be 1e 42 08 3d 24 38 fb bd
       0.09308385 -0.16684678 0.03326618 -0.12266567
000110 38 64 8b 3d 8d b9 cb bd 1a ec aa bd e3 d8 11 3e
       0.068062246 -0.099475004 -0.08345814 0.14242892
000120 43 86 c8 3d af c9 86 bc 01 89 a1 bd df 4f 37 bc
       0.097912334 -0.016453592 -0.078874595 -0.011188476
000130 51 03 a6 bd 14 9e 12 3e cb 10 15 3d 5f a8 3b bd
       -0.08106101 0.14318115 0.03639297 -0.045814868
000140 df 69 97 bd 44 d9 80 3d 12 ab 57 3c 8c b9 10 bd
       -0.0739324 0.0629144 0.013163345 -0.0353332
000150 e3 fc d1 bd 26 6c 36 3d 5e ea 8d bc 30 06 73 3d
       -0.102533124 0.044536732 -0.017323669 0.059332073
000160 7b bf 2a 3e bb 6d eb bc 36 8d 48 3d f3 29 8a 3d
       0.16674607 -0.028738847 0.048962794 0.067462824
000170 e6 72 85 bc e8 ed 03 3d 61 05 c0 bc 1e 2d 82 3d
       -0.01629014 0.032209307 -0.023440065 0.06356262
000180 38 83 67 3c ee 2a 9c bb 39 8f 8f bd 64 14 b1 3c
       0.014130406 -0.00476586 -0.070097394 0.021616168
000190 9a d8 44 3d 35 17 bc bb 49 99 01 bd 92 12 c1 3c
       0.04805813 -0.005740071 -0.031640325 0.023568425
0001a0 b0 0b 08 bd d7 62 be bc f9 2c 80 bd 24 7d 7e bd
       -0.03321427 -0.02324049 -0.06258578 -0.062131062
0001b0 14 38 17 3d 66 76 1d 3d b7 68 40 bd c8 3f 81 3b
       0.036918715 0.03844299 -0.046974864 0.003944371
0001c0 07 be 83 bd 71 80 eb bd 96 41 b1 3d cc 22 63 bd
       -0.06432729 -0.11499108 0.08655088 -0.055453107
0001d0 00 c5 9e bd 92 81 7d bd c3 12 d5 3d 3d 2d d4 3c
       -0.077524185 -0.061891146 0.10403969 0.025900478
0001e0 98 08 9b 3c 8d e4 e5 3c 04 69 41 bd 8b 2a 07 3d
       0.018924996 0.028063083 -0.04721929 0.032999557
0001f0 20 1a da 3d 97 7a 0f 3d b9 14 a2 bd 17 af 43 3c
       0.10649514 0.03502902 -0.07914109 0.0119436
000200 7d 87 4d bc b0 e2 d8 3c ea e9 8f 3d 14 20 bb bc
       -0.01254451 0.02647528 0.070270374 -0.022842444
000210 84 f9 7d 3c 02 2d 12 3d 53 b4 0d 3d e6 96 fc bd
       0.015501384 0.035687454 0.0345958 -0.12333469
000220 89 f5 af bd ec 39 c1 bc 1f 70 74 bd fc a9 22 bd
       -0.08591754 -0.02358719 -0.05967724 -0.03971289
000230 f2 59 3e bd 2a ce b8 bd 0d 44 43 bc 3c 1c e8 bd
       -0.046472497 -0.09023698 -0.01191808 -0.1133351
000240 99 88 30 be 5d 98 ef bc 6d 34 c2 bb 8a fe fd 3c
       -0.17239608 -0.029247457 -0.00592666 0.031005163
000250 c2 90 75 3c bb 22 9a bc ca 0e 9f bd 25 83 c9 bd
       0.014988126 -0.018815389 -0.07766493 -0.09839467
000260 b8 be ee 3c 4b c3 7c 3d c4 18 96 3d 04 6e 19 bd
       0.029143676 0.061709683 0.073289424 -0.037458435
000270 65 03 b1 bc 63 46 e1 3d a5 43 d3 3d 74 20 22 bd
       -0.021608064 0.10999753 0.103156365 -0.03958173
000280 13 6e 5d bc c0 44 11 be cd 75 87 bd 57 13 68 bd
       -0.013515013 -0.14186382 -0.066142656 -0.05665907
000290 95 b9 60 bd 9f 06 d7 3c 69 87 eb bc 26 2f de bd
       -0.054864485 0.026248274 -0.028751092 -0.108488366
0002a0 7f c0 fc ba 37 a0 ab bc 94 0c 3d 3d c6 06 b5 3d
       -0.0019283443 -0.02095042 0.046154574 0.088391826
0002b0 09 76 4f 3d cd be b7 3c c3 45 06 bd d6 a4 06 3e
       0.050649676 0.022429848 -0.032781374 0.13148817
0002c0 20 1c a0 bb b8 83 d2 3d 7f cb 64 bd a4 b2 56 bd
       -0.0048861653 0.102790296 -0.05585813 -0.05241646
0002d0 b6 54 8a bd 26 df eb 3c 0a 80 08 3d c8 7a c1 bd
       -0.067544386 0.028792929 0.033325233 -0.09447247
0002e0 af b3 ae 3d a8 0d 58 bd 19 c2 9a 3c 44 d2 3e 3d
       0.08530366 -0.0527474 0.018891381 0.046587244
0002f0 61 e3 c6 3d 89 c8 d0 3d 80 47 bd 3d d6 eb c3 bc
       0.09711338 0.10194499 0.09242153 -0.023916166
000300 27 a2 19 3c b3 84 5e bd ab 16 33 bc f2 68 bd 3c
       0.009377039 -0.05432577 -0.010930697 0.02312133
000310 44 2c 92 bd e3 f5 0f be 06 50 54 bc f5 b6 97 3a
       -0.07137349 -0.14058642 -0.012958532 0.0011574911
000320 68 eb 19 bd 70 f7 c5 3d 0b 7e ca bc 9c b8 23 bd
       -0.037578017 0.096663356 -0.024718305 -0.03997098
000330 12 e3 9a bb 90 76 aa bc a0 ba 6a 3c dd 1f 7d bd
       -0.004726776 -0.020808488 0.014326721 -0.061797965
000340 f5 cb 78 bd 05 3b 09 3d 7e b4 8e bc b1 b3 16 3c
       -0.060741384 0.03350355 -0.01742005 0.009198115
000350 b1 d8 81 bd 00 10 06 bc 0a ea 84 bb a4 2c 90 3d
       -0.06340159 -0.008182526 -0.00405622 0.070397645
000360 ba 6f ae bd c2 4d 19 3d 25 c5 4d 3b 71 14 d2 bc
       -0.08517404 0.03742767 0.0031398025 -0.025644513
000370 d3 1d fe 3d 83 90 bc 3a f9 90 39 bc 48 2e 2f bd
       0.12408032 0.001438633 -0.011326068 -0.042768747
000380 41 72 0b bc 35 90 01 bc a0 e8 55 3d 7a a9 27 bc
       -0.008511127 -0.007907917 0.0522238 -0.010233277
000390 7c fa cf bd ac f3 64 3d 77 f8 64 bc 13 5b 10 3e
       -0.10155198 0.055896446 -0.013975254 0.14097242
0003a0 92 00 fc 3c 97 2a 0b 3d 67 ce 28 3d e8 4d 82 3c
       0.03076199 0.033976164 0.041212466 0.01590629
0003b0 07 ed a3 3d 83 58 84 bd 9d d3 36 be 17 23 d2 bc
       0.08004194 -0.06462195 -0.17854162 -0.025651498
0003c0 a6 26 23 bc 7c b5 db bd e5 7e f4 3c 01 b7 36 bd
       -0.009957945 -0.10727975 0.029845664 -0.04460812
0003d0 92 97 5d 3c 1b 20 35 3d 43 a1 d7 bd 19 ae a8 bd
       0.013524907 0.04422007 -0.10528805 -0.082363315
0003e0 fc 76 a8 bc 81 53 ab 3d 57 b7 bd bc 00 d9 6a 3d
       -0.020564549 0.083655365 -0.023158712 0.057335854
0003f0 ea 98 20 bd 14 a2 89 bc 55 40 86 bd cb 2d fc 3d
       -0.03920833 -0.016800918 -0.06555239 0.12313422
