Assets/Models/Bomberman.onnx (onnx, 478548 bytes, 6 tensors)

action_model._discrete_distribution.branches.0.bias f4 [6]
000000 9a 0b b4 bc ea d9 7e bc 93 30 93 3c 01 10 e6 bc
       -0.021978188 -0.015554884 0.017967498 -0.028083803
000010 91 9a 91 3c ef 22 b8 3c
       0.017773898 0.022477595

action_model._discrete_distribution.branches.0.weight f4 [6, 256]
000000 42 73 3d bd b8 68 c8 bb 6b 5e 8f 3c d6 4c 69 bb
       -0.046252497 -0.006115999 0.017501077 -0.0035598776
000010 a9 af 15 3b 5f e9 1a bd 15 42 38 b9 dd 03 f6 3c
       0.0022840297 -0.037820216 -0.00017572225 0.030031139
000020 bc 20 ab 3c a0 85 0a 3d 7e d5 32 3c 22 96 4b bc
       0.020889632 0.03381884 0.010915158 -0.012425931
000030 fe 5d 23 3d d6 27 8c 3b 7d c8 e4 3c ea 68 16 bd
       0.03988456 0.0042772098 0.027927632 -0.036721148
000040 b0 6f 1d 3c de 61 a7 bc ad fa 38 bd 1d 58 3d 3d
       0.009609148 -0.020432409 -0.045160938 0.04622661
000050 63 f2 fb 3c 12 89 ed 3c d7 ed e6 3b dc 35 46 bc
       0.030755227 0.028996024 0.0070473957 -0.012097802
000060 68 25 fa bc 7d 5a aa 3c b3 7b 27 3d bc f1 77 3c
       -0.030535415 0.020795101 0.040889453 0.015133318
000070 f4 7f 9e 3c fb 44 59 bd 4c fb 24 bd 6d e5 8c 3b
       0.019348122 -0.0530443 -0.040278718 0.0042998106
000080 b8 95 0a bc 22 62 70 3b e9 35 39 3d ed 5f 1f 3d
       -0.008458547 0.0036679585 0.04521743 0.03890984
000090 7d 6e 8a 3c 91 a5 6c bc af 5a 9d 3c ad 0c da 3d
       0.016898388 -0.014443771 0.01920828 0.10646949
0000a0 4e ed ca bc 5d 5b d2 3b 8d d2 85 bc bb bb 05 bc
       -0.024771359 0.0064195828 -0.01633575 -0.008162434
0000b0 61 99 03 3d 35 e0 ad ba dc 78 19 3c 3e ba 03 bb
       0.032128695 -0.0013265671 0.009367194 -0.0020100023
0000c0 7f 13 af 3d 4d d0 23 3d 54 c8 0f 3d ce 09 46 bc
       0.085486405 0.039993573 0.035103157 -0.012087299
0000d0 33 e3 f5 bc 6f 3c 40 3d 67 5a 4b 3b 19 2c c0 bc
       -0.030015564 0.046932634 0.0031029226 -0.023458527
0000e0 15 61 9e bc 77 ec c0 3b d7 ef af 3b 2f 17 b8 bb
       -0.019333402 0.005887564 0.0053691673 -0.005617998
0000f0 d7 d4 b2 bd de 1d 85 bd af ee 77 bc 28 b6 14 bd
       -0.08732002 -0.06499837 -0.01513259 -0.03630653
000100 63 6d 4b 3d 34 d3 e5 3c 2e b1 1b bc 16 6f 6a bd
       0.049664866 0.028054811 -0.009502692 -0.057234846
000110 2b e8 9f bc 38 71 56 bd 54 c9 ed 3b c3 4c 02 3d
       -0.019519886 -0.052354068 0.007256666 0.031811487
000120 b7 ad 22 3d 75 45 41 3d 2d 58 2c 3d 04 8e 87 3b
       0.03971645 0.04718538 0.04207628 0.0041368026
000130 92 bf e9 b8 33 c7 68 bd 4b 03 50 3c 02 67 b1 3c
       -0.000111459885 -0.056830596 0.012696098 0.021655563
000140 cd 24 13 3c 17 76 9a bb 7b d6 6d bc 9f b9 fe bc
       0.008980942 -0.0047137844 -0.014516468 -0.03109437
000150 07 bf 37 bd 33 d6 73 bc 73 c5 8c 3d cb 41 40 3d
       -0.044859912 -0.014882612 0.06873598 0.046937745
000160 5d eb 70 3c 98 fa 3e 3d 15 13 87 39 33 cd 7b 3c
       0.0147045525 0.046625704 0.00025763424 0.0153687475
000170 4e 17 26 bd 8b cf df 3c e5 75 51 3d c6 5b 4a bd
       -0.04054957 0.027320644 0.051137824 -0.04940393
000180 00 d3 bd 3d 6b c3 48 3d ea 52 06 3d 97 2d 0d bc
       0.09268761 0.04901449 0.032793917 -0.0086168265
000190 7b ce b6 3b aa 13 c3 3b a7 59 03 3d ff 00 f5 bc
       0.0055788136 0.005953272 0.03206792 -0.029907702
0001a0 fc 90 28 bc 7c c2 82 3c b7 b3 2d 3d a0 32 a9 3c
       -0.010288473 0.015961878 0.042407718 0.020654023
0001b0 61 c4 25 3d 3d e3 5c bd d1 ee 98 3d 2d c4 11 3b
       0.040470485 -0.05392765 0.074674256 0.0022242174
0001c0 89 21 9e bd 89 25 ad 3d 54 dc 03 3c b3 dd 22 bd
       -0.0772124 0.08454425 0.008048136 -0.03976221
0001d0 42 20 f6 b9 9b fa 18 3d e0 92 43 3c 2b fe ef bc
       -0.0004694481 0.03734837 0.011936873 -0.029296001
0001e0 43 1e 7f bd 0c 78 03 bd f1 35 33 bd c5 04 0e 3d
       -0.06228472 -0.032096907 -0.043752614 0.034672517
0001f0 52 98 09 3d eb 86 85 bd 0e 32 31 bc ce 21 b9 bb
       0.03359253 -0.06519874 -0.010815157 -0.005649782
000200 58 88 0f 3d ed 6d 85 bd 2a da c1 3b f0 80 57 bd
       0.035042137 -0.06515107 0.0059158998 -0.0526132
000210 1c 36 c2 bc 72 a2 07 bd 62 c9 35 3c 15 13 62 bd
       -0.023707442 -0.033113904 0.011095377 -0.05519398
000220 a7 5e c7 39 74 a2 68 bb db 8a f3 3c a4 ed ab 3c
       0.0003802676 -0.003549722 0.029729297 0.02098734
000230 93 c1 65 bd 66 6c f9 bb e7 d1 1f bc ad 62 21 3d
       -0.05609281 -0.007611799 -0.009754634 0.039400745
000240 0c 23 01 3c 16 35 52 3d 0b 4f 3b bb aa cc b3 bc
       0.007881891 0.051320158 -0.0028581049 -0.021948177
000250 3c 80 b8 bd f3 b6 a7 3d 8c 65 5b bd d6 33 d7 39
       -0.09008834 0.08189192 -0.05356364 0.00041046616
000260 ab fa 0a bd cc a7 07 bd 90 0c 8f 3c 65 e7 d1 bd
       -0.03393046 -0.033119008 0.017462045 -0.10249213
000270 af 8c 23 bd 89 ba 2c 3b bb 0b 18 3d 89 2d 8a 3d
       -0.03992909 0.00263563 0.037120562 0.067469664
000280 b0 1e f3 bc 38 7c 32 bd 58 48 86 bd 32 e5 ae 3b
       -0.029677719 -0.043575495 -0.06556767 0.005337381
000290 fd ce b2 bd d4 33 3a 3d d9 8a 3f 3d c7 d8 3c 3c
       -0.08730886 0.045459583 0.046763275 0.011526293
0002a0 c6 fb 82 3c 34 a2 b0 3c 5b 9e b2 3d f0 f9 c7 bd
       0.015989196 0.02156172 0.0872161 -0.09764469
0002b0 16 0c e7 ba f8 70 43 3b 26 dc 8f bc 10 3d 03 bc
       -0.0017627503 0.0029821973 -0.01756103 -0.008010164
0002c0 af ec ad bc d3 53 b3 3b bc ee 18 bc 26 ff 82 3c
       -0.021231024 0.005472639 -0.009334262 0.015990805
0002d0 b1 40 01 3c 9a 20 93 3a a0 e6 4c 3d b7 5b 97 bd
       0.007888959 0.0011224926 0.05002463 -0.0739054
0002e0 3a e6 e0 bc d8 7f b6 3c f3 65 b3 bc 9d a1 a4 bc
       -0.02745353 0.022277758 -0.0218992 -0.020096594
0002f0 cf e9 59 bd 83 4c 0d 3d 7f 85 06 3c 4e fe 3a bd
       -0.053201493 0.034496795 0.008210539 -0.04565268
000300 4c 2d cb 3c 1a 31 49 3d 95 b9 b2 bc 73 3a 03 3d
       0.024801873 0.049119093 -0.021817008 0.032038163
000310 80 a1 16 3c 2b a5 a2 bd ab ef fb 3b f7 91 6f bb
       0.009193778 -0.079416595 0.0076884828 -0.0036555508
000320 66 5c 18 3d 15 5b e8 3c bb 1e 07 bd 24 34 94 3c
       0.037197493 0.028363744 -0.03298829 0.018091269
000330 ae e4 3b bc 9a 85 9b bd 8d 86 6f bd 03 6e 7f bb
       -0.011468096 -0.07593842 -0.058477927 -0.0038975484
000340 02 08 96 3c f3 a2 d3 3c bf 89 93 3d 4e 9a c3 bc
       0.018314365 0.025834536 0.07204007 -0.02387729
000350 44 80 7f 3c 15 50 1e bb c7 49 55 bd de 80 72 bc
       0.015594546 -0.002415662 -0.052072313 -0.014801232
000360 f7 e0 29 bc 54 a1 14 3a 7d 5e a5 bc fa 6c d5 3a
       -0.010368577 0.0005669792 -0.020186657 0.0016283088
000370 a1 b1 81 bd c5 8d eb 3b a1 51 66 3c 5b 88 bf bc
       -0.06332708 0.007188531 0.014057548 -0.023380449
000380 18 a8 a3 3d d3 b9 b4 3d 35 5b 33 bc cd 72 c7 3a
       0.07991046 0.08824506 -0.010947038 0.0015216708
000390 7f 3d 90 3c 2a 48 41 b9 8b 66 00 bc 45 e3 32 3c
       0.017607449 -0.00018432798 -0.007836948 0.010918443
0003a0 ee f7 9b 3d 10 55 f7 bc 94 4e 65 3d b6 ab 84 bc
       0.07615648 -0.030191928 0.05598314 -0.01619516
0003b0 8a a1 14 3d a7 17 13 bd 1f e4 cc 3c 60 fd 8b 3c
       0.03628687 -0.03591123 0.02501112 0.017088592
0003c0 fa 11 ab bc 65 1a f3 bc 29 19 19 3d 3c 22 bc 3c
       -0.020882595 -0.029675672 0.03737751 0.022965543
0003d0 4f 0e 31 3d 7e ce 0d bd 54 9c 10 bd db 47 10 bd
       0.043226536 -0.034620754 -0.035305336 -0.035224777
0003e0 e7 22 29 3d fb fc ce bc 73 cb 65 bc bd 39 0f bc
       0.04129305 -0.025267115 -0.014025557 -0.008741793
0003f0 af c6 02 3d 05 6d 38 3d 96 5b 82 3c b8 ad 5a 3d
       0.03192776 0.045025844 0.015912812 0.053388327

network_body.linear_encoder.seq_layers.0.bias f4 [256]
000000 e6 bd 1f 3d ff 8f 87 3c 20 36 e0 3c 47 8a 9b bb
       0.03899946 0.016548155 0.027369559 -0.0047467086
000010 c2 ab 71 3b 53 3e aa 3c 5c fb 43 bc b6 00 49 bc
       0.0036876057 0.020781672 -0.011961784 -0.012268236
000020 ed ca 81 3c f0 48 a2 3b a2 99 16 3d 0f 52 61 bc
       0.015843833 0.0049525425 0.03676761 -0.013752474
000030 3e e1 c3 bc 25 1e 7d bc fc 8e 19 bc a7 67 ce bc
       -0.023911115 -0.015449082 -0.009372469 -0.02519591
000040 29 67 f3 bc da 04 da 3c e3 69 77 bc d1 6f 6d bc
       -0.029712277 0.026613642 -0.015100929 -0.014491991
000050 66 39 16 bc 06 28 ed bb 0e 33 bf 3c ec 92 52 bc
       -0.009168958 -0.007237437 0.023339774 -0.012852412
000060 5d ac 1e 3d 3d c5 f5 bc 29 4e f4 bc 9c fa b9 3c
       0.038738597 -0.030001277 -0.029822426 0.022702508
000070 d9 ad 23 3b 0e d5 c5 3c 5f ff 83 bd bc 44 d2 3a
       0.0024975447 0.024149444 -0.064451925 0.0016042213
000080 25 7a 64 bc 13 52 32 3c 68 3b ac 3c 8c 43 85 3b
       -0.013945137 0.010883826 0.02102442 0.00406689
000090 6d 3f 7b 3a 63 d0 4d 3c 3b 62 cb 3c de 98 bb bc
       0.00095843413 0.01256189 0.024827113 -0.022900041
0000a0 8c c2 bf 3c e3 f3 ea bc 9e 0d 21 bc cc 88 42 3d
       0.023408197 -0.028680747 -0.009829907 0.04749374
0000b0 87 c7 10 bc d1 b8 12 3d 51 bd 16 bd ac b2 60 bb
       -0.0088366335 0.035820786 -0.03680164 -0.0034286184
0000c0 9d df 1a 3d eb 97 a6 b6 39 44 d9 bc d7 d6 f7 3b
       0.03781091 -4.964871e-06 -0.026521789 0.0075634527
0000d0 0b 4f 2d bc f9 b7 9a 3c 94 e1 38 bd ae 38 7f bc
       -0.010577927 0.018886553 -0.045137003 -0.015577478
0000e0 3e f0 eb 3b bf 3c 54 ba 35 1c 86 ba 3d b7 95 bc
       0.00720027 -0.000809621 -0.0010231795 -0.018275851
0000f0 65 e6 69 bb 9c a2 5e bb a0 c0 6b bc 5d 67 13 3b
       -0.0035690304 -0.0033971434 -0.014389187 0.002249203
000100 1e ac cb 3c be 40 bc 3c 3e 6a 8f bc 96 7f 64 3c
       0.024862345 0.02298009 -0.017506715 0.0139464345
000110 fe d7 e7 3b 0a 21 83 bb 9d f1 e7 3a 67 7e b2 bb
       0.007075309 -0.0040017413 0.0017695908 -0.0054471972
000120 90 a4 bb 3c 94 d3 9e ba 44 00 62 3c bb 0d 89 3b
       0.022905618 -0.0012117499 0.013794009 0.004182545
000130 e9 75 f7 bb f2 1a d7 3b da 40 a4 3c ca 5e 5f bc
       -0.007551898 0.0065644914 0.020050455 -0.013633439
000140 c3 ce 3f bb d2 c6 00 3d b3 ec 6d 3c 7f b6 3d 3d
       -0.0029267527 0.03143961 0.0145217655 0.04631662
000150 97 8a 47 bd df cf e9 3a 0b 58 df bc 18 d9 6c bc
       -0.048716154 0.001783844 -0.027263662 -0.014456056
000160 70 24 25 bb 28 1d ab 3c 92 48 27 3d 0d 36 c3 3c
       -0.002519872 0.020887926 0.040840693 0.023829484
000170 89 d1 2d 3a f6 6a 03 39 0d 6c 16 3c d2 0d 17 3c
       0.00066306494 0.0001253298 0.009181035 0.009219604
000180 1a da e5 ba ee 9c c0 3c 52 3d bf 3c 1e 54 14 bd
       -0.0017536313 0.02351233 0.02334467 -0.036213033
000190 2f c2 e2 3c 25 87 e5 bb 39 21 c9 3a 3a 91 b3 3c
       0.027680485 -0.007004636 0.0015344984 0.021919835
0001a0 a4 d5 4c bc 8c f8 09 bd 60 f9 0b 3d 5f 99 97 3c
       -0.012502108 -0.0336843 0.03417337 0.01850575
0001b0 3d 7d 3f bc bf ef b7 bb 09 f4 29 3b 87 57 48 bd
       -0.011687574 -0.0056132968 0.002593281 -0.048911598
0001c0 f1 2f d9 3b 1a a0 97 3c ba 42 56 bc dd 5d e3 3c
       0.0066280295 0.01850896 -0.013077432 0.027754718
0001d0 f9 23 51 bd 75 f3 41 bc fa 35 d1 3a 85 cd 2e ba
       -0.051059697 -0.01183783 0.0015961521 -0.0006668198
0001e0 9b f2 41 bc f0 0a e2 bc 86 cc f6 bc 8d 82 3c 3c
       -0.011837627 -0.027593106 -0.030126821 0.011505735
0001f0 5d a0 d0 bb 8a df 05 3c 9b 68 86 3c 8e e6 8a bc
       -0.006366773 0.008170972 0.016407302 -0.01695564
000200 37 75 8e 3b e7 7a f2 3b ee ef 8b 3a 8c 96 18 3c
       0.004347469 0.007399905 0.0010676363 0.009313237
000210 77 fb 5c bc 95 c8 03 bc 6f 1e ea 3b 6b 8f a5 3c
       -0.013487688 -0.008043428 0.0071447412 0.020209989
000220 16 d4 ed bb e8 02 9a bc bf 88 ee bc ca 3b 22 bd
       -0.0072579486 -0.018800214 -0.02911794 -0.0396078
000230 6a 2a 2e 3c 74 ec c4 3b 91 61 02 3d eb c4 8b bb
       0.0106302295 0.0060096327 0.031831328 -0.004265418
000240 87 65 57 3c 39 1b c8 3c 6a c3 16 bd 25 b3 1a 3a
       0.013146765 0.024427043 -0.036807455 0.00059013284
000250 02 17 b6 3c 4c e3 0e bd 6f b2 fb 3b ef 39 b6 b9
       0.022227768 -0.034884736 0.007681183 -0.0003475691
000260 63 8a 15 3c 30 d8 4d bc 7b e7 df bb 2b ca e3 3b
       0.009127232 -0.01256375 -0.0068330145 0.0069515905
000270 4f 00 d6 3c 33 0a 62 bc 4f 9a 0d bc 5b 0c 1d 3d
       0.026123194 -0.013796377 -0.008642747 0.03834186
000280 2a f2 24 3d 4a e9 b7 3c 9e 7c bc bc 23 5e ac 3c
       0.04027001 0.022450108 -0.02300864 0.021040982
000290 bf 90 77 bc a6 0b c4 3b ba be 0a 3d 82 ab 27 bc
       -0.015110194 0.005982834 0.033873297 -0.010233762
0002a0 7b 68 9e 3c c6 f6 2d bc 7d 5e 72 3c 1c 4b ac 3c
       0.01933693 -0.010617917 0.014793036 0.021031909
0002b0 f3 7b 1f 3c 0a 25 6f bd c2 a1 24 bb 93 db 3a bc
       0.009734142 -0.058384933 -0.002512083 -0.01140489
0002c0 63 9d 6a bc b2 7d f3 3b 84 74 cc bc dc 33 d8 bc
       -0.0143197505 0.0074307555 -0.024957903 -0.026391916
0002d0 80 50 b4 bc 7d bc 23 ba 20 e0 a8 bb fd 47 54 3c
       -0.022011042 -0.00062460435 -0.005153671 0.0129566165
0002e0 cc 52 1a bc 7a ae 9a bc 80 22 84 3c 14 d3 09 3d
       -0.009419154 -0.018882025 0.016129732 0.033648565
0002f0 4e 9d 6a bc 43 3f 84 3c 35 45 23 3d ce 16 60 bc
       -0.014319731 0.016143447 0.039860923 -0.013677312
000300 46 33 3d 3d 81 0b 16 bc 54 3d 7b 3b c6 1e 19 bb
       0.046191476 -0.009158016 0.0038336115 -0.002336429
000310 d4 dc 1c 3c f7 9a c7 3c 80 da 1a 3d dd 0e ce 3c
       0.009574134 0.024365885 0.037806034 0.025153572
000320 56 1a 9e 3c 74 15 fb 3c 4a 9a c0 3c 75 fa 56 3c
       0.019299667 0.030649878 0.02351107 0.013121237
000330 b9 54 a8 3c af 73 aa bc c9 21 61 3a 83 44 6d 3b
       0.020548211 -0.020807115 0.0008588103 0.0036204166
000340 db 30 03 3c da c0 07 bd a0 5b b5 bc 00 0e 08 3d
       0.0080072535 -0.033142902 -0.022138417 0.033216476
000350 34 61 89 3c 40 e7 fd b8 0b 5c ae 3c ff df 5e 3c
       0.016769983 -0.00012107054 0.021284124 0.0136032095
000360 1c 43 20 3d fe a4 1e 3c 27 1a d8 bc cd c1 d8 3a
       0.0391265 0.009682892 -0.026379658 0.0016537249
000370 70 6a 9e 3c eb 4a a6 ba 1c 8c 91 3b e8 87 64 3b
       0.019337863 -0.0012687122 0.004441751 0.0034871046
000380 5a 95 c9 bc d1 f0 e3 bc 08 e9 1c bd b3 e0 58 3c
       -0.02460735 -0.027824791 -0.038308173 0.013237166
000390 43 ac 62 bc e8 29 db bc 9c 12 21 3c 4e 0f 17 bd
       -0.013835016 -0.02675338 0.009831097 -0.03687983
0003a0 96 a9 de 3c c4 2d bd bc eb ad 20 bc bc fb fd 3c
       0.027180474 -0.023093112 -0.00980709 0.031003825
0003b0 a6 d4 34 bb 91 e3 d3 38 37 b6 13 bc 5c 24 58 3d
       -0.0027592569 0.000101036516 -0.009015611 0.05276905
0003c0 6b 7c d9 3c b3 ed f9 3c 4d a0 ac 3b 4a 32 07 3d
       0.026548585 0.030508852 0.005268133 0.033006944
0003d0 55 17 3c bd 99 6c e5 bb 09 fe 06 3d ba 24 6d bd
       -0.04592069 -0.0070014712 0.03295711 -0.057896353
0003e0 db dc ca ba ef e5 40 3b 8a 9f 68 bc f6 7f a4 3b
       -0.0015477197 0.0029433926 -0.014198193 0.005020137
0003f0 79 6d c8 bb c8 6b de bb 2f ec 8f ba e2 ea a4 bc
       -0.006116566 -0.006787751 -0.0010980422 -0.020131532

network_body.linear_encoder.seq_layers.0.weight f4 [256, 201]
000000 c6 b0 e2 3d 67 ad 7e bd e5 8b c7 3d d8 34 8b bd
       0.11068873 -0.062177088 0.0974348 -0.067971885
000010 98 6b 39 bd 39 9d 8d 3d ee c5 13 bd 57 70 c3 3c
       -0.045268625 0.069147535 -0.036077432 0.023857279
000020 15 14 62 bc 6f 18 2f bd 6b 4c 12 3e c8 50 61 bd
       -0.013798733 -0.04274791 0.14286964 -0.05500868
000030 47 6b 12 3e 77 d0 d7 3c b6 98 10 bd 94 b9 87 3e
       0.14298736 0.026344521 -0.035301886 0.26508772
000040 dc 07 f9 bd 1e 79 62 bd bc 65 23 be 2b 1f c4 bd
       -0.12159702 -0.055291288 -0.15956777 -0.09576257
000050 24 a6 91 3d 0f 05 59 3c f4 bc 2b 3e 3e be 61 be
       0.07111767 0.013245835 0.16771299 -0.22045228
000060 16 fb 0a be 9a 23 c7 bc 1c e6 c5 3c 09 27 0d be
       -0.13572344 -0.024308968 0.024157576 -0.13784422
000070 7b 39 cb 3d 2e 88 32 3e e7 b9 78 3c d0 62 e9 3d
       0.09923073 0.17434761 0.015181041 0.113958
000080 98 3f a7 3d c9 c9 d6 bd 0b 70 a1 bc 44 d2 83 bd
       0.081664264 -0.10487706 -0.019706747 -0.06436589
000090 21 0e 9f 3d 8d d6 2c 3d e5 5a c0 3d 7e 95 10 3e
       0.07766367 0.0421968 0.09392337 0.14119527
0000a0 15 3f 13 3e 47 b9 bf bd 4a 57 2b 3d d3 23 9f 3d
       0.14379533 -0.09361511 0.041831292 0.07770505
0000b0 99 76 b9 3d a6 fe 68 bc a7 53 36 bc d8 09 6a 3d
       0.09055824 -0.014220869 -0.011128343 0.057138294
0000c0 49 7c 09 3c 4e 9e 75 3d 9c 43 39 be 7f fb e3 3c
       0.008391448 0.059965424 -0.18092197 0.027829884
0000d0 ec 5e d5 3d c5 84 00 bd 04 95 8d 3d e0 dd ed 3c
       0.104184955 -0.03137662 0.06913188 0.029036462
0000e0 fb ba c4 3d 9e 6e 95 3d 19 f5 27 3d 37 fb 89 3c
       0.09605976 0.07296489 0.041005228 0.016843421
0000f0 63 11 cf bc 70 47 f2 bb bd d1 d0 3d 1d 50 19 3d
       -0.025276845 -0.00739377 0.101962544 0.037429918
000100 ec b5 ed 3d 34 3b ce 3c ae fe be 3c 2e 26 37 3d
       0.116069645 0.025174715 0.0233148 0.044714145
000110 79 67 d7 bd 68 e5 2d be b7 87 2c 3c 6b 7d a9 3b
       -0.10517783 -0.16982043 0.010530404 0.0051724217
000120 02 74 1d 3d a0 d3 03 be 35 88 fb 3d 19 6e d8 bb
       0.03844071 -0.12873697 0.12281839 -0.0066049215
000130 fd f8 59 3d 7b ed 11 bd bd 30 15 bc ef 4b 14 3d
       0.05321597 -0.03562687 -0.009105858 0.03620523
000140 a0 01 cc 3d 14 7d 92 bc d1 cf 90 3d a9 02 b9 bd
       0.099612474 -0.017881908 0.07070888 -0.090337105
000150 c5 b5 0a bc d7 e1 3a 3d c1 66 b4 bd b8 e4 1a 3d
       -0.008466189 0.045625534 -0.08808661 0.03781578
000160 25 eb fc bc a3 e0 1b 3d 48 77 5d be c2 77 a4 3d
       -0.030873844 0.038056027 -0.21627533 0.080306545
000170 cc a6 0e be ae 75 13 3e 04 85 b7 3d 20 74 18 bd
       -0.13930815 0.1440036 0.089609176 -0.03722012
000180 9e fc 1a 3e eb 2e 72 3d d5 75 c5 bd 25 43 b6 3d
       0.15135428 0.059126776 -0.09641615 0.088995256
000190 36 4c 67 bc d9 a8 c9 bd 81 8d c7 bd 09 9b 77 3d
       -0.014117291 -0.09846658 -0.097437866 0.060450587
0001a0 36 be e3 3c 71 c8 51 bc 58 5c ac 3a dd 38 d7 3d
       0.02780066 -0.012804137 0.0013150079 0.10508893
0001b0 f4 cd 21 bd 72 bd 9e 3d ee e9 d6 3c 57 1c 36 bd
       -0.039503053 0.077509776 0.026234593 -0.04446062
0001c0 f7 26 95 3b 7a fe 80 3c 46 32 2e 3e f2 4d e4 3d
       0.004551764 0.015746344 0.17011365 0.111476794
0001d0 a9 35 99 3d ce 19 93 3d e7 c0 46 bd 2b 46 23 3b
       0.07480938 0.07182656 -0.04852381 0.002491365
0001e0 a5 c7 40 bd 1a 13 ac bd 6c e6 7e bd f7 de e4 3d
       -0.047065396 -0.08402081 -0.062231466 0.1117534
0001f0 18 3d 07 3e 48 b0 f8 bd 64 b9 f7 3c e7 b1 98 3d
       0.13206899 -0.12142998 0.030239768 0.07455807
000200 9d ae 0b 3e aa 6e 02 3e d0 bf 1f 3e e3 3b cc 3d
       0.13640828 0.12737527 0.15600514 0.0997236
000210 1e 15 aa bd 07 29 6d be 37 a8 df bc 16 28 2b 3e
       -0.08304809 -0.23160182 -0.02730189 0.1671451
000220 bc a1 66 bc 3f ad c1 bd 0d c7 8a bc 74 6b 25 be
       -0.014076646 -0.09456872 -0.016940618 -0.16154271
000230 7d a9 1c 3d 18 24 0c bd aa 44 1d 3c 9c 20 27 be
       0.038247574 -0.03421411 0.00959889 -0.16321033
000240 d9 5a 40 be 9a c8 70 3e 28 32 84 3d b4 6b 23 3e
       -0.18784656 0.23514023 0.06454879 0.15959054
000250 8a b1 2a bc de 67 f6 bd ac 7f d6 3d e4 5c 11 3d
       -0.010418305 -0.1203153 0.1047357 0.035488978
000260 63 a2 c4 3c b4 3a 08 be 40 08 68 bc 03 97 aa bd
       0.024003213 -0.13303643 -0.014162123 -0.083295844
000270 ec 8b 86 3c 92 cc 46 bd 55 42 31 3e cf f8 aa bc
       0.016424142 -0.048534937 0.1731046 -0.020870594
000280 49 88 b5 3c 05 19 9c 3d 33 92 20 bd 47 95 02 be
       0.022159712 0.076219596 -0.039201926 -0.12752257
000290 92 ba ee bd bd 78 05 3e 98 a5 43 bc 16 56 f8 bd
       -0.11656679 0.13034339 -0.011941336 -0.121257946
0002a0 3c 67 e6 3d 0d d5 1c 3e 9a ea 26 3e 6e 5c dd bc
       0.11250159 0.15315647 0.16300431 -0.027021613
0002b0 51 cb c9 3d 4f d6 8b bd 21 1b ca 3d ec 8c 17 3d
       0.09853233 -0.068279855 0.09868456 0.036999628
0002c0 fa a8 bf 3d b9 23 3d be 67 47 90 bc ed 0c 03 3e
       0.093584016 -0.18470658 -0.017612172 0.127979
0002d0 db 2b a3 bc 46 04 62 3d f3 e3 d3 bd b5 9e 2a 3e
       -0.019918373 0.055179857 -0.10346212 0.16662104
0002e0 2c 89 d2 3c d0 06 69 3d e4 79 66 bd 3a 70 a1 bd
       0.025700174 0.056891263 -0.056268588 -0.07882734
0002f0 a7 b3 97 bd c5 60 c1 3d cb d0 f9 3d 9a 7f 29 be
       -0.07407313 0.094422854 0.12198027 -0.16552582
000300 ef e5 0b bd 7a 71 d6 3b 7e 61 54 3d 71 7f 1b 3d
       -0.03415483 0.006544289 0.05185079 0.037963334
000310 63 3b f9 bc 86 d9 e1 bd f5 51 0c 3e 67 a5 7d bd
       -0.030423826 -0.110278174 0.13703139 -0.061925318
000320 df 03 46 bc 6f bd 09 be c1 4f 91 3d 88 a2 71 bd
       -0.012085884 -0.1345117 0.0709529 -0.058992893
000330 a2 20 2a 3e a4 95 a6 3c 96 1d 4d bd d1 7a 53 bd
       0.16614011 0.020335026 -0.050077043 -0.0516308
000340 fd ce d7 3d 94 3e ae bd 60 72 5f 3c a9 41 a5 3c
       0.10537527 -0.085080296 0.013638109 0.02017291
000350 2d 55 2d 3d 9d 8c b0 bd b8 c1 57 3e 09 12 8f 3d
       0.042317558 -0.0862057 0.21069992 0.06985862
000360 c1 4f 2d bc 6e ea 9c bd 81 2a 06 3e 4e e7 de bd
       -0.010578097 -0.076619014 0.13102151 -0.108839616
000370 d6 2a 4c bd 00 87 e8 bc 57 1f 90 bd f3 c8 ca bd
       -0.04984554 -0.028384686 -0.070372276 -0.09901609
000380 ff 0b 1f 3c c5 a0 45 3e 0a 4b 10 be 07 a7 8e 3d
       0.00970745 0.1929961 -0.14091125 0.06965452
000390 95 01 b7 3d ac db ab bd 50 fd 14 bd a2 63 fa 3d
       0.089358486 -0.083915085 -0.03637439 0.12226035
0003a0 04 bd 0c bd cd 0d c5 3d 75 39 26 be 38 44 54 3d
       -0.034359947 0.09621773 -0.16232856 0.05182287
0003b0 2a a6 c7 3c 0c c3 1d be c7 b3 20 3e f5 26 92 bd
       0.024371225 -0.15406436 0.1569358 -0.07136337
0003c0 0b 25 98 bd 7e c0 bd 3d b5 b3 30 3c 7b 9e a5 3d
       -0.074289404 0.092652306 0.010785033 0.080868684
0003d0 ed 03 fb 3b 64 16 81 3d 27 37 0a 3d b6 53 ce bd
       0.00766038 0.06303099 0.033744004 -0.1007456
0003e0 6b c2 21 3e 0c 2b 8b be 5c f6 fa bd 8b 90 99 bd
       0.15796821 -0.2718128 -0.122540206 -0.074982725
0003f0 a9 a3 b1 3c cc 20 d7 3d 11 b6 e0 bd b4 c7 91 3d
       0.021684485 0.105043024 -0.109722264 0.071181685

network_body.linear_encoder.seq_layers.2.bias f4 [256]
000000 16 ff 0f bc 59 31 99 bc f9 8a 3b 3c 96 70 ab bc
       -0.008788845 -0.018700289 0.011446708 -0.020927709
000010 db 59 21 3d 31 ec eb 3c ee f1 6b bb 18 3c 7c 3c
       0.039392333 0.028799148 -0.0036002356 0.015395187
000020 0c 23 c3 3c 7a 3e 8f ba 15 5a a7 3c 62 d9 5c 3c
       0.023820423 -0.0010928654 0.020428697 0.0134795625
000030 d8 f0 16 3c e2 ed 22 bc ea 71 a9 3c 7d 08 4e 3d
       0.009212695 -0.009944411 0.020684201 0.050301064
000040 4c 85 c4 3b c4 4e cb bb 9f e2 02 3d 01 f9 9d 3c
       0.0059973355 -0.006204458 0.031954404 0.019283773
000050 0e 22 82 3a bb 72 6e bb f1 e7 0a 3c 53 1d ec 3c
       0.0009928362 -0.0036384303 0.008478151 0.028822577
000060 64 c4 10 3b 79 cd 37 3c d7 90 14 3d 4a 6b 1c bb
       0.0022089714 0.011218422 0.036270943 -0.002386766
000070 b1 b7 83 bc 5a 73 38 3d a6 80 87 3c f9 6c dd 3c
       -0.016078802 0.045031883 0.016540837 0.027029501
000080 3b 50 a9 3a ec 23 30 3d 9f 81 04 bd 02 f0 d9 3c
       0.0012917587 0.043003008 -0.03235018 0.026603702
000090 66 81 13 3b c3 04 83 3c 70 d7 8f 3c be 9a 13 bd
       0.0022507547 0.015993482 0.017558783 -0.036036246
0000a0 71 4b 4f bc dd 55 88 3b b2 e5 8a 3b 47 17 7b 3c
       -0.012652264 0.0041606263 0.0042388076 0.015325374
0000b0 a9 4d 26 3d f6 c4 25 bb 57 fc d7 bc 13 2a 62 3c
       0.040601406 -0.00252944 -0.026365442 0.013803977
0000c0 a4 82 83 3b de a3 84 bb a2 cc 02 39 08 b3 05 bc
       0.0040133763 -0.004047855 0.00012473998 -0.00816036
0000d0 4c 43 96 b8 8e 94 f0 3c e3 f3 b0 3c 18 11 7d 3c
       -7.1650924e-05 0.029367711 0.02160067 0.01544597
0000e0 1c 3a fa bb 23 e6 3e 3c 94 68 83 3c b8 23 22 3c
       -0.0076363217 0.011651549 0.016041078 0.009896211
0000f0 e5 ce ac 3c 62 8c 84 bc 6d 6f 36 3c 36 29 30 3a
       0.021094749 -0.016180221 0.011134964 0.0006720008
000100 0b 2a 7a bc 60 0c 86 3c 18 f0 c8 3c be 76 9b 3c
       -0.015268813 0.016363323 0.024528548 0.01897752
000110 ba 6e 05 bb 6c c7 b4 3c ac 56 f8 3b 9a 16 95 3c
       -0.0020360188 0.022067748 0.0075786915 0.018199254
000120 55 95 14 3c ce 64 77 ba f0 99 44 bc 60 06 f6 3c
       0.009068807 -0.00094373233 -0.011999592 0.030032337
000130 96 e0 00 3d f8 02 a4 3c 1a 95 82 3c 4b 68 85 bc
       0.03146418 0.020020947 0.015940238 -0.016285082
000140 b8 f1 4c bc 79 0c e5 3b 69 83 ae 3b be a9 c2 3c
       -0.012508802 0.0069900122 0.005325724 0.02376258
000150 aa 6a 2d 3c 77 d7 21 3c 72 14 94 bc a2 06 c2 39
       0.010584513 0.009878031 -0.018076155 0.00037007505
000160 ef 7f 39 3d c3 7a b6 bb 20 27 5e bc 91 51 c8 bc
       0.045288023 -0.0055688336 -0.013559133 -0.024452956
000170 65 9e be 3c ae 95 b0 3c 0e 71 d0 39 83 d0 d3 3c
       0.023268888 0.021555748 0.00039757084 0.025856262
000180 69 c4 28 bc af 01 df 3b 7c cc 3a bc e2 f5 df 3c
       -0.010300734 0.0068056206 -0.011401292 0.027338926
000190 e4 50 01 bc 09 3a f0 bb 6f ee 72 bb d7 99 a5 3b
       -0.007892821 -0.007331137 -0.0037068387 0.0050537395
0001a0 03 d7 b4 3c e2 8f b1 3c 67 8c 82 3a f9 ce 63 bb
       0.022075182 0.021675054 0.0009960056 -0.0034760816
0001b0 86 9f 2d bb ed cd 34 bc 81 1e 3f bc 2a b3 75 3c
       -0.0026492788 -0.011035425 -0.011664988 0.014996329
0001c0 f0 1c 39 3d 91 d7 ba 3b 6d 02 f3 3c f1 90 2f 3d
       0.045193613 0.005701967 0.029664243 0.042862836
0001d0 ff 3c b1 3c 22 8f d3 bb 9b b7 6e 3b 4e 78 cf bc
       0.02163553 -0.0064562717 0.0036425355 -0.02532592
0001e0 3a 19 30 3d ca 3f 76 3c b4 38 23 3b 2b e0 30 3c
       0.042992808 0.015029857 0.0024905624 0.010795633
0001f0 4e b1 2d 3d e3 fb 8d 3c 4a 79 9b 3c 04 7a b7 3c
       0.04240542 0.017332023 0.018978734 0.022397049
000200 03 ed c1 3a 60 33 56 3c 11 58 a4 3c 2d 6b 89 bc
       0.0014795366 0.013073772 0.020061525 -0.016774738
000210 25 63 8e 3b 7b fa ef 3c 07 e2 6a 3b 74 1a 4f 3d
       0.004345315 0.029294243 0.003584029 0.050562337
000220 f0 cd 7e 3c 73 bc 45 3c 44 73 bb 3c 1e 69 02 3c
       0.015552029 0.012068856 0.022882111 0.007959632
000230 5a 22 aa 3c eb 06 be bb c1 cc a2 3c 86 51 14 3d
       0.020768333 -0.0057991645 0.019873025 0.03621056
000240 d6 9f 19 3d bb 8c 4e 3c f9 6c 6c 3c 9d cd c5 3c
       0.037505947 0.012606795 0.014430278 0.024145896
000250 a5 fe 55 3d e4 f6 42 bc 89 5f 96 3b 78 c0 00 3d
       0.0522448 -0.011899684 0.0045890254 0.031433553
000260 80 cf 92 3c 24 49 d1 bb 91 4c 69 ba c8 82 15 3d
       0.01792121 -0.006386893 -0.0008899654 0.036501676
000270 27 f6 63 bc f1 0c b0 3b c6 5a 3c bc 2c fa d6 bc
       -0.013913668 0.0053726365 -0.011496251 -0.026242338
000280 28 54 2f 3d a9 cf 92 ba 13 45 69 3d ae 31 e4 3c
       0.042804867 -0.0011200804 0.05695064 0.02785572
000290 32 a4 36 3d ec 35 37 3c 00 99 8e 3c fd 51 7a 3d
       0.044590183 0.01118229 0.01740694 0.061113346
0002a0 80 26 7b 3c 36 1f a2 bc a6 7b 46 bc e9 8c 55 3d
       0.015329003 -0.019790273 -0.012114441 0.052136336
0002b0 ae ef 68 3c 0b 62 4d bc 8f ad ed bb 66 df 49 3d
       0.0142173 -0.012535582 -0.007253356 0.049285315
0002c0 cf 3b 73 bc 96 b8 10 bc 17 39 1f 3d 10 28 1e bc
       -0.014845802 -0.008833071 0.038872804 -0.009653106
0002d0 82 70 ed bb ce e0 5a 3b b1 00 79 3d 04 0c 13 3c
       -0.007246078 0.0033398154 0.060791675 0.008975033
0002e0 0d 48 80 3c 69 28 42 bc ed 0c de 3b 85 cd b5 3c
       0.015659356 -0.011850455 0.006776443 0.022192726
0002f0 a0 85 85 3c a2 13 c8 bc cc dc 0a 3d 34 18 f6 3c
       0.016299069 -0.024423424 0.033901975 0.030040838
000300 ad a1 cc bc 09 9a c9 bc 94 19 9f 3c 06 d0 1e 3b
       -0.024979437 -0.024609582 0.019421376 0.0024232878
000310 7c bf 34 3c 85 85 8a 3d fb 8a e3 bc 95 cc 2e 3d
       0.011031982 0.06763748 -0.027776232 0.042675573
000320 8e 94 ad 3c 3b 26 b5 3a 21 ca 41 3d 9d 53 00 3c
       0.021189 0.0013820598 0.047311906 0.007832435
000330 9c 67 39 3d de ff 9d bb 53 d1 0b 3d 51 c7 24 3d
       0.045264825 -0.0048217615 0.034135174 0.040229145
000340 2f 88 45 3c cc d6 39 bc 7a 8a 78 3c 1b 91 7b 3d
       0.0120563945 -0.0113427155 0.015169734 0.06141768
000350 6c fc e3 3c c3 65 fb b9 8c 90 53 3c a5 c2 b1 b9
       0.027830325 -0.0004795027 0.012912881 -0.00033905092
000360 a3 37 f8 3c 15 a8 bc bb 5b ba 58 b8 f7 00 ab 3c
       0.030299967 -0.0057573416 -5.167197e-05 0.020874484
000370 a6 88 c7 3c dc 5d 7c 3c 87 45 91 3c 84 93 cd bb
       0.024357151 0.015403237 0.017733349 -0.0062736887
000380 ec 8d 06 bc ab 23 9b bc 31 e7 dd 3c 23 ba 27 bc
       -0.008212548 -0.018937906 0.02708778 -0.01023725
000390 a1 af 1e 3b 5a 39 d8 3c ec 76 41 3c 21 df 07 3d
       0.002421357 0.026394535 0.011808138 0.033171777
0003a0 e9 0a d0 3b 53 b9 b6 3c a7 dd 30 3d 26 a4 ec 3b
       0.006348957 0.022305166 0.043180134 0.0072217165
0003b0 b9 b4 e5 bc 25 67 a3 bb 61 52 02 3d 1d 3f 83 bc
       -0.028040277 -0.004986661 0.031816844 -0.016021306
0003c0 a3 ff 04 3d 98 c9 68 3c df ff e5 bc 66 a6 b6 3c
       0.032470357 0.01420822 -0.02807611 0.022296142
0003d0 47 b8 a7 3c e4 63 71 3c d9 b1 d5 3c 8f 6b 9d 3b
       0.020473612 0.014733288 0.026085781 0.0048040817
0003e0 bc e5 21 3c 0a d0 ac 3a 22 a0 3c 3c d6 00 0a 3d
       0.009881433 0.0013184559 0.011512788 0.033692203
0003f0 eb 7c 05 3d 22 45 a2 3c 25 cb 1c 3d a5 99 ee 3c
       0.032589834 0.019808356 0.03827967 0.029125998

network_body.linear_encoder.seq_layers.2.weight f4 [256, 256]
000000 1e 73 18 bd cb c0 03 3e 83 c9 ce bc 33 e6 f4 bd
       -0.03721916 0.12866513 -0.025242573 -0.119579695
000010 8c 6b 22 be d5 5b 32 be 68 23 78 bc 47 1e 1b 3c
       -0.15861338 -0.17417844 -0.01514516 0.009467668
000020 a6 a0 d3 3d 6c f6 43 bd 5e ec fc 3d b7 48 a7 3d
       0.10333376 -0.047842428 0.12349771 0.08168166
000030 9c 57 d3 bd e6 f3 f9 bc 3d 22 f5 bd b6 27 5a bd
       -0.103194445 -0.030511808 -0.11969421 -0.053260528
000040 c9 c2 5d 3d 96 1f 79 bd 55 99 f2 bd b5 e1 bd ba
       0.05414084 -0.06082114 -0.11845652 -0.0014486822
000050 7d 69 2b bd b4 ae 09 bd 20 80 20 bc 54 d8 97 3d
       -0.04184865 -0.033613876 -0.009796172 0.07414308
000060 4c b8 05 3d ec ea 61 be e5 4e dc bd d7 31 19 bc
       0.032646462 -0.22062272 -0.107572354 -0.009350262
000070 22 c4 3a 3d ba d4 b0 bd 99 46 dc bd 52 ae d7 3d
       0.045597203 -0.08634324 -0.10755653 0.10531296
000080 b0 18 ca 3b e7 90 5a bd 22 07 a1 bd b3 28 be bb
       0.0061674938 -0.053360846 -0.078626886 -0.0058031916
000090 fd 8e be 3d 54 1c 48 3c 8c 3b 10 3e e3 4f 3d 3d
       0.093046166 0.012213785 0.14085215 0.046218764
0000a0 97 5f ee bd e3 ce 55 bd 00 83 8e bd d3 b0 be 3d
       -0.11639326 -0.052199256 -0.0695858 0.0931107
0000b0 94 d8 f5 bd 00 27 9b bd 2f 8d 0f bc 6c 87 8e bd
       -0.120041996 -0.07575798 -0.008761688 -0.069594234
0000c0 17 95 22 bc 9a 0a 6b bb a4 6f 9b bd 19 35 74 bd
       -0.009923241 -0.0035864473 -0.07589653 -0.05962095
0000d0 87 f0 e8 bd fa d9 35 3e d7 9c f0 bc fd f6 c8 3c
       -0.11374002 0.17758933 -0.029371662 0.024531836
0000e0 12 54 49 bd 68 40 a5 bc 18 b0 a2 3c 7f b2 81 3d
       -0.04915244 -0.020172313 0.019859359 0.063328736
0000f0 5e a2 ff bc 45 5a 84 3c 1c d6 14 bd d0 6f 1a 3d
       -0.031205352 0.016156325 -0.036337003 0.03770429
000100 cb 25 07 be 76 ea 60 3d ef 92 55 bc d5 32 86 3d
       -0.1319801 0.0549111 -0.01303552 0.06552664
000110 38 ce 37 bd 59 95 d9 3d d7 1c 2a bd 3a 66 88 bd
       -0.0448744 0.10624189 -0.04153141 -0.06660123
000120 3e a9 bc bd 07 75 36 3c 48 20 62 bd cc 40 ad 3d
       -0.09211968 0.0111363 -0.055206567 0.08459625
000130 6c 7c 6f 3d 94 03 54 3c b1 1c 2e bd f1 79 04 3e
       0.058468267 0.012940306 -0.04250783 0.12937142
000140 3c 33 aa 3d 5c a9 a1 bd 71 a9 89 3d 09 db f8 3c
       0.083105534 -0.07893631 0.067217715 0.030377882
000150 35 2e e8 bc 5e 7b ca 3d 51 1e f3 3d 86 76 bd bc
       -0.028342346 0.09886812 0.11871017 -0.023127805
000160 db 03 82 3c 63 5d 1a be 43 44 03 bd d8 af c8 3c
       0.015870979 -0.15074687 -0.03204752 0.024497911
000170 a3 6b 15 3e 76 00 e7 3d 9e e8 d1 bd ba fc 87 bb
       0.14591841 0.11279385 -0.10249446 -0.0041500004
000180 b6 eb 2d 3c 81 71 3e bd 3e 4f 16 3d 59 4e 16 bc
       0.01061528 -0.046494965 0.036696665 -0.009173953
000190 b0 fd 94 bb 19 e6 6c bd 06 f1 ec bb 89 03 be bd
       -0.0045468435 -0.057836626 -0.0072308807 -0.09278018
0001a0 6d 2d e6 bc 60 45 b3 3c 73 c6 0a 3d 77 0b 21 bd
       -0.028097833 0.021883667 0.033880662 -0.039317574
0001b0 22 c3 d1 3a 12 25 86 3b ab 4c 07 3d bc f5 2f 3d
       0.0016003589 0.0040937746 0.0330321 0.04295896
0001c0 ff 2e cb bd 06 97 8d bc a1 11 5c be a2 ac c9 3d
       -0.09921073 -0.017283928 -0.214911 0.0984738
0001d0 87 80 b7 bc d0 37 eb bc 17 2a 8e bd 0c f2 79 bd
       -0.022400154 -0.028713137 -0.06941622 -0.06102185
0001e0 45 fb 42 bd 7b 45 5d 3c c2 72 64 3d 45 44 3b 3d
       -0.04760291 0.013505335 0.055773504 0.045719404
0001f0 f8 1d ce 3c 6c 3c 9e bd b8 6e 7f 3d 80 a8 dd bc
       0.025160775 -0.07726368 0.06236145 -0.027057886
000200 bb 6d 92 bd f7 92 4e be 03 1c 01 3d 02 8a bb 3d
       -0.07149836 -0.2017325 0.031520855 0.09157182
000210 ed 7e 38 bd 6a db e7 3c 5b c2 17 be 13 cc e6 bd
       -0.04504292 0.028302867 -0.14820234 -0.11269393
000220 f3 2c c4 bd 33 66 73 bd 91 19 ea 3d f1 9a 70 3e
       -0.09578886 -0.059423637 0.11430658 0.23496605
000230 a2 32 bb 3d 30 3e 23 bd b8 ac 97 bb 82 e1 21 be
       0.09140517 -0.03985423 -0.004628744 -0.1580868
000240 38 e5 bf 3d 7b fe 1b bd ce a4 f5 bd 94 04 7c 3d
       0.09369892 -0.03808449 -0.119943246 0.061527804
000250 a2 a8 e7 bb 69 09 05 bd 12 13 92 bc b0 7f 04 3d
       -0.007069663 -0.032479677 -0.017831359 0.032348335
000260 cb c1 db bd bd d6 fe 3c 63 de bf bd 89 78 09 bd
       -0.107303225 0.031108255 -0.09368589 -0.033562217
000270 f2 c9 32 be d5 c5 dc 3c be 2e 93 bc 9c a2 f9 bc
       -0.17459849 0.026949802 -0.017966624 -0.030473046
000280 77 bb bb bd 56 7c 20 bd 12 ac ae 3d 36 31 68 3d
       -0.091666155 -0.039181076 0.085289136 0.056687556
000290 7b 77 35 bb 79 10 81 3d 6f 01 83 3c 13 74 16 bc
       -0.0027689624 0.0630197 0.015991895 -0.009182948
0002a0 67 7f c8 3c 9c 8a 1e 3b 86 93 b8 3d d6 27 3f 3d
       0.024474813 0.0024191504 0.09012513 0.04666885
0002b0 fb a7 d4 3d 9f 04 d5 3d 56 eb dc 3c 81 de 5d 3d
       0.10383602 0.10401272 0.026967686 0.054167274
0002c0 72 a6 e2 3c 6c 1c 01 bd ef 2f 19 3e 21 cd 55 bc
       0.027667258 -0.031521246 0.14959691 -0.013049395
0002d0 46 84 a7 bc 8a ff 0a bc d1 22 26 bd 62 d2 07 bc
       -0.020448815 -0.008483777 -0.040560547 -0.008289905
0002e0 78 00 2a 3e 5e 4f 7a 3d 99 5c 2f bd 8f a6 eb 3a
       0.16601741 0.061110847 -0.042812917 0.0017978715
0002f0 7f ef 72 be 66 4c 6f bd c5 0a cc bc 09 60 1c bd
       -0.23724173 -0.05842247 -0.024907479 -0.038177524
000300 d7 2c 05 be a3 45 9b 3c c0 32 00 3d 1a 37 48 bd
       -0.13005386 0.018954104 0.0312984 -0.048880674
000310 92 d8 ba 3d a7 3e 70 bd 51 2c c7 bd 9b 5c b4 3a
       0.09123339 -0.0586535 -0.097252496 0.0013760509
000320 26 e0 ee bd f7 bf b9 bc db ff df 3d 9d ad e0 3d
       -0.11663847 -0.022674544 0.109374724 0.10970614
000330 1e af df bd 75 09 f2 bb 5b 05 e8 bd 6d 2b be 3c
       -0.10922073 -0.0073863813 -0.113291465 0.023214066
000340 48 76 91 3d fe 6c a1 bd c8 bd 07 3d 64 5a 42 bb
       0.071026385 -0.07882117 0.033139974 -0.0029655928
000350 56 da 16 3e b1 c0 d5 bd 01 05 fc 3d 38 b3 fc bd
       0.14731726 -0.104371436 0.12305642 -0.12338871
000360 6b 3b d0 3b 14 86 bc bd b7 a6 d6 3d 80 02 8b 3d
       0.0063547394 -0.09205261 0.10481017 0.06787586
000370 bd bf ae 3d ad ae c8 bd 02 d5 69 bd f0 b5 95 3d
       0.08532665 -0.09798942 -0.057087906 0.073100924
000380 b2 f3 d0 3d 77 e0 22 bd 51 3b b9 3c 0f 20 96 bd
       0.10202731 -0.039764848 0.022611292 -0.073303334
000390 7d d9 83 3c 36 c1 6b bd e2 15 39 3e 98 13 25 be
       0.016094917 -0.057557307 0.18074754 -0.16120756
0003a0 e5 02 4d bb ec f8 e3 bd 0f e0 94 3d e5 09 47 be
       -0.0031282243 -0.111314625 0.07269298 -0.19437368
0003b0 45 a8 3e 3e 95 71 5d bd 96 ac 1d bd 21 63 bc 3d
       0.18618877 -0.0540634 -0.03849467 0.09198595
0003c0 d8 b1 4c 3d 3e 15 81 bc b4 01 9f 3d b4 2c e7 bd
       0.049974293 -0.0157572 0.07763997 -0.11287823
0003d0 29 2e 6f bd 94 3f 85 3d b1 fe 98 3d 49 fa 59 bd
       -0.05839363 0.06506267 0.074704535 -0.053217206
0003e0 c8 9f 0f bc be 86 13 3d 85 80 5d 3d 06 2d 0f bd
       -0.008766122 0.036017172 0.054077644 -0.034955047
0003f0 a2 98 81 3d 19 a1 e9 3d 81 35 94 bb cf 92 ef bd
       0.063279405 0.1140768 -0.0045229797 -0.116979234
