results/bomber-v3/Bomberman/Bomberman-499999.onnx (onnx, 396204 bytes, 9 tensors)

103 f4 [1, 256, 128]
00000000: 5e23 0bbe 5c1f 0ebe 509e 843d e774 7cbd
00000010: 1254 4c3e 598a 13be 8438 303e 539a 4e3e
00000020: 66d0 f2bd e1c1 113e 5e8f 8b3d 49e9 77bc
00000030: 170f 36bd fc90 863d 3d74 25bd 38fc b73d
00000040: f88c 0e3e 1e41 043d 690b 40bd f345 0d3e
00000050: 4fa1 a73d eefb 423d 24a6 22be 4760 8dbd
00000060: de81 11be b463 063d 9ebe d3bd 532f f23d
00000070: fa3a 0a3e 2411 043c c4fc 0d3d b11a 2cbd
00000080: 136a 13be 11ce 1b3e 7a97 1e3d b01d c8bc
00000090: 268f cd3d 20a7 d03c 80dc 0dbe 9cf6 9fbc
000000a0: 27b4 19be a76d c4bd 1eed 06bc 87ec 9fbc
000000b0: 4dfe b73d e9c5 0ebb 3fcb 09be 0662 803d
000000c0: 1a5b bbbd f34d 313e 954f 113e 810c 303d
000000d0: 8c1a 123e 34aa 8bbd 3625 11be d79a c3bd
000000e0: e96e 73bc 04cb 3abe 96f0 893d 5d47 87bc
000000f0: 8502 bd3d a103 a23c 48ca 253d 0859 0e3e
00000100: 8711 28be b689 75bd 8500 e43c 6649 0cbd
00000110: 10a8 f3bd d28a a3bd e835 8bbd 7184 033e
00000120: b286 ebbd 27ec 6b3d 3425 0fbe 3915 33bd
00000130: 4b77 213e 6ff2 e3bd 1b9e 03be 9061 acbd
00000140: 6e1f 80bc 592d ac3c f03d 3abd 2930 203e
00000150: bf92 abbd 65f9 043e 9373 a13c 6457 aa3c
00000160: fc60 28be 6d6d c73c 3324 bd3d 293a b03d
00000170: f068 b33d 9c73 a83d 69cf 813d 3b40 f8bd
00000180: 6f38 a13d a066 cdbc 52b8 febd 32c8 a8bb
00000190: a121 573c 8594 f1bd 58af 983c 8407 18bd
000001a0: 3f9f da3d d007 1d3e 7aa0 7cbd 92ff 9f3d
000001b0: 59a4 913d e916 ddbc 2165 ec3d 0b52 1a3d
000001c0: 6525 16bd a42c 363d 1ef0 29bd 2f19 debd
000001d0: fac5 2b3e ab77 af3d c148 46bd 9954 ae3c
000001e0: 3993 96bd 257a bcbc 476b 823d ceec 393e
000001f0: 4608 07be 8fc3 153e eaea 1d3e 792c 953d
00000200: c026 21be 6fa6 ac3b d6b9 99bd 869e 073e
00000210: a3e0 bdbd 6600 d93d 48f4 80bd 5614 2c3c
00000220: 761c 033d 3c75 1abe ae74 eb3d 152f 373d
00000230: 33e0 e3bd 786f b9bd fe7f 1abe a206 163c
00000240: e3e0 203e 9cf9 f73c 864e 083d b227 89bd
00000250: cf20 c7bd f708 283e 735d 913d fa5a 3abd
00000260: 3f29 2f3e 3c91 12be 4306 dfbd 9e38 cdbb
00000270: ec18 4d3d 9bc1 333e e4b2 32bd e579 16be
00000280: 186f 2f3e 9934 003e 708b f2bd e166 ce3c
00000290: b285 7fbd e31e f7bd aab3 273c 7c9d 4a3d
000002a0: 6c91 d53d f95a 003e ca67 c1bd 1695 4b3c
000002b0: 5bf1 a8bd 4d55 823d 15c0 273e 8dd5 e1bd
000002c0: 7aff eabc 50e6 243c f215 2ebe afc1 0dbe
000002d0: 3df0 b63d d96f 00be 5d9c a3bd 3056 9a3d
000002e0: d400 103d 0001 583d e2a5 a2bc cb74 583d
000002f0: 746b a0bd a305 01be 1182 87bd 2145 bbbd
00000300: 3188 143d e457 c5bd e7e8 e73d 6d62 14be
00000310: 57a3 2ebe d3e4 44bd 8373 fbbd da8b 9dbd
00000320: c119 823d b525 38be 6c55 afbc f287 19be
00000330: 4d3e 92bd c200 f2bd fe63 113e c4a8 04bb
00000340: 30c0 c3bd 783f 3dbd d942 e43d 2a53 293e
00000350: 0748 49bd 82dd d4bd 5a86 013e 309f 74bd
00000360: 10c0 09bd 2cf7 093e 0d9e 0ebd ec5d 31be
00000370: ae18 08bd 37c4 3e3c 204f e73d 06b3 c3bb
00000380: 0941 f1bb b8d6 d73d 36ce b03b 614b 9f3d
00000390: 6d21 db3c 5ffb dd3c eff8 513b 4d0c b63d
000003a0: d5c3 753d 75c4 0cbe 4626 9bbd c6eb 293e
000003b0: f512 793d fb50 ccbd 9413 143e 977b 443d
000003c0: 986a dabd befa 83bd c8a5 78bd 7878 4ebd
000003d0: 6ec9 133e 9621 debd a33c 993d 7965 213e
000003e0: 465b 4bbd 450c 72bd 2d28 acbd 9670 22be
000003f0: a011 ccbd c6f5 413c 660a 273e 186f 173e
-0.1358771 -0.1387915 0.06475508 -0.061634924 0.19953945 -0.14408244 0.17209059 0.20176058
-0.11856155 0.14234115 0.068144545 -0.015131303 -0.044447985 0.06570622 -0.040394057 0.08983654
0.13920963 0.032288663 -0.04688588 0.13796215 0.08185064 0.04760354 -0.1588369 -0.06903129
-0.14209697 0.032809928 -0.10339092 0.11825433 0.1349906 0.008060727 0.034664884 -0.042017642
-0.14395933 0.15215327 0.038718678 -0.024428219 0.10037069 0.025470316 -0.13853645 -0.019526772
-0.15010129 -0.09591227 -0.008235244 -0.019521965 0.08984051 -0.0021785444 -0.13456438 0.062686965
-0.091482356 0.17314892 0.14190514 0.042980675 0.1426794 -0.06819573 -0.14174351 -0.09551018
-0.014857986 -0.18241507 0.06735341 -0.01651352 0.09228996 0.019777121 0.040476114 0.1390115
-0.16412936 -0.059945785 0.027832279 -0.034249686 -0.1189729 -0.07985462 -0.06797391 0.12843491
-0.115003005 0.05759826 -0.13979036 -0.04372141 0.15768163 -0.11130225 -0.12853281 -0.08417046
-0.015639987 0.021017717 -0.045469224 0.15643372 -0.08377599 0.12985761 0.01970843 0.020793624
-0.16443247 0.02434417 0.0923542 0.08604843 0.087602496 0.08225176 0.063383885 -0.12121626
0.07872092 -0.02507335 -0.124375 -0.0051508183 0.013130576 -0.11795906 0.018638298 -0.037116542
0.10674905 0.15335011 -0.06167648 0.07812418 0.07111425 -0.026988463 0.11542726 0.0376759
-0.036656756 0.044476166 -0.04148876 -0.10844647 0.16774741 0.08567747 -0.048409227 0.021280574
-0.07352299 -0.023007462 0.06368118 0.1815674 -0.1318675 0.14625381 0.15421644 0.07283873
-0.15737438 0.005268864 -0.075061485 0.13244066 -0.09271362 0.10595779 -0.06296593 0.010502895
0.032009564 -0.15083784 0.11496864 0.044722635 -0.11126747 -0.09054464 -0.15087888 0.009156855
0.15710787 0.03027039 0.03327801 -0.066970244 -0.097230546 0.1640967 0.07097902 -0.04549692
0.17105578 -0.14313215 -0.10889866 -0.006262853 0.050072595 0.17554323 -0.043627635 -0.14694937
0.17132223 0.12520064 -0.11843002 0.02519554 -0.06238336 -0.12066438 0.010235706 0.049466595
0.10428128 0.12534703 -0.09443624 0.012425682 -0.0824916 0.06363926 0.16381867 -0.1102706
-0.028686274 0.010064676 -0.17000559 -0.13843416 0.089325406 -0.12542666 -0.07988808 0.0753597
0.03515704 0.05273533 -0.01985449 0.052845757 -0.07832995 -0.12599806 -0.06616605 -0.09144045
0.036262695 -0.096359044 0.113237195 -0.14490671 -0.17054497 -0.048069786 -0.122778915 -0.0769269
0.063525684 -0.17983134 -0.021403037 -0.14993265 -0.07140789 -0.11816551 0.141983 -0.0020242194
-0.09558141 -0.046203107 0.11145563 0.16535631 -0.049140956 -0.10393812 0.12648907 -0.059722126
-0.03363043 0.13473195 -0.034818698 -0.17320985 -0.03322666 0.011643461 0.11294389 -0.005972269
-0.007362489 0.10539001 0.005395676 0.07778049 0.026749337 0.027097402 0.0032039245 0.08889065
0.060001213 -0.13746817 -0.075756595 0.16593847 0.060809094 -0.09976383 0.14460593 0.047969427
-0.106648624 -0.0644431 -0.060704976 -0.050407857 0.14432308 -0.1084625 0.07482269 0.15761365
-0.049647592 -0.059093732 -0.084061004 -0.1586326 -0.09964299 0.011838382 0.1631256 0.14788473

104 f4 [1, 256, 64]
00000000: dffb 54be 58ce 4abe 846a 15be 6e7c f33d
00000010: ad7b b23d 91de 00bd 3730 ba3d a1e7 3b3d
00000020: 4ecf c3bd bf61 313e 0436 533e db72 c9bd
00000030: ca05 c6bd 9884 9dbd b12a 513e 8ba8 4d3d
00000040: 214c 52bd aa5a b2bc 61f7 81bd ad82 c33c
00000050: b0f0 17be 29b6 8f3c 2e76 4dbe 2450 45bc
00000060: 0e32 65be ddae b4bd d4cd c3bd 6d98 1b3c
00000070: 55b4 c13d 2932 3a3e 8e52 8dbd a9dc efbd
00000080: 9d89 b2bd 15d2 b43c 681b 253d d67f c1bd
00000090: b980 8c3d bf08 09be 9fd3 743d 2888 0cbe
000000a0: ee44 453e f964 7bbc b81d 2d3e bed4 cbbd
000000b0: e3e7 223e fa86 263d 83f4 123e 9b88 83bd
000000c0: 55e3 313a aa49 cabd 2f8f b93d 70d7 1dbc
000000d0: b143 833d 806c 023e 9fc0 f7bd aebe 813d
000000e0: 2851 34be 0c32 933d 1764 3bbe ede8 c4bd
000000f0: 3f7a 823d aac6 c6bd ed2b 013e e3b2 21be
00000100: 3476 113e 9a59 e03a 09e5 003e 8092 4c3e
00000110: 99f5 c53d b449 b23d 5610 d6bd 62dd f73d
00000120: f186 abbc dafb 053e a4fb 84bc 5298 4e3e
00000130: 39fb 3d3e a042 ef3d b082 f33d 4fe7 eabc
00000140: da02 d3bd 6980 2a3e cc4f 0b3e cd29 183e
00000150: 9921 2dbe 265a 05be c28c 8abd 6eaa a93d
00000160: de6e 403e 96d6 73bc d324 19be 0904 bb3d
00000170: 94d4 48be f665 013e cf9f 8ebd ffb3 bbbd
00000180: 97dd 03be bf6d e6bc b72a 543e 6406 5dbe
00000190: e8a6 17be de22 bc3d 6b61 c5bd 9f39 cabd
000001a0: 16e9 4e3e 0964 61bc 3292 c73a dba6 46be
000001b0: ec5b fabd 4744 fd3d eaa8 f13b e85c 383e
000001c0: 8165 8bbd debd 47be 5a81 31be 9d95 043e
000001d0: d559 54be dbea 013e 2bb3 17be 21ea b5bd
000001e0: 0bc6 283e 5337 1b3d 0229 a7bd 40c3 4d3b
000001f0: a142 17bd 7776 3abe 00bb 823c c111 883d
00000200: 39be 57bd 4335 1cbe e5c4 68bd fbea 80bd
00000210: 8a2e 02be a053 f3bd c729 4dbe 7922 08be
00000220: 79fc 9c3b 2fb5 363e cabe 9f3c a1f9 2ebc
00000230: 123f 543e 315b 9dbd b54b 7cbd 6d00 233e
00000240: c66e 38be 8ed7 303e a511 86bb 9be9 523e
00000250: b1c6 28be 3eba 43be a88e d43d 3401 bcbd
00000260: b2d7 4fbe 57cd 1bbd 9fc2 6ebe 9ca3 22be
00000270: 1c7f 0d3d c4f9 afbd d4c2 98ba 6793 a6bd
00000280: 14d8 d1bc 06ee d1bd 0007 35be 7d40 e2bd
00000290: 7e18 d1bd 5a09 54be deae e43d 1db8 253e
000002a0: ac56 15bc 8892 293e 8670 353e df75 afbb
000002b0: abb2 0cbd 7348 083e 5b6b 333e 3fa7 7fbc
000002c0: 3665 10be 47ee b93d 7b5c a53d ed3d 83bc
000002d0: 15b6 b73d a2cf 353e bc12 193e b2dd 173e
000002e0: 213e 48be b857 243e e57c 3d3d 68a8 68be
000002f0: 83d7 2f3e 0c06 b8bd ba4d 18be 1f1b 333d
00000300: 8312 1b3e ab0b 3cbe e359 e1bd b832 2e3c
00000310: f06c 3abd 05ab eebd de15 12bc d76b 543d
00000320: 3e22 113e dd48 043e 9fdf 0e3e 5f8f 8c3d
00000330: 9dfa c8bd 6a9b 543d 8de4 89bd 9bda d43d
00000340: e4d3 c7bd 65dc 3e3e 3d7f 27bd 4209 b63b
00000350: fb58 503e 0d8a b53d 1a73 ef3d c8a2 32be
00000360: cd1e 0f3e 556d 513e aa22 3c3e eef2 02b9
00000370: 6a74 ec3d 9ed7 fe3d aeff 5f3d 86db 363e
00000380: 4289 3cbe 02e7 1d3e 6df0 0e3e 5bea d63d
00000390: 5a1e ffbd a1a4 90bd c6d9 f23d a445 ca3d
000003a0: cebc da3c 1189 e53d 5356 4dbd 4964 513d
000003b0: 21fd 75be 5b35 133e 3e30 fcbc 29ca 61be
000003c0: 8b59 d33d 66a9 c4bd 7ea1 30be d656 4dbe
000003d0: 6a46 a5bd fac5 e0bd d6d0 ba3d 0491 003e
000003e0: 9f75 7b3c e3e2 2f3e 2479 99bd 2388 08be
000003f0: 35d5 583e c7c5 413e edb4 98b9 d357 0cbe
-0.20799206 -0.19805276 -0.14591414 0.118889675 0.087149955 -0.031462256 0.090912275 0.045875195
-0.095610246 0.17322443 0.20626074 -0.0983636 -0.09669073 -0.07691306 0.20426442 0.050209563
-0.051342133 -0.021771748 -0.06346012 0.023866022 -0.14837909 0.017542915 -0.20064613 -0.012043033
-0.22382376 -0.08822415 -0.09560743 0.00949679 0.09458224 0.18183197 -0.06900512 -0.117120095
-0.08717654 0.022072831 0.04030934 -0.09448211 0.068604894 -0.13382243 0.05977213 -0.13723814
0.19264576 -0.015343898 0.16905868 -0.09952687 0.1590877 0.040656067 0.14351086 -0.0642254
0.0006785889 -0.098773316 0.09060513 -0.009633884 0.064093955 0.12736702 -0.120972864 0.063351974
-0.17609084 0.0718728 -0.182999 -0.096147396 0.06370973 -0.09705861 0.12614413 -0.15790896
0.14205247 0.0017116547 0.1258737 0.1997776 0.09665985 0.08705464 -0.104523346 0.12102772
-0.020938369 0.13084355 -0.016233273 0.20175293 0.18552865 0.116826296 0.11890161 -0.02867475
-0.10303278 0.16650547 0.13604659 0.14859696 -0.16907348 -0.1302267 -0.06765129 0.0828446
0.18792292 -0.014882704 -0.14955454 0.09131629 -0.19612342 0.12636551 -0.06964075 -0.09165191
-0.12877499 -0.028128503 0.2071942 -0.21584469 -0.14809763 0.09186338 -0.09637722 -0.098742716
0.20206103 -0.01375676 0.0015226065 -0.19399588 -0.12224564 0.123665385 0.0073748725 0.18004191
-0.0680647 -0.19506022 -0.173345 0.12947698 -0.20737393 0.12687247 -0.14814441 -0.08882547
0.16481797 0.03789456 -0.081621185 0.0031396896 -0.036928777 -0.18209253 0.01595831 0.06644011
-0.052671645 -0.15254693 -0.0568284 -0.06294819 -0.12713066 -0.118811846 -0.20035468 -0.132944
0.0047908393 0.17842554 0.019500155 -0.010679633 0.20727184 -0.07683409 -0.061595637 0.15918131
-0.18011007 0.17269728 -0.004091459 0.20596926 -0.16482045 -0.19114015 0.10378772 -0.09179917
-0.20297125 -0.038037624 -0.2331643 -0.15882725 0.03454505 -0.08592561 -0.0011654743 -0.081335835
-0.02561573 -0.102504775 -0.17678452 -0.110474564 -0.1020975 -0.20706692 0.11166166 0.16183515
-0.0091149025 0.16559803 0.17718706 -0.0053546275 -0.03435008 0.13308887 0.17521422 -0.015603839
-0.14101109 0.09078651 0.0807428 -0.01602074 0.08970276 0.17754987 0.14948553 0.14830664
-0.1955495 0.16049087 0.046261687 -0.22720492 0.17172055 -0.08985528 -0.148734 0.043727037
0.1514378 -0.18363826 -0.11003473 0.0106322095 -0.045514047 -0.11653713 -0.008916346 0.051860657
0.14173219 0.1291842 0.13952492 0.06863283 -0.09813426 0.051906027 -0.06733046 0.10393258
-0.09757212 0.18638761 -0.04089283 0.005555303 0.20346443 0.08864222 0.11691876 -0.17444909
0.13976593 0.20451863 0.18372598 -0.00012488264 0.11545642 0.124434695 0.054687195 0.17857179
-0.18411735 0.15420154 0.13958903 0.104939185 -0.12456961 -0.070626505 0.11857943 0.09876564
0.026701357 0.11207784 -0.050131153 0.05112103 -0.24022342 0.14375822 -0.030784722 -0.22049774
0.10319813 -0.09602623 -0.17249104 -0.20052657 -0.08070071 -0.10975261 0.091218635 0.12555319
0.015347867 0.17176394 -0.07493809 -0.13333182 0.21175082 0.18923102 -0.000291265 -0.13705377

105 f4 [1, 512]
00000000: 471b 92bc 2dce 893b 15b9 1b3c ea75 bcb6
00000010: 5b98 c53c dd98 edbb 504e 1d3c fb28 47bc
00000020: 4a83 19bc 1e51 03bc 234e a3bc 61d6 193c
00000030: 1a9f 8c3c 5baf 20bd 213e 70bc add6 b6b9
00000040: eda0 603c 959b a6bc db1a a2bb b5ca 07bd
00000050: d25b 1bbd 833e 853c ea94 1abd 1ac8 8f3c
00000060: c6b3 973c 7522 bcbc 83dd 51bb 4a39 1bbd
00000070: 5cbb 033c 0662 08bd 7597 bbbb b260 c0bc
00000080: 6f7a 27bb 6733 c2bb c660 613c d9b9 263c
00000090: 59ee 12bd bffb 663c a30e 903c f546 a33c
000000a0: 74ef cd3c 68c0 c2bc bc48 0cbd 7964 d8bc
000000b0: f456 213c 88db a5ba e868 4f3c d20c 5fbc
000000c0: 022e bf3c 1412 7bbc 326e 533c cc5f c4bc
000000d0: 6726 90bc 0d59 bbbc dfa1 62bd 0bcf 253c
000000e0: e934 47bb a340 cf3c d412 8fb9 3190 5cbc
000000f0: 29cb 66bb 70c7 063c 7b87 a9bb 562f 5fbc
00000100: adcb aebc 2cb3 043c dc8f a1bb 8586 843b
00000110: 96cf 17bc a54a 10bc 0c01 b13a 99d9 3aba
00000120: ad78 56bb 5b6e 463b e8d8 dabc 49a2 b2bb
00000130: 17f0 af3a 7b79 ccbc 3e84 b1bc ebd7 b83a
00000140: 9437 343c 7370 4bbc 7516 2b3a 09e0 b8bc
00000150: b5aa c6bc 8f0f 12bb ed71 103c 6b4e b93a
00000160: 9cbe 783c 8ca3 22bb a056 cbbc 1e6e 7bbc
00000170: 4f14 bdbc 985f 7bbc 0ed9 7ebc 96d2 abbb
00000180: 58bf 24bc cb78 3cbc 8adc c03c 88e6 8e3a
00000190: cb02 efbc 5e22 4abc 80ad ec3c b5b5 68bc
000001a0: 5ffb c93c 999c fcbc ee46 0cbd a763 87bc
000001b0: 0049 d33c b2d1 813c 527d 20bc 8006 f7bc
000001c0: edec 05bc c844 bdbc f5aa c93c def4 6abc
000001d0: d247 b33a 832f 8bbc bf5e 4abd 561e b13c
000001e0: 2a4d 21bd f493 c63c fefc 5abc 007a 3bbc
000001f0: 677a 00bb b183 8abc 02de 41bc d1c1 02bb
00000200: 7108 7a3f 5cef 813f 9c69 7f3f 91f0 7c3f
00000210: e6e3 833f b730 803f 3b24 813f 9f12 7e3f
00000220: 0fd9 7c3f 1ec9 7f3f c3e2 7a3f ff14 7e3f
00000230: cf5f 813f f36f 753f 9876 823f 258d 803f
00000240: c9ac 7d3f 81ef 803f 4ed3 7e3f 4166 803f
00000250: a535 793f 0ca5 803f fc4b 7e3f 37c3 823f
00000260: 9946 7c3f af28 803f aeb1 7d3f dce3 763f
00000270: 7ca8 7f3f 22f3 783f f46e 803f ae5b 7b3f
00000280: e98b 7a3f f8b8 793f 1255 7b3f 4dcc 7e3f
00000290: 9ea5 7c3f 2abe 823f 6cb9 843f 1f97 833f
000002a0: ae19 7f3f f86b 7d3f 024f 753f 5094 753f
000002b0: bddd 7f3f 143d 7f3f 1b38 803f cc86 7c3f
000002c0: 3b3e 803f 4e0d 7c3f cb3a 813f 0cb4 7c3f
000002d0: fab5 7d3f 688b 793f 09f7 723f 137c 813f
000002e0: 2410 7d3f c772 823f 57c8 7d3f 122c 803f
000002f0: b88f 803f 8919 803f 9c9c 7b3f 0520 813f
00000300: f4da 26bb 4dc9 803c 9407 ce3c 7e9f 573b
00000310: face db3b e4a9 09bb 15a2 ad3b f600 1d39
00000320: 0995 b53c 2c81 91bb ac91 983b 6b76 9abc
00000330: e582 1d3d 7a38 2fbb c932 14bd 1f50 293b
00000340: 1c89 54bc 7a0f 8bbb c5dd c5bc 2c4f 643c
00000350: 4428 563c ef2f 2e3c e52a 243d 5387 e1bc
00000360: bcec 523b c96c 90bc 4f24 1cbc a4fd bcbc
00000370: 9974 83bc 362e 1d3c 355b afbc f7f4 403c
00000380: 58e8 93bc e5ff 573c 6de4 183b 3d49 96bc
00000390: f599 683a 073d ff3b aa0f e33c db5f 4dbd
000003a0: edea 283c 78d4 8dbc 62b1 643c 29e1 e9bb
000003b0: 3ef1 95bb e154 eebb ebf7 f2bc 994d 0e3c
000003c0: 1778 d83b 217d bf3c 1861 af3c f9b1 08bb
000003d0: e866 863c 7326 66bc ef8d 20bd 8fc3 53bc
000003e0: 3963 c53c e9a4 0c3c 46fc fd3c 9567 f0ba
000003f0: f8ff 8c3c cde1 e63c 73a5 b53c 4f44 d63c
-0.017835272 0.0042054863 0.009504576 -5.6165636e-06 0.0241205 -0.0072508887 0.009601191 -0.012155767
-0.009369681 -0.008014945 -0.01993472 0.009389491 0.01716571 -0.039229732 -0.01466325 -0.0003487369
0.013710243 -0.02033786 -0.004947049 -0.0331523 -0.037929364 0.01626516 -0.03773967 0.01755147
0.01851834 -0.02296565 -0.00320229 -0.037896432 0.008040275 -0.033296607 -0.005724842 -0.023483608
-0.0025555154 -0.005926538 0.013755983 0.0101761455 -0.035871837 0.014098107 0.017585104 0.019931296
0.025138594 -0.023773387 -0.034249052 -0.026415097 0.009847391 -0.0012653926 0.012659289 -0.013613896
0.023337368 -0.015324134 0.012904691 -0.02397146 -0.017596437 -0.022869611 -0.055330154 0.010120164
-0.0030396527 0.025299376 -0.00027289113 -0.013462112 -0.0035216308 0.008226261 -0.0051736212 -0.013622126
-0.021337355 0.0080993585 -0.0049304795 0.0040443563 -0.009265801 -0.008806859 0.001350434 -0.00071277615
-0.0032725737 0.003027818 -0.026714757 -0.005451475 0.0013422993 -0.02496027 -0.021669503 0.0014102435
0.010999579 -0.012416947 0.00065264787 -0.022567766 -0.024251321 -0.0022287106 0.0088162245 0.001413775
0.015182164 -0.002481672 -0.02482158 -0.015346078 -0.023080973 -0.015342616 -0.01555468 -0.0052436097
-0.0100553855 -0.011503409 0.023542661 0.0010902444 -0.029176136 -0.012337295 0.028891325 -0.014203479
0.024655996 -0.03083639 -0.03424733 -0.01652701 0.025791645 0.01584706 -0.009795504 -0.030154467
-0.008174163 -0.023104087 0.024617651 -0.014340607 0.001367802 -0.016990429 -0.049406763 0.02162091
-0.03938023 0.024240471 -0.013365982 -0.011442661 -0.0019604207 -0.016908498 -0.011832716 -0.001995195
0.9766913 1.0151172 0.9977052 0.98804575 1.0303924 1.0014867 1.0089182 0.99247164
0.98768705 0.99916255 0.9800226 0.9925079 1.0107363 0.95873946 1.0192442 1.0043074
0.99091774 1.0073091 0.99541175 1.0031205 0.9734748 1.0050368 0.9933469 1.0215825
0.98545223 1.0012416 0.9909924 0.96441436 0.9986646 0.9724599 1.003386 0.9818677
0.97869736 0.97547865 0.9817668 0.9953049 0.9869021 1.0214283 1.0369086 1.0280493
0.9964856 0.9899287 0.9582368 0.9592943 0.9994772 0.9970257 1.0017122 0.98643184
1.0018991 0.984578 1.0096067 0.9871223 0.991058 0.9747834 0.94908196 1.011599
0.98852754 1.0191277 0.9913382 1.0013449 1.004386 1.0007793 0.9828584 1.0087897
-0.0025460096 0.015720988 0.025150098 0.0032901461 0.006708023 -0.0021005804 0.0052988627 0.00014973045
0.022165792 -0.0044404473 0.0046560373 -0.018855294 0.03845491 -0.0026736544 -0.036181245 0.002583511
-0.012972143 -0.0042437883 -0.0241536 0.013934892 0.0130711235 0.010631545 0.04007997 -0.027530348
0.0032184562 -0.017629998 -0.009530141 -0.023070164 -0.016046809 0.009593537 -0.021405796 0.011777154
-0.018055126 0.013183569 0.0023329512 -0.01834547 0.0008873039 0.0077892574 0.02771743 -0.050140243
0.010309917 -0.017313227 0.013958307 -0.007137437 -0.0045758775 -0.007273302 -0.029659232 0.008685493
0.0066061127 0.023375096 0.021408603 -0.0020858033 0.016406491 -0.014047253 -0.03919786 -0.012925043
0.024095165 0.0085842395 0.031004082 -0.0018341417 0.0172119 0.028183842 0.022173619 0.026155619

action_model._discrete_distribution.branches.0.bias f4 [6]
00000000: 4fc1 a43c 25e5 d5bb 2de3 293c 98d0 cbbb
00000010: 705a e13c 3df9 6abc
0.020111708 -0.0065275603 0.010369104 -0.0062199347 0.027508944 -0.01434165

action_model._discrete_distribution.branches.0.weight f4 [6, 64]
00000000: 6b69 0dbd 1fe8 71bc c634 80bc ad4f 2839
00000010: 0d5e 083d 447e c63c 60ee 443c 1cd7 553c
00000020: 22f6 9ebb ae5a 983b e896 89bb e81c 75ba
00000030: 37bd 1e3c 0c11 ddbc c258 b3bb 271a c73c
00000040: a53c 8fbc 69fd cdbc db1c c63c 856d 00bc
00000050: 87ea 8e3b d456 243b 75ad f9bc d51f 2fba
00000060: fbf6 ccbc 993e d33c 6348 833c dd7f 173d
00000070: e7fb 48bd 9831 11bc 9ba5 9f3c 9854 513c
00000080: 9771 093d 34e8 273b 6ba0 64bc 4f5d 5d3c
00000090: e133 cf3c 976e 4f3b 8808 15bd 9f0a d53b
000000a0: d510 82bb cd11 f3bc 8d68 463c 4ff0 df3c
000000b0: db3f 52bd de38 aa3c ec39 b3bb 7a1a 9ebc
000000c0: 378b 4dbb fca5 ac3b 1e22 01bd 284e 99bc
000000d0: 6aac 4cbc 1351 4dbd 305f a03c b35e 6abb
000000e0: 237b acbc 1c94 583d 5b3d 453b 711b 873c
000000f0: c557 d3bc 0be8 2d3c 3798 47ba 3491 0abd
00000100: b95d a3bc 3465 66bd a13c a73b f875 223d
00000110: 95d3 d23c f69d c83b 64c8 633c 68aa cfbb
00000120: 2d5b 883b 6871 633c db8d 293c 8e5f ca3c
00000130: fe73 6c3c 2781 533c 4e44 9c3c 26f7 0c3d
00000140: f66b a3bc cbd9 12bc 9220 173d 1c36 ffbc
00000150: 4af8 d73c 84fc cfbb 70f9 28bd 7ea0 013d
00000160: 33ec 1f39 9e22 453d be0a a2bb 5672 fe3c
00000170: b8c5 67bb 8fbd 7cbd be8f fbbb b941 803c
00000180: 0ef8 9dbc a639 993c ad93 d23a 21e2 0cbd
00000190: 21b6 533c a1c0 f5bc 9bf2 5ebd 668e b0bc
000001a0: ac20 db3c 6b2b 31bc 67d1 14bc a09c 98bb
000001b0: e0ab dbbc faa7 28bb 3044 213b 4b29 b93b
000001c0: ccea 043d 9271 783c 4ed8 59bc 0404 c6bc
000001d0: a586 8abc 2ceb 20bd 917b 0f3d f5e9 d3bc
000001e0: 9958 97bc 0ff1 aebc 1a5d 0bbb 5c28 aebc
000001f0: 772f cabc 6a06 5cba b276 c1bb 1bb0 82bc
00000200: c0f1 873c f8a0 2d3c e7af cb3c c6ac 89bc
00000210: bc40 19bd 5fa2 cfbc 91db d23a 014a 05bc
00000220: 7fd2 acbc bf5d 963c 22d0 84bb df3c f03a
00000230: 5220 12bc 40d2 4e3b 3051 6cbb 9062 28bd
00000240: 8c02 e1bb 1ea9 d73c d647 72bc d3dd be3c
00000250: d4e3 7cbc 9fd6 8a3c 618b 393d 811b 91bd
00000260: 6725 083d 1b26 14bd 54ae b5bc 68f2 2cbd
00000270: 3896 183c 367b f73b dd44 453c 2108 85bc
00000280: d29f 423c d866 55bc 77be 3ebc af22 d93c
00000290: eff4 bcbc bb9b 9c3c 6dc7 3f3d 269a 82bb
000002a0: 3bf9 483d 54e2 f3bb 92af 423d 9448 39bc
000002b0: 17ea 583d 6d4c 68bc e651 ac3c a210 4bbc
000002c0: 832c ad3c 265d 253c 7334 0a3d c2f5 373d
000002d0: 688d 6c3d ddeb 423d 732d 0ebd 36c2 76bc
000002e0: 991d 003d 68a7 72bc 814f b63b dee2 d4ba
000002f0: fec3 283d 5d21 1abc e525 203c 779b 443d
00000300: ee6d 4e3d c87a 253d 5839 823d 36f4 613c
00000310: 49be 343b d515 9cbc be91 b0bc 0e1e b13c
00000320: 9f48 8e3b 0182 bfbc fcb4 2cbc 2aa3 86bc
00000330: 961a 383c d6c4 823c 16ef 5dbb a000 12bd
00000340: 1c93 54ba 0ba6 eabc 1dbf cfbc d108 953c
00000350: eb39 85bc 1927 eebb 2748 263d 7f13 26bd
00000360: 77da 1cba 7b79 17bd 5c5a 833c 7f1e 48bc
00000370: 2fc2 8d3b 8219 db3c 12ab 0d3d 388d a6bc
00000380: 8eae 88bc 8694 433d 42d0 a1bc 3f9e 9d3c
00000390: 8a19 08bd d53d f6bb 5ee5 b13c eba2 683b
000003a0: 20bc e5bc deea de3c b923 47bd bdd7 fabc
000003b0: d436 043c 376a ae3c 03ee f0bc 4c66 743c
000003c0: 0f37 e1bc 03cc a4bc e3c3 a93c 6b51 da3c
000003d0: 78b5 a6bc 638b 143c 7405 283c f97a 4b3d
000003e0: ad58 733c 76a9 e13c aa84 3f3d b0b9 a13c
000003f0: bfcb fa3b 9dcb c73b 2916 81bb be4b 783c
-0.034524363 -0.014764815 -0.015650164 0.0001605141 0.03329282 0.02423013 0.012019724 0.013051774
-0.0048511187 0.0046494817 -0.0041988976 -0.00093503157 0.009688667 -0.026985668 -0.0054732272 0.024304463
-0.017484972 -0.02514525 0.024183681 -0.0078386115 0.004361454 0.0025076168 -0.030478219 -0.00066804636
-0.025020113 0.025786685 0.016025728 0.036987174 -0.049068358 -0.008861922 0.019488147 0.012776516
0.033555593 0.0025620582 -0.013954262 0.013511016 0.025293292 0.003165161 -0.03638509 0.0065015103
-0.0039692917 -0.029671574 0.012109888 0.027336268 -0.05133043 0.02077907 -0.0054695513 -0.019299734
-0.0031363496 0.0052688103 -0.031526677 -0.018714026 -0.012492279 -0.050126147 0.019576639 -0.0035762012
-0.02105481 0.052875623 0.0030096385 0.016492577 -0.025798688 0.010614405 -0.00076139293 -0.033829883
-0.019942151 -0.05624886 0.005103663 0.039663285 0.025735656 0.006122346 0.013902757 -0.0063374527
0.0041612596 0.013882019 0.010348762 0.024703767 0.014431952 0.01290921 0.019075539 0.034415387
-0.01994894 -0.008963059 0.036896296 -0.031153731 0.02636351 -0.006347241 -0.041253507 0.031647198
0.00015251413 0.048128717 -0.004945128 0.031060379 -0.0035365652 -0.061704215 -0.0076770475 0.015656339
-0.01928332 0.018704247 0.0016065739 -0.03439534 0.012921841 -0.02999908 -0.054430585 -0.021552276
0.026748978 -0.010813574 -0.0090831285 -0.004657343 -0.026815355 -0.0025734887 0.0024607293 0.0056506745
0.032450482 0.015163796 -0.0132962 -0.024171837 -0.016909907 -0.039286777 0.03502995 -0.025868395
-0.018474864 -0.02135518 -0.002126521 -0.02125948 -0.024680836 -0.000839329 -0.005904042 -0.015953114
0.016594768 0.01059746 0.02486415 -0.016806018 -0.03741525 -0.02534598 0.0016087164 -0.00813532
-0.021096466 0.018355248 -0.0040531317 0.0018328688 -0.008918839 0.0031558424 -0.0036059134 -0.04110962
-0.0068667587 0.026325759 -0.014787635 0.023299133 -0.015435178 0.016948042 0.045298938 -0.07085324
0.033238795 -0.036169153 -0.022177853 -0.042223364 0.009313159 0.0075525297 0.012040344 -0.016239228
0.011878924 -0.013025008 -0.01164209 0.026505796 -0.023066012 0.019117227 0.046821047 -0.003985661
0.04906581 -0.007442752 0.04753072 -0.011308808 0.05295762 -0.014178378 0.021035146 -0.012394102
0.021139389 0.010093009 0.033741426 0.044912107 0.057752043 0.047588218 -0.034711313 -0.015060952
0.031278227 -0.014810421 0.005563677 -0.0016241928 0.041202538 -0.0094073685 0.00977466 0.047999825
0.050397806 0.040400296 0.06358594 0.013791135 0.002757924 -0.01905338 -0.02155387 0.021620777
0.004342153 -0.02337742 -0.010541197 -0.016435225 0.011236807 0.015963 -0.003386443 -0.035645127
-0.0008109079 -0.028643629 -0.025359685 0.01819268 -0.016262969 -0.0072678444 0.040596154 -0.040545937
-0.00059834815 -0.036981087 0.016034298 -0.012214302 0.004326127 0.026745562 0.034586973 -0.02033101
-0.016684797 0.047749065 -0.019752625 0.019240497 -0.03322748 -0.007514695 0.021715816 0.0035497497
-0.028043807 0.027211603 -0.048618052 -0.03062045 0.008069713 0.021290882 -0.029410368 0.014916968
-0.027492074 -0.020116812 0.020723289 0.026650151 -0.020350203 0.0090664355 0.010255206 0.049677823
0.014852685 0.027546626 0.046757378 0.019741863 0.007653683 0.0060972706 -0.0039394093 0.015154777

network_body.linear_encoder.seq_layers.0.bias f4 [128]
00000000: 4f87 433b 2925 943c d488 bdbc 372d 9b3a
00000010: 89ce cbbb 22db b03a ec37 c03b 29f2 c33b
00000020: 6fd7 253c c934 2d3b a23d 913c 98a3 24bc
00000030: 650d 85bc ef82 1ebb 1130 13bc f10a 95bc
00000040: 333c 993c 9072 ee3c 508e abbb 770b 0b3c
00000050: f62e 65bb 0bea 96bc 7b44 043c 9f4b 29bc
00000060: ccd3 333c 671b 02bc 4666 b3bc 7583 6abc
00000070: 323a 883c 80ee 5c3a b122 933c e8dc 97bc
00000080: ac3e 613c 8151 1f3c 9afd 3d3c 7bee 43bc
00000090: 69ae 473c dd9c ba3c 467a 203c e15a 243c
000000a0: 82b2 03bb 4b05 513c 1f33 333c 12d5 e4bc
000000b0: bfb4 52bc 4d0b 1a3b 79f9 003c 08e8 c9bb
000000c0: 3419 7b3b 8252 973c 96f5 02bc 504d 06bc
000000d0: 7b1d d83a da8c fa3c 193c 75bc 64a5 4dbc
000000e0: becf 533a b932 a93c 8d84 e6ba fd07 053c
000000f0: 946b 373c 79c7 97bc ce3f 79bb 2b4a 253d
00000100: 1f98 d23c a9df 8d3c 2384 f1bb 08c1 3d3c
00000110: 9f8a 9aba fec5 abbb 6f5b 8a3c f87b 623b
00000120: 40dc 8a3c 462e d83c cee2 56bc 18ea 463b
00000130: e93d 043c 8e00 6a3b 4ef1 de39 192d 56bc
00000140: d646 2c3a 955d 513c 736b a33c beee 87bc
00000150: 1b85 61bc e592 95bc 27e1 32bd 65b1 883a
00000160: 2196 51bc 78b8 123c 74ef 34bc 6f08 53bc
00000170: c154 273c 58fa f73b ed0a b13c be54 50bc
00000180: 747b 68bc 8745 183c d59a 7ebc d96c 513b
00000190: e024 9f3a e7fc 88bc cc70 8e3c 602d 5dbc
000001a0: 7e7b ff3b 792f d2bb 9195 ddbc 0748 03bc
000001b0: 2876 153c b8ba cdbb cdad 293c bd0d d23a
000001c0: 6d72 d83b 717a 6f3b 31b5 1d3c b143 f7bc
000001d0: 27a9 e23b b275 eeba 5031 46bc edc0 6cbc
000001e0: 53fc 8bbc 1ee4 043d f9e2 21bc c7b6 a83b
000001f0: 298b 67bb c1ca 8cbc 32cc 823c ca9f c7bc
0.002983529 0.018084126 -0.023136534 0.0011839037 -0.0062196893 0.0013493041 0.0058660414 0.0059797955
0.010122164 0.0026429167 0.017729584 -0.010048769 -0.016241739 -0.002418693 -0.008983628 -0.018193694
0.018705463 0.029107362 -0.005235471 0.00848662 -0.0034970618 -0.018422147 0.008072968 -0.010332971
0.010975789 -0.007941104 -0.021899354 -0.014313568 0.016629312 0.0008427873 0.017960878 -0.018537953
0.013747852 0.009724022 0.011596108 -0.011958714 0.012187579 0.022779876 0.009794777 0.010031433
-0.0020095413 0.01275761 0.010937481 -0.027933631 -0.012860476 0.002350527 0.007871979 -0.0061616935
0.0038314583 0.01847196 -0.007993123 -0.008197144 0.0016488278 0.030584741 -0.014967942 -0.012551639
0.0008079967 0.02065407 -0.0017587111 0.00811958 0.011195082 -0.018527733 -0.0038032415 0.040353935
0.025707303 0.017318564 -0.0073704883 0.011581667 -0.001179058 -0.0052421084 0.016889302 0.0034558754
0.016950727 0.026389252 -0.013115598 0.0030351933 0.008071401 0.0035705897 0.00042522926 -0.013072276
0.00065718347 0.012778659 0.019948697 -0.016593333 -0.013764645 -0.018258521 -0.043671753 0.0010428844
-0.012792141 0.008955114 -0.011043418 -0.012880429 0.010213078 0.007567685 0.021611655 -0.012715517
-0.01418959 0.00929392 -0.0155398445 0.0031955747 0.0012141727 -0.016722156 0.01738777 -0.013499588
0.007796704 -0.0064143506 -0.027048858 -0.008012778 0.009122409 -0.006278362 0.010356379 0.0016025823
0.0066054375 0.0036541487 0.009625719 -0.030183645 0.006917137 -0.0018193035 -0.012096718 -0.014450294
-0.017088091 0.032444112 -0.009880775 0.005148742 -0.0035330749 -0.017186524 0.015966509 -0.024368186

network_body.linear_encoder.seq_layers.0.weight f4 [128, 247]
00000000: 5b53 77bd 02b7 66bd d8cf a83d a2dd 56bd
00000010: bd3c 413d 71d5 8dbc 7e9b 873c 2e17 82bd
00000020: d53f 73bd f736 8f3d 5953 4f3d 17f0 5fbd
00000030: 6b65 41bd 35f6 00be 7c7b 893c 789b df3b
00000040: 85e8 acbd a9a9 013b 128c 05bd 49fb 5dbd
00000050: 7297 19bd d316 d63b a841 093d a886 8b3d
00000060: 146e 1a3c eeb5 fcbd ad63 2a3d 24cc 8d3d
00000070: b701 aabc 79f2 6cbd 9460 6d3c 5f7f 7b3d
00000080: a7fd dfbc 3fc4 603d 03d2 ab3c f86b 1b3d
00000090: bfc0 8bbb 80aa 213c 2b38 19be 9dc3 a53c
000000a0: 87ab 8c3c 82fb 7f3d 6694 753c 7545 b33c
000000b0: a091 193e 68a1 4bbd 2a4e 68bd 79f7 68bd
000000c0: fd15 51bd 9a54 0dbd 9d86 703c 31df dc3d
000000d0: 548a b5bc e5e2 28bd 1e42 553d 4655 823d
000000e0: a877 af3d 65c6 cebd 1548 663c f7db 833c
000000f0: 5963 bdbd e3c7 003d 7194 ebbb 279c 513d
00000100: 9e93 c43c 5e8d 963d 500e 63bd 4aac c1bc
00000110: c169 68bb 6dbf f3bc 8a21 cabd deba 413d
00000120: 5fad 05bd 3957 903c 1d68 4c3d 3e09 8b3b
00000130: 40b7 f13b ff6d 8fbd dce0 babd f868 d03d
00000140: 7fc0 2ebc bc85 1abd 1b8c ae3c 1a02 65bd
00000150: 8f90 bbbc 3975 83bc e633 60bc 3c2f 243d
00000160: d0fb 233d 8862 8cbc 062e 263d c484 14bd
00000170: cd8d 77bd 148e bb3d ff8f aebc a7ee be3d
00000180: e79d 58bc 417d 7c3d 37ea 163c a37e 08bc
00000190: 9bb4 7cbd 37fd 213d 9f83 a5bd 6933 2f3c
000001a0: 8e86 483c 37c5 643d 5c71 153d 6311 cb3d
000001b0: 0f59 023d b92f f0bc 1904 fbbd 61be e8bc
000001c0: df6b 82bd 25b8 b8bc c9f6 06be 0738 51bd
000001d0: 5c53 663d 9fde 5dbd 53b6 f43d 1cbb 12bb
000001e0: 8cf7 98bd 25b0 9abc 4e84 febc a7cf 5b3d
000001f0: bc68 8cbd be50 fdbd 35f1 c63d c582 8f3b
00000200: b56a e33a 8f97 15bd f894 b5bc 2a50 7fbd
00000210: 63c7 c5bd 1742 69bc b23e 903d b104 d73d
00000220: 5f57 59bd 463d 46bb 7aa0 f0bd 984c 9b3c
00000230: 61ad 94bb 9519 41bd 697c 08bb c9b1 88bd
00000240: c6ef 05bb 2bb1 aa3d cd1c 4d3d d39d 563c
00000250: f650 883c 7162 e6bc a1c0 91bd 98dd 213c
00000260: 5916 92bd b411 87bc d9a9 96bd fd11 ef3d
00000270: e9db 2c3d 558b 633d 9b0f d63c 25b7 b33d
00000280: 64e3 3c3d adc2 e6bd 4e91 c93d f346 fc3c
00000290: ab81 853d 24fe 543d ce24 14bd 0c3a 533d
000002a0: 8363 f53d d990 b7bd b7e8 f83b 4ab6 2ebd
000002b0: b5cc acbd adf3 59bb 9fd3 353d 717b 82bc
000002c0: 177d 923d 8503 6cbc e62f a4ba 56ef d7bd
000002d0: cd72 f5bc 2841 25bc 3f35 45bc 7b7e 623b
000002e0: e76e 283d 6cb8 bc3b 19de 543d 3015 793d
000002f0: 93f1 df3d d4b1 17be 4499 76bc 45f7 273e
00000300: 6bfd b5bd af06 bf3c 9055 853d e20b bf3d
00000310: 26ee ecbb 58fe 9dbd 096c c1bc 19cf 6d3d
00000320: 7d70 7dbd ec6a 8b3d 4f5b c53d 13e3 bcbc
00000330: 3cda 3b3d 593d da3a 4c21 8cbd d5b6 2f3d
00000340: 9ac2 2d3d 88fc 053c 1748 56bd 0a10 7dbd
00000350: 5afb 48bd c766 ea3a 4db0 9f3d 57bc 68bd
00000360: 04fd 27bd cc87 46bd bed3 6a3d dff9 903d
00000370: 22a5 39bd 8ca1 b33d f6dd 933d 24e3 ccbc
00000380: dc03 85bd 3d09 a5bd d07a a33d 23e9 be3c
00000390: 091f 49bb 3760 b13d 2e1f 3a3c c4dd 333d
000003a0: fbe7 963d 9ad6 e6bd 13ea bdbc 8ff7 ed3c
000003b0: 4885 d53d 3915 973d e022 aa3c b854 73bd
000003c0: 1bc6 143d 7837 38bd 03a2 053d 6074 e93a
000003d0: 6a76 283d d074 e9bc d038 0f3c 8b39 a0bd
000003e0: b516 e23b 7f41 24bd a9a6 fc3d 053e 49bd
000003f0: 3a24 9e3c cbc4 44bd 48e6 8f3c bcc8 a4bd
-0.06038223 -0.056326874 0.08242768 -0.05245746 0.047177065 -0.01731369 0.016553637 -0.063520774
-0.059387047 0.069929056 0.050616596 -0.054672327 -0.04721586 -0.1259392 0.016782515 0.0068239532
-0.08442787 0.0019784963 -0.032604285 -0.054194722 -0.037497945 0.0065334826 0.03350988 0.06812793
0.009425659 -0.12339388 0.041598964 0.06923702 -0.02075277 -0.057848427 0.014488358 0.061400767
-0.02734263 0.054874655 0.020974165 0.037944764 -0.0042649205 0.0098673105 -0.14962833 0.020234877
0.017171634 0.062495716 0.014988994 0.021883706 0.14996958 -0.049714476 -0.056715168 -0.056876633
-0.05104636 -0.03450451 0.014680532 0.10784758 -0.022160687 -0.04123201 0.052065007 0.06363921
0.085677445 -0.100964345 0.014055272 0.016096098 -0.09247465 0.031440627 -0.0071893265 0.05117431
0.02399617 0.073511824 -0.05543357 -0.023641724 -0.0035463425 -0.029754365 -0.09869678 0.04729735
-0.032636043 0.017619716 0.049903978 0.004243045 0.0073765814 -0.07003402 -0.0912492 0.10176271
-0.010666012 -0.037725195 0.021307042 -0.055910207 -0.02289608 -0.016047107 -0.013684249 0.04008411
0.04003507 -0.017136827 0.040571235 -0.036259428 -0.060437966 0.091579586 -0.021308897 0.09322863
-0.013221241 0.06164289 0.009211115 -0.008330974 -0.061695676 0.039548125 -0.08081745 0.0106934095
0.012239112 0.05585214 0.03648506 0.09915426 0.031823214 -0.029319631 -0.12256641 -0.028411092
-0.06368231 -0.022548744 -0.13180079 -0.051078822 0.05623184 -0.054167386 0.11948838 -0.0022389358
-0.07469091 -0.01888282 -0.031068947 0.05366483 -0.06855914 -0.12368916 0.09713975 0.0043796026
0.0017350527 -0.03652149 -0.02216576 -0.06233231 -0.096571706 -0.014236948 0.07043208 0.10498942
-0.05306184 -0.0030248924 -0.117493585 0.018957421 -0.00453727 -0.047143538 -0.0020826107 -0.06674535
-0.0020437106 0.08334573 0.050076295 0.013099152 0.016640168 -0.028123112 -0.07116819 0.009879492
-0.07133169 -0.016487934 -0.073566146 0.11673353 0.04220191 0.0555528 0.026130488 0.087751664
0.046115294 -0.112676 0.09842168 0.03079555 0.06518873 0.05200018 -0.036167912 0.05156903
0.11981871 -0.089631744 0.007596101 -0.042654313 -0.08437482 -0.0033256814 0.04439127 -0.015928002
0.07152765 -0.014405136 -0.0012526482 -0.105436966 -0.029961968 -0.010086335 -0.012036621 0.0034560252
0.04112139 0.0057592895 0.05196962 0.06081122 0.109347485 -0.1481393 -0.01505119 0.1640292
-0.08886226 0.023318617 0.065104604 0.09328438 -0.007230538 -0.07714528 -0.023611085 0.05805883
-0.061874855 0.06807503 0.09636556 -0.023057496 0.04586242 0.0016650363 -0.068422884 0.04289897
0.042421915 0.008177884 -0.052314844 -0.061782874 -0.049067833 0.0017883413 0.077972986 -0.05682024
-0.04101278 -0.04846935 0.05733084 0.07078909 -0.0453235 0.08771047 0.0722007 -0.025010653
-0.06494877 -0.08058403 0.07982409 0.023304528 -0.0030688664 0.0866093 0.011359973 0.043912664
0.073684655 -0.11271401 -0.023182904 0.02904871 0.10425812 0.07377095 0.020768583 -0.059406966
0.03632174 -0.044974774 0.03262521 0.0017811172 0.041128553 -0.028498083 0.0087415725 -0.078234755
0.0068996795 -0.040101524 0.123364754 -0.049131412 0.019304384 -0.04803924 0.017565861 -0.080460995

network_body.linear_encoder.seq_layers.2.bias f4 [128]
00000000: eb83 56bc cf9a 443b 7983 94bb 4384 b73c
00000010: 7ace 80bb 2dcf 223c e9fb e43b 4551 53bc
00000020: 9990 1dbd 7c3e 1fbd ee40 8e3b 1736 7cbc
00000030: 2c4b 463d e243 cfbc 6584 3b3c baa4 073d
00000040: 5d2c 9a3b 0018 e2bb 555b 8abc fd9a e1bc
00000050: 9b77 403c 4eb0 cbbc 9fe5 053c e3b9 c7b9
00000060: 5add 213c b72a 69bb c2c3 81bc b3bc 8a3b
00000070: e7e4 3ebb bf03 733c a61c 40bc d5b7 10bc
00000080: ed19 8e3c 4eeb 48bc d776 08bd 6226 673c
00000090: 787b 303d 00bb 6dbc e952 8b3b 575f 6e3c
000000a0: 615d 6a3c 113c 17bc c9b9 2abd a716 9bbc
000000b0: bfbb 0f3c 40c3 04bd 9f3e 143b b6a1 60bc
000000c0: 6139 6bb7 0171 d7bb bc1a 233c 1265 a83b
000000d0: a4d6 66bb 1e99 093c f7f2 3cbb 2519 7a3a
000000e0: 4bef f8bc dae2 823c 79b3 873c 2314 cbbb
000000f0: 49d6 5ebc 7977 0c3d da55 883c 01fa f73c
00000100: 2cbf fc3c 9bb2 bb3c 8970 11bd 3f91 873b
00000110: 5efd b2bb 2f8b 623c b316 90bc d972 43bb
00000120: c975 5b3c be5f 803c 4663 d1bc 9e4d b3bb
00000130: b889 2e3c eb72 8c3c 449c d23c a04f e53c
00000140: e15b cabc 9efa d1bc ed0e bbbc fea8 233c
00000150: 75c5 233d adf8 efbc 9565 bd3c c8f3 3cbc
00000160: 85f1 2e3b 3db6 283c b3d7 df3a 6267 903c
00000170: 9085 873c cad9 e93b fa3c f4ba 6363 ff3c
00000180: 5459 363d 309a a2bb ea71 2dbb a5f3 22bc
00000190: b2cb cfbc bfd9 65bc 5e62 613b a53f df3b
000001a0: 7262 8ebb afc2 dcba 5e62 93bc a426 78bb
000001b0: d1b6 8b3c 264c f33c fd02 d43b f4dc 8e3c
000001c0: 24b3 44bc 036e 233c ec66 0cbb eb89 2f3c
000001d0: d175 763a d034 b2b9 3775 0dbb b223 263d
000001e0: 0c0a ad3b 2443 2a3b 5840 903c 275e 82bb
000001f0: 605f 77bc 9a69 503c 412f 9e3c da0e 7bba
-0.013092975 0.00299995 -0.0045322743 0.022401934 -0.003930864 0.00993709 0.006988038 -0.012897794
-0.038467977 -0.03887795 0.0043412363 -0.015393755 0.048411533 -0.025300924 0.01144514 0.03311608
0.0047049955 -0.0068998337 -0.016889254 -0.027539724 0.011747266 -0.024864342 0.008172422 -0.00038094734
0.0098794345 -0.0035578439 -0.015840415 0.0042339205 -0.0029128136 0.014832436 -0.01172558 -0.0088328915
0.017346347 -0.012263132 -0.03331646 0.014108272 0.0430865 -0.014509916 0.004251827 0.014549098
0.01430449 -0.00923063 -0.041681085 -0.0189317 0.0087727895 -0.032412767 0.0022620333 -0.01371043
-1.4020451e-05 -0.0065747504 0.009955104 0.0051390016 -0.003522315 0.008398322 -0.0028831342 0.000954049
-0.030387541 0.015977312 0.016565071 -0.006197469 -0.013600894 0.034293626 0.0166425 0.030270578
0.030852877 0.022912314 -0.035507713 0.0041371877 -0.0054623326 0.013827129 -0.017588949 -0.0029823093
0.013394781 0.015670653 -0.025560033 -0.005471899 0.010652952 0.01714464 0.025709279 0.02799207
-0.024702014 -0.025632199 -0.022834266 0.009989021 0.03998323 -0.029293383 0.023119727 -0.011532731
0.002669425 0.010297355 0.0017077833 0.017627422 0.01654318 0.007136558 -0.0018633895 0.031175321
0.044518784 -0.0049622282 -0.0026465603 -0.009945785 -0.025365684 -0.0140289655 0.0034390907 0.006813007
-0.0043452317 -0.0016842688 -0.017991241 -0.0037864828 0.017054947 0.029699396 0.006470083 0.017439343
-0.012005601 0.009974959 -0.002142365 0.010714035 0.0009401711 -0.00033990154 -0.0021584758 0.040561385
0.0052807387 0.002597996 0.017608806 -0.003978509 -0.015098423 0.01272049 0.019309642 -0.0009577103

network_body.linear_encoder.seq_layers.2.weight f4 [128, 128]
00000000: 7597 923d dfba 6a3e b2b9 df3c 2877 0f3e
00000010: 9bcd f33d 5d48 64bb 7749 53bd af53 8bbc
00000020: 7188 523d ee88 083e 2e5f a93a c526 a93d
00000030: d793 18be 113b e9bb 78df 243e 3682 03bd
00000040: 62f8 9f3d 240b 1fbd ebb2 503d 81cc 033e
00000050: 8030 013c 5348 d7bc fedd 1cbe 9279 18be
00000060: 1433 033e 9cf9 cd3d 70a8 f73c 5ba1 d43c
00000070: 5a94 d93c f6c8 053e 41e8 743d 1059 60bd
00000080: 084b 84ba 2485 b2bd fa9a 813d dbde 553d
00000090: 52d3 2a3d da09 72bd 17b8 0f3e c4b0 8a3e
000000a0: 34ee f5bc daaa c2bd 1fc8 f43c dc16 5abe
000000b0: 2087 003e 2ce8 39ba 68c3 a4bd d1d8 123e
000000c0: e777 553d 401f 183d a684 32bd c006 ce3c
000000d0: c9a2 013c a473 1c3e 043c 8b3d adca 85bd
000000e0: 192d 203e 9b35 5e3d ead4 09bd ff30 d93d
000000f0: 9069 333d e7e1 88bb 6134 cbbd 793d 5a3d
00000100: 6ae0 7e3d 95c9 723c b8fa 9b3d b8e6 aebd
00000110: e79e b4bd 6750 b2bb 714a 903d a645 853c
00000120: 747e 01be 08b4 b2bd 41cc d6bd 0c14 2a3d
00000130: ab05 0ebe a09b 983d c054 0f3e cce7 263e
00000140: 75f3 a43d d186 803d a2ff 8abd 9494 293e
00000150: cbc0 e7bb 4e4c 503c ead0 173d 9e92 23bd
00000160: c8ac f93d 9040 98bd f6db af3d f80f 3f3d
00000170: 4ab3 63be 91ee adbd 5dc4 07be 11eb 67bd
00000180: 5304 9b3c eb8d 123e e1ab ac3b e353 47bd
00000190: c020 adbd 3636 5d3d 0ff1 14bd 1eb6 2cbd
000001a0: 3d4c df3c 11dd b03d 15c2 973d 19bb a4bd
000001b0: 9948 59bd 56d4 2e3d bc22 0d3e e846 753d
000001c0: 189d 2abc a1af 2abb 6f5b 7c3d c993 8abd
000001d0: 970f 043d 2572 c8bd 7118 d7bc a941 71be
000001e0: 774f 67bd 2995 85bd 6554 b7bc 2dbb 233e
000001f0: b4a5 8abd a90b 773d 1ed6 273d 8257 ee3d
00000200: 6ac7 603d 8ac6 babc 0933 f93c 5bac 23bb
00000210: ec73 27bc d07b b83d 79bb e3bc 8225 d4bd
00000220: 1515 e0bc 3ca0 8cbd 4dbd 3c3d f608 d0bc
00000230: 8080 603b 8d2c 2cbd 0841 d03d 5db6 c1bd
00000240: b973 febd ba22 973c 7a4f fb3d 382b d23d
00000250: d9c7 2b3e 3a42 de3d 680d 343e 0ebb 14be
00000260: f434 783d 7243 bcbd ce9d 76bd 87ef e63d
00000270: a316 093d 99e7 c0bd 02e6 f1bc 5fd0 d7bd
00000280: f164 93bc 13ec 48be c0e7 c6bc e7e1 fb3d
00000290: 5459 3d3c e528 16bd a806 1a3d f441 b5bd
000002a0: 70a6 473e abc0 72bd 2672 1c3e e540 7fbc
000002b0: bb33 053d dffb 083e e71f 473e 11ad fabd
000002c0: 7acc 0ebd 83b1 ba3d 20ef 7b3d 7dca 473e
000002d0: 44ad 80bd 4548 05bc 061c d6bb 2b8b 1c3e
000002e0: 85e4 0eb9 c444 babd a6ef d73d 429d 63bd
000002f0: a71c e7bd 9612 803c 5038 83bc d374 8f3d
00000300: ce3d ddbd c7a5 19be 6003 193d 9af2 29bd
00000310: 221f 00bd 384a 7d3c 8569 ce3d 5807 c83d
00000320: 4c41 cb3d bfaf e83d 6406 813d 0fdc 0abe
00000330: 6dbb 8c3b cdc8 a03d 72bc b93d d4d3 5abd
00000340: 122e e1bd 8596 dabd a8d9 443d 414f bcbd
00000350: a321 21bd 3a14 34bc 3c29 bd3d f83f 0d3c
00000360: 9b48 5e3d 2661 983d bc32 233d 2ae3 f13d
00000370: 8420 49bc 4f0f a7bd 8f33 d03d 354c 883d
00000380: 08b7 c8bc 0223 91bd 19f3 513d d688 b03d
00000390: b256 9c3d 7da4 963d 2890 a8bd 9a01 f7bd
000003a0: 5d8f cb3d e0c8 6d3d bbae 9ebc dce7 e4bd
000003b0: f028 8b3e 2815 173e 3bcc b53c 29e1 debd
000003c0: 9878 efbd b4bb 16bc cd3c 94bd ea0d c9bd
000003d0: ad5c 1fbe add4 b03d 5ccf 4e3d 816c 143e
000003e0: 7aec 1a3d cd96 4d3d acdb 1abe 18b9 bbbd
000003f0: c646 1ebd 8a67 22bd 7d7d acbc 0459 c13d
0.071577944 0.22922848 0.027310226 0.14010298 0.119044505 -0.003483317 -0.051583733 -0.017007677
0.051399652 0.13333485 0.0012922043 0.08259348 -0.14900146 -0.007117637 0.16100872 -0.0321066
0.07811047 -0.038828984 0.05095188 0.12870981 0.007885098 -0.026279604 -0.15319058 -0.14890125
0.12812454 0.10057375 0.030231684 0.025955847 0.026559997 0.13064942 0.059791807 -0.054772437
-0.0010093162 -0.08716801 0.063283876 0.052214485 0.041705437 -0.059091426 0.14035068 0.27087986
-0.03002081 -0.095052436 0.029880581 -0.21297783 0.12551546 -0.0007091786 -0.08045083 0.14340521
0.0521163 0.037139177 -0.043583535 0.025149703 0.007912346 0.15278488 0.067985564 -0.06532798
0.15642203 0.05425034 -0.033650316 0.106050484 0.043801844 -0.0041773203 -0.099221 0.05328128
0.062225737 0.014818569 0.0761618 -0.085401 -0.08819371 -0.0054417136 0.070454486 0.016268563
-0.12645894 -0.087257445 -0.10488177 0.041523024 -0.1386935 0.07451558 0.13997173 0.16299361
0.08054248 0.06275714 -0.06787039 0.16560584 -0.0070725433 0.012713505 0.03706447 -0.039934747
0.121911585 -0.07434189 0.08586876 0.04664609 -0.22236362 -0.084927686 -0.132585 -0.05662066
0.01892296 0.1431195 0.005269513 -0.048663985 -0.08453512 0.054006778 -0.036362704 -0.042165868
0.027258033 0.08635915 0.07410065 -0.080434985 -0.05304775 0.042682968 0.13782781 0.059882075
-0.010413431 -0.0026044624 0.061610635 -0.06766469 0.03224143 -0.09787396 -0.026256772 -0.23560204
-0.056472268 -0.06522591 -0.02237911 0.1598937 -0.067698866 0.060313854 0.040975682 0.116377845
0.054877676 -0.022799749 0.030419843 -0.0024974558 -0.010220509 0.0900799 -0.027799355 -0.103587165
-0.027353803 -0.068665 0.04607897 -0.025394898 0.003425628 -0.042034674 0.10168654 -0.09458611
-0.12424416 0.018449176 0.12271018 0.102621496 0.16775455 0.108524755 0.17583239 -0.1452448
0.060597375 -0.09192552 -0.060209088 0.11276155 0.033468854 -0.09419174 -0.029528622 -0.105377905
-0.017992469 -0.19621305 -0.024280429 0.12298947 0.011556942 -0.036660094 0.037604004 -0.0885047
0.19497085 -0.059265774 0.15277919 -0.015579437 0.032520037 0.13377331 0.19445764 -0.12240041
-0.034862973 0.09115889 0.061507344 0.19510837 -0.06283048 -0.008134906 -0.0065341024 0.15287463
-0.00013627305 -0.09095147 0.10543756 -0.055569895 -0.11284762 0.015633862 -0.016018063 0.07004704
-0.10802804 -0.15004645 0.037356734 -0.04149113 -0.03127969 0.01545959 0.1007872 0.09767026
0.09924564 0.11361646 0.06300047 -0.13560508 0.004294804 0.078508 0.09069146 -0.05342467
-0.10995115 -0.106732406 0.048059136 -0.09194804 -0.03933872 -0.0109911505 0.092363805 0.008621208
0.05426846 0.074404046 0.039843306 0.11810906 -0.012275819 -0.08157217 0.10166084 0.0665516
-0.024501339 -0.07086755 0.051257227 0.086198494 0.07633723 0.073555924 -0.082306206 -0.12060852
0.09939454 0.058052897 -0.019370427 -0.11177036 0.2717967 0.14754164 0.022192111 -0.1088279
-0.11692923 -0.009200025 -0.07238159 -0.09817107 -0.15562697 0.08634315 0.050490722 0.14494516
0.037823178 0.050192643 -0.1512286 -0.09166163 -0.038641714 -0.039649524 -0.021055931 0.094408065
