results/bomber-v3/Bomberman/Bomberman-1000420.onnx (onnx, 396204 bytes, 9 tensors)

103 f4 [1, 256, 128]
000000 6c 6d 16 be 93 fe 07 be 3c 46 8f 3d ca 25 88 bd
       -0.14690179 -0.13280706 0.06995818 -0.06647833
000010 e5 48 4d 3e d5 51 20 be 1a a7 37 3e ad d8 55 3e
       0.20047338 -0.15656216 0.17934838 0.20883437
000020 9c c5 e7 bd f9 cd 16 3e a1 14 76 3d ca ba b2 bc
       -0.11316988 0.1472701 0.060078267 -0.021817584
000030 30 92 4a bd 2f 91 93 3d 09 05 39 bd fb 63 ae 3d
       -0.04945582 0.07205426 -0.045170818 0.085151635
000040 4d 37 ff 3d 44 53 cb 3c 70 bf 2a bd d2 c7 13 3e
       0.1246172 0.024819978 -0.041686475 0.14431694
000050 97 7a a0 3d 98 9f 5f 3d df 94 24 be 36 c8 65 bd
       0.07835882 0.05459556 -0.16072415 -0.05609914
000060 0d 22 19 be 69 1e f6 3c 25 17 ca bd 77 59 01 3e
       -0.14954396 0.030043798 -0.09867696 0.12631784
000070 cd a1 17 3e 2b 74 03 3b 73 05 59 3d 61 85 2b bd
       0.14807816 0.0020058255 0.052983712 -0.041875247
000080 ee 32 18 be 7c 14 12 3e 15 ab 2e 3d 91 33 f4 bc
       -0.14863178 0.14265627 0.042643625 -0.029809745
000090 89 8d c4 3d 1e dc e5 3c 46 23 09 be 11 56 e8 bc
       0.09597308 0.028059062 -0.13392362 -0.028361352
0000a0 d1 1e 16 be 7a 03 b8 bd 51 ad 1c bb c5 6d 4e bc
       -0.14660193 -0.08985038 -0.0023907016 -0.012599413
0000b0 f2 34 b9 3d 2e 9b 4a 3b d5 e8 10 be a0 8c 88 3d
       0.09043302 0.0030915248 -0.14151318 0.06667447
0000c0 92 03 dd bd 43 41 30 3e 49 2a 10 3e e3 3f 2a 3d
       -0.107916966 0.17212395 0.1407863 0.041564833
0000d0 ea 6f 16 3e ee ff 95 bd 30 89 10 be 3a 67 c2 bd
       0.1469113 -0.07324205 -0.14114833 -0.09492345
0000e0 6a d0 24 bc 38 96 41 be 59 97 78 3d 5e e9 d8 bb
       -0.010059455 -0.1890496 0.06069121 -0.0066196164
0000f0 bb 6f c7 3d 6c e3 7b 3c 05 ae 07 3d d9 53 07 3e
       0.09738108 0.015374046 0.033124942 0.13215579
000100 06 3b 2d be 10 97 62 bd 6d 24 07 3d 13 c8 13 bd
       -0.16917047 -0.055319846 0.032993723 -0.036079478
000110 ae 53 ff bd 00 28 ad bd be dc 65 bd 01 e6 07 3e
       -0.124671325 -0.08454895 -0.05611872 0.13271333
000120 91 b8 f6 bd 0b d5 5d 3d ea e1 08 be 1b 4d 5c bd
       -0.12046922 0.05415825 -0.1336743 -0.05378447
000130 44 08 24 3e dd fd e7 bd 54 aa 06 be 21 bb b7 bd
       0.16018778 -0.113277175 -0.13150913 -0.08971239
000140 b6 e5 66 bc 6a 68 e2 3c d9 35 23 bd 3a 7e 30 3e
       -0.014092853 0.02763768 -0.039846275 0.17235652
000150 09 c7 b5 bd ef 06 0a 3e f0 f4 70 3c 72 ed ea 3c
       -0.088758536 0.13479207 0.014706835 0.028677676
000160 d1 aa 32 be 55 26 d4 3c 22 4b c1 3d 8e 35 a4 3d
       -0.17447974 0.025897184 0.094381586 0.08018027
000170 bb fd b8 3d 73 0c 9c 3d f7 5d 82 3d d2 3b 00 be
       0.0903277 0.07619562 0.063655786 -0.1252282
000180 6d 2c 94 3d de 72 ae bc 0f 79 fd bd 1d 8e 6c ba
       0.07235036 -0.021295007 -0.12376606 -0.0009023862
000190 ab 57 92 3c 96 b3 00 be ce 41 64 3c c7 12 40 bd
       0.017864069 -0.12568507 0.013931705 -0.046892907
0001a0 3c 5c da 3d 66 fa 26 3e ef 50 68 bd 3e e9 a7 3d
       0.106621236 0.16306457 -0.05671781 0.08198784
0001b0 76 3b 87 3d e8 17 ff bc d1 0b fb 3d 05 f6 30 3d
       0.06603138 -0.03113933 0.12258113 0.043203373
0001c0 5c d4 0d bd ed 87 61 3d 03 46 43 bd 3d bc d3 bd
       -0.03462635 0.05506127 -0.04767419 -0.10338638
0001d0 ff 3f 23 3e 4c b6 a3 3d 4f 7a 61 bd c3 5f 7f 3c
       0.15942381 0.07993755 -0.055048283 0.015586796
0001e0 17 8c a8 bd 4a 38 e1 bc c1 8c 70 3d 21 4a 44 3e
       -0.08229845 -0.027492661 0.058727983 0.19168903
0001f0 94 eb 00 be 25 4e 19 3e 75 13 19 3e f9 2e 8a 3d
       -0.12589866 0.14971216 0.14948829 0.067472406
000200 ef 01 27 be b5 8f 81 3b 70 df 96 bd 3e 4e 06 3e
       -0.16309331 0.003953899 -0.07366836 0.13115785
000210 8b c9 b9 bd be 7c ee 3d ce 68 84 bd 51 dc 77 3c
       -0.090716444 0.116448864 -0.064653024 0.015128211
000220 cf 4a 06 3d e3 c4 19 be 02 5e ec 3d 8d 08 39 3d
       0.032786187 -0.15016513 0.11541368 0.04517417
000230 4a a7 e5 bd fd 3c b9 bd 09 1b 1b be c7 3b 12 3c
       -0.112135485 -0.09044836 -0.15147032 0.008925385
000240 55 46 28 3e 16 d7 03 3d 5c f0 04 3d 96 78 85 bd
       0.1643308 0.032187544 0.032455787 -0.065171406
000250 05 58 c7 bd b9 a8 28 3e d7 b9 8f 3d d1 9d 40 bd
       -0.09733585 0.16470613 0.07017868 -0.047025505
000260 ef df 2e 3e ff 75 21 be 13 9d d9 bd df 60 9c bb
       0.17077611 -0.15767668 -0.10625663 -0.00477229
000270 92 6d 56 3d b2 40 33 3e 7c 23 2c bd f7 0f 15 be
       0.05235059 0.17505148 -0.042026028 -0.14556871
000280 2a 8f 2c 3e 64 bb 04 3e 94 08 ef bd 43 80 cb 3c
       0.16851488 0.12962109 -0.11671558 0.024841433
000290 a3 68 81 bd 39 1a f1 bd f8 00 6c 3c 93 ea 55 3d
       -0.06318786 -0.1177258 0.014404528 0.05222566
0002a0 e8 9d d7 3d 6f 6a 03 3e d8 2b c1 bd c4 35 66 3c
       0.10528165 0.1283357 -0.09432191 0.014050905
0002b0 f4 c9 a0 bd e7 9d 84 3d 7d 48 26 3e 4d 35 e1 bd
       -0.078510195 0.0647543 0.1623859 -0.109964944
0002c0 9d 99 f8 bc a5 dc 35 3c 33 24 30 be 87 32 0e be
       -0.030346686 0.011099969 -0.17201309 -0.13886462
0002d0 12 5b ba 3d 17 09 ff bd df 35 9d bd e4 eb 9b 3d
       0.090994015 -0.124529056 -0.07676291 0.07613352
0002e0 d7 a5 12 3d 28 ec 54 3d f6 7a a6 bc ef 2a 70 3d
       0.03580269 0.05198303 -0.020322304 0.058634695
0002f0 96 23 a0 bd e8 6d 02 be 45 4b 88 bd 73 ac ba bd
       -0.078192875 -0.12737238 -0.066549815 -0.09114923
000300 1a 06 0f 3d 14 1a c3 bd bb dc e8 3d 82 e7 15 be
       0.03491793 -0.095264584 0.11370226 -0.14639094
000310 cd a2 44 be 51 80 46 bd af c5 01 be c1 94 9c bd
       -0.19202729 -0.048462216 -0.12673067 -0.0764556
000320 94 7e 80 3d 66 d9 39 be 55 19 ae bc 23 f5 1a be
       0.06274143 -0.18149337 -0.021252314 -0.15132575
000330 ad 1c 88 bd 27 ac f5 bd cf 91 0d 3e f8 23 31 bb
       -0.066460945 -0.11995726 0.13825153 -0.0027029496
000340 a5 29 c1 bd 83 3c 41 bd bf 07 e4 3d 39 76 26 3e
       -0.09431771 -0.04717685 0.1113429 0.16256036
000350 cf 27 4c bd 9e 28 d2 bd 45 ab 00 3e fd 7b 71 bd
       -0.049842652 -0.10261653 0.12565334 -0.058956135
000360 3b 4e 03 bd 49 4d 09 3e 51 91 13 bd e5 d8 2e be
       -0.03205703 0.13408388 -0.036027256 -0.17074926
000370 0c 71 f7 bc 21 69 48 3c 78 22 f1 3d 99 8d e0 bb
       -0.030205272 0.012232096 0.117741525 -0.0068528173
000380 61 09 fb bb b3 f7 e0 3d 55 ae 5e 3c 4d 89 a0 3d
       -0.00766103 0.10984745 0.013591369 0.07838688
000390 1e 33 df 3c 5e 67 cb 3c e3 7d 59 3b 1d f6 aa 3d
       0.027246054 0.024829563 0.0033186607 0.08347724
0003a0 a9 ac 8c 3d fe c3 0e be 00 49 98 bd 55 20 30 3e
       0.0686887 -0.13941953 -0.07435799 0.17199834
0003b0 19 44 74 3d a2 f5 cd bd b4 1e 19 3e 44 51 3a 3d
       0.059635255 -0.10056616 0.14953119 0.045487657
0003c0 56 d0 d1 bd 81 81 82 bd 6d 45 82 bd 9f 83 3f bd
       -0.10244815 -0.06372357 -0.06360898 -0.046756383
0003d0 87 24 13 3e cb 98 cd bd bb 50 98 3d 04 ee 20 3e
       0.14369403 -0.100389086 0.07437273 0.15715796
0003e0 fd ed 4f bd f7 aa 88 bd 43 b8 ae bd 96 1a 22 be
       -0.050764073 -0.06673234 -0.08531239 -0.15830454
0003f0 63 58 cc bd 82 2b 31 3c 75 7b 25 3e 44 87 1e 3e
       -0.09977796 0.010813596 0.16160376 0.15481287

104 f4 [1, 256, 64]
000000 f2 66 51 be b8 e5 50 be e3 ed 17 be cc 3f f8 3d
       -0.20449427 -0.20400131 -0.1483684 0.12121543
000010 59 15 b8 3d 53 b7 32 bd 50 d4 be 3d c7 34 38 3d
       0.08988447 -0.043631863 0.09317839 0.044972207
000020 1f 17 b2 bd 72 ca 2e 3e 7e f1 56 3e 9e fb cf bd
       -0.08695816 0.17069414 0.2099056 -0.10155414
000030 5d 92 bc bd f7 e0 89 bd 29 b8 4c 3e ee 79 66 3d
       -0.09207604 -0.06732362 0.19992127 0.056268625
000040 43 74 5b bd 22 49 d7 bc 55 57 69 bd 17 f9 ce 3c
       -0.053577673 -0.02627999 -0.056968052 0.02526526
000050 1a b0 14 be 15 71 3b 3c 9e 0d 55 be 96 ba c1 bc
       -0.14520302 0.011440535 -0.20805976 -0.023648541
000060 0d c3 67 be ff 39 aa bd fa bf b0 bd 6f 58 23 3c
       -0.22633 -0.08311843 -0.086303666 0.009969815
000070 13 47 b9 3d 07 2a 35 3e 32 07 a1 bd ae 5b eb bd
       0.090467595 0.17691813 -0.078627005 -0.11492096
000080 d6 13 9f bd 09 a4 cb 3c 11 da 02 3d 17 49 bb bd
       -0.07767455 0.024858491 0.031946246 -0.091448
000090 2a 8e 9d 3d 2b 05 12 be cb f3 6a 3d 8f 19 09 be
       0.07693131 -0.14259784 0.057361405 -0.13388656
0000a0 e2 8f 4c 3e 2d ee 50 bc c5 ab 29 3e ca 77 bf bd
       0.19976762 -0.012752098 0.16569431 -0.0934902
0000b0 6e 7e 1e 3e 88 58 3d 3d 77 69 17 3e cd 9b 84 bd
       0.15477917 0.046227008 0.14786325 -0.06475029
0000c0 ea d7 d2 bb ca f3 d7 bd 42 db c7 3d 4b 28 68 bc
       -0.0064344304 -0.10544546 0.09758617 -0.014169763
0000d0 25 55 7d 3d b1 c8 0a 3e b9 59 e9 bd 70 c1 8a 3d
       0.06184878 0.1355312 -0.11394066 0.067751765
0000e0 e5 55 37 be 09 d2 9a 3d a0 d6 3d be e9 41 eb bd
       -0.1790386 0.07559592 -0.18538904 -0.11487181
0000f0 0d 98 72 3d af a0 c2 bd ac 65 01 3e 8b 97 1e be
       0.05922704 -0.09503304 0.12636441 -0.15487497
000100 81 f8 0f 3e cb ff e1 3b 82 f2 05 3e 6d 7b 48 3e
       0.1405964 0.006896948 0.1308079 0.19578333
000110 df f0 b0 3d ce 2a a1 3d cd cb b8 bd 68 f7 05 3e
       0.086396925 0.078694925 -0.09023247 0.13082659
000120 87 74 00 bd ea e5 15 3e e1 9e 07 bd 4b 87 50 3e
       -0.03136113 0.14638487 -0.033110503 0.2036411
000130 48 90 3c 3e 6e 9d e4 3d e2 1f 05 3e 48 f0 20 bd
       0.18414414 0.1116284 0.13000444 -0.03929165
000140 7d 1c cd bd e7 e2 20 3e 1c 4c 03 3e b2 c3 20 3e
       -0.10015199 0.15711556 0.12822002 0.15699652
000150 01 4d 30 be ab bd fa bd 41 cf 97 bd 26 23 b8 3d
       -0.17216875 -0.122432075 -0.074125774 0.08991079
000160 48 f3 49 3e 8c 34 b8 bc dc bb 26 be 64 45 ad 3d
       0.1972171 -0.022485994 -0.162826 0.08460501
000170 bc e8 42 be 49 3a ed 3d 03 97 85 bd c2 46 ac bd
       -0.19034094 0.11583383 -0.06522944 -0.084119335
000180 9e bb 0a be 8d 7b 20 bd 46 5d 62 3e 8c 64 6b be
       -0.13548133 -0.039180327 0.22105893 -0.22987574
000190 ba d4 0e be 65 40 cd 3d 11 82 d2 bd 72 79 d5 bd
       -0.13948336 0.10022048 -0.102787144 -0.104235545
0001a0 95 e8 58 3e 94 76 c6 bc d2 51 38 3c 66 73 4b be
       0.21182473 -0.024226464 0.011249976 -0.1986824
0001b0 5c 06 ea bd 95 88 df 3d 27 2d 42 3c 4d 94 31 3e
       -0.11426994 0.10914723 0.0118515855 0.17341729
0001c0 ee cb 63 bd a6 40 3d be e7 79 34 be f5 25 0e 3e
       -0.055614404 -0.18481693 -0.17624627 0.13881667
0001d0 5b 23 52 be d3 4d 08 3e 61 e2 1f be 8f a2 ca bd
       -0.205213 0.13310938 -0.156137 -0.09894287
0001e0 d8 02 30 3e 7e a5 d1 3c 8a 14 ae bd e2 7b 5d bc
       0.17188585 0.025591608 -0.08500011 -0.0135183055
0001f0 ee 3a ff bc 5d 6a 34 be 8d 40 ce 3c 09 27 85 3d
       -0.03115603 -0.176187 0.025177265 0.06501586
000200 29 ce 7b bd 9b 93 21 be d3 d2 7e bd 33 a8 6a bd
       -0.061475907 -0.15778963 -0.062212776 -0.057289314
000210 95 74 ff bd 07 91 db bd b3 f1 4d be 4a 1a 0d be
       -0.12473408 -0.10721021 -0.20111732 -0.1377956
000220 a4 0c 21 3c a2 e1 33 3e 95 a2 c3 3c 15 a6 0e bc
       0.009829674 0.17566541 0.023881236 -0.008706589
000230 9e a4 4f 3e 2f fb a7 bd ee 86 86 bd 2e d3 27 3e
       0.2027764 -0.08202206 -0.065687045 0.16389152
000240 c7 4c 40 be 50 e6 2e 3e db 9f b0 39 ae 22 4d 3e
       -0.18779288 0.17080045 0.00033688438 0.2003276
000250 3d 25 1e be 74 d1 48 be 90 62 cb 3d 11 d2 b9 bd
       -0.15443893 -0.1961115 0.09930909 -0.0907327
000260 e9 09 57 be 52 2c 0a bd 94 02 67 be 67 00 1c be
       -0.20999874 -0.033733673 -0.22559577 -0.15234528
000270 88 86 db 3c 8c bf a7 bd 2b 7e 1b 3c 0f e6 aa bd
       0.026797548 -0.081908315 0.00949053 -0.083446614
000280 60 07 8a bc 44 d3 cd bd 72 d6 3a be b0 90 e1 bd
       -0.01684922 -0.10050061 -0.18245867 -0.11013925
000290 ac 3f c0 bd 42 86 58 be 57 43 cf 3d 73 bf 2a 3e
       -0.093871444 -0.21144965 0.10120266 0.16674595
0002a0 56 68 88 bc 61 3b 2b 3e 60 a4 31 3e 6b bd 21 3b
       -0.016651314 0.1672187 0.1734786 0.0024679552
0002b0 79 11 23 bd 00 df 0d 3e 1e af 31 3e e7 3f 4a bc
       -0.039811585 0.13854599 0.17351958 -0.012344337
0002c0 7b 29 16 be ea 82 ad 3d 90 48 8f 3d 6e 59 b5 bc
       -0.14664261 0.084722355 0.06996262 -0.02213737
0002d0 46 e8 a7 3d 35 d1 2e 3e 96 e0 1e 3e a4 af 1d 3e
       0.081985995 0.17071994 0.1551536 0.15399033
0002e0 71 cd 4e be e7 48 2b 3e 2f 25 30 3d 2a f8 5d be
       -0.20195557 0.16727029 0.04300421 -0.21676698
0002f0 7e ec 29 3e a8 d6 be bd ee f3 1b be 9f 0a fd 3c
       0.16594121 -0.09318286 -0.1522977 0.030888854
000300 3d 56 18 3e 12 f9 3f be 2f 1a e6 bd 0d af 5c 3c
       0.14876647 -0.18747357 -0.11235463 0.01346947
000310 0f 66 38 bd c6 5f f7 bd d4 a5 12 3a 0d 4f 5b 3d
       -0.045019206 -0.12078814 0.00055941683 0.053542186
000320 10 f6 10 3e 7c 6f 06 3e d7 dd 0b 3e e1 37 91 3d
       0.14156365 0.13128465 0.13658844 0.07090736
000330 89 1f ca bd 96 79 4e 3d 66 6b 8d bd e7 77 da 3d
       -0.09869296 0.050408922 -0.0690525 0.10667401
000340 b2 e1 cd bd 2a ad 3d 3e f7 90 13 bd fa e4 98 3b
       -0.100528136 0.18523088 -0.03602692 0.004665968
000350 b6 2e 4d 3e 8f 90 b0 3d ee b6 eb 3d 66 e0 30 be
       0.2003735 0.08621322 0.115095004 -0.17273101
000360 70 37 10 3e d6 a1 54 3e af d4 3b 3e 17 17 43 3b
       0.14083648 0.2076486 0.18342851 0.0029768401
000370 68 17 e5 3d 32 9e f6 3d d6 33 5d 3d 9a f6 3b 3e
       0.11186105 0.12041892 0.054004513 0.1835579
000380 75 49 38 be e9 c2 1c 3e ed 72 10 3e db 7a d4 3d
       -0.17996772 0.15308727 0.1410634 0.10374995
000390 d7 a0 f9 bd a9 96 9b bd d8 f7 f0 3d 9c 16 d1 3d
       -0.12188881 -0.075970955 0.117660224 0.102093905
0003a0 b6 53 e9 3c 68 f7 df 3d 81 f3 4f bd be b3 5f 3d
       0.0284823 0.10935861 -0.050769333 0.054614775
0003b0 24 7c 79 be b0 ab 0e 3e 7e c2 cb bc 3a 3e 65 be
       -0.24363762 0.13932681 -0.024873015 -0.22387019
0003c0 04 80 d5 3d cf d6 ca bd 50 84 33 be 89 b5 50 be
       0.10424808 -0.09904253 -0.17530942 -0.2038175
0003d0 f0 70 ad bd e9 a4 e3 bd 6c 98 c0 3d 01 eb 01 3e
       -0.08468807 -0.111154385 0.09404072 0.12687303
0003e0 4b db 4a 3c cb ae 35 3e 55 23 a0 bd 0c 86 10 be
       0.012381385 0.1774246 -0.07819239 -0.14113635
0003f0 ec 81 56 3e 91 7f 40 3e 25 c3 e8 ba aa f7 08 be
       0.20947999 0.18798663 -0.0017758353 -0.13375726

105 f4 [1, 512]
000000 03 89 bf bc 0a 82 6a 3b 0c 92 97 3b 66 6b 98 bb
       -0.023380762 0.0035783076 0.0046255644 -0.0046514748
000010 72 79 b6 3c 22 0d d3 bb c0 0e aa 3b 8d 57 9a bc
       0.022274707 -0.0064407745 0.0051897466 -0.018840576
000020 1f 61 38 bc 00 15 1d bc 97 b7 98 bc c9 12 10 3c
       -0.011253624 -0.009587526 -0.01864223 0.008793541
000030 fa af a3 3c f1 e7 5c bd 29 c1 84 bc 3a 7d 01 bc
       0.019981373 -0.053932134 -0.016205387 -0.0079033915
000040 7e 60 0e 3c 9b f6 ed bc e6 bb de bb 11 3b 99 bc
       0.008689998 -0.029048255 -0.0067973016 -0.018704923
000050 50 4d 2e bd bf 4d 1f 3c b1 3f 1c bd a2 1e 83 3c
       -0.0425542 0.009723126 -0.03814668 0.016005818
000060 a9 22 41 3c b5 b5 cf bc 24 dc fd 39 3b c1 25 bd
       0.011788049 -0.0253552 0.00048419938 -0.040467482
000070 61 2b 20 3c 95 1c 29 bd 23 d2 30 bc 48 49 06 bd
       0.009775967 -0.041287024 -0.010792288 -0.03278473
000080 98 7c 0d bc a7 8a 84 bc a1 a7 af 3c 0c aa a5 3b
       -0.0086356625 -0.016179396 0.021442236 0.0050556716
000090 cd 02 24 bd 2b a6 80 3c 4d dd 44 3c 8a 86 86 3c
       -0.040041734 0.015704235 0.012015653 0.016421575
0000a0 ed b6 9b 3c 4e 12 12 bc b6 9e 1c bd 1b b8 27 bd
       0.019008124 -0.008915497 -0.038237296 -0.04094706
0000b0 a9 af cb 3b d6 a6 af 39 f0 8b 7e 3c 8a 8a b8 bb
       0.0062160087 0.00033502904 0.015536293 -0.0056317495
0000c0 95 9c ae 3c 24 d3 bb bc ce 3c 26 3c 53 c7 f9 bc
       0.021314899 -0.022927828 0.010146333 -0.030490553
0000d0 c1 83 93 bc 80 66 da bc 64 1c 82 bd 71 6f 07 3c
       -0.018007161 -0.026660204 -0.06353071 0.008266316
0000e0 3e d9 88 3b 9f 3f 5b 3c 7e 48 ae 3a a0 6d 9a bc
       0.004176288 0.013381868 0.0013296751 -0.018851101
0000f0 c4 d6 eb bb 89 3f 08 3c de 3f 37 bc 6d 79 55 bc
       -0.007197233 0.008315929 -0.011184661 -0.013029438
000100 3a 07 be bc c9 10 f1 3b ed 8e 0d bc 4f 2d d6 3b
       -0.023196805 0.0073567373 -0.008640033 0.006536163
000110 99 c9 ae bc e1 fe 8f bb 7e cf b6 b9 85 ff b6 bb
       -0.021336364 -0.0043943976 -0.0003486834 -0.0055846595
000120 86 78 fc bb 61 94 09 3c eb 20 de bc cb 74 e8 bb
       -0.007704797 0.008397193 -0.027115306 -0.007094001
000130 24 b0 45 3b 95 f9 1f bd e3 49 d3 bc 3b 26 d0 bb
       0.0030164802 -0.03905638 -0.025792068 -0.0063522137
000140 f0 e7 1c 3c 53 f4 a3 bc 3a 3d d0 ba 45 03 05 bc
       0.009576783 -0.020013964 -0.0015887388 -0.008118455
000150 20 5c 05 bd c5 9d 21 3a 90 55 19 3c 53 96 9d 3b
       -0.03255856 0.0006165172 0.009358779 0.00480918
000160 8a 90 16 3c 92 6c f4 bb 5e 71 99 bc f8 4a a2 bc
       0.009189734 -0.0074592317 -0.018730816 -0.019811139
000170 eb 36 e6 bc f4 c1 ab bc 0b 07 88 bc ba 5e 41 bc
       -0.028102359 -0.020966507 -0.01660492 -0.01180237
000180 91 4e 8f bc 86 1e 60 bc 5b 8b 00 3d db c2 91 3b
       -0.017493518 -0.013679152 0.0313829 0.0044482774
000190 85 be fc bc 51 d2 ad bb 90 09 d3 3c 94 e7 90 bc
       -0.030852566 -0.0053046127 0.025761396 -0.01768855
0001a0 ae f0 94 3c 98 72 80 bc d9 b6 30 bd 87 54 e7 bc
       0.018181171 -0.015679643 -0.043143127 -0.028238548
0001b0 80 d7 71 3c 1c f7 b1 3c 00 cc 3e bc cc 2a c4 bc
       0.014760852 0.021724276 -0.011645317 -0.023946188
0001c0 da 05 79 bc b3 7a 4a bc 6f 28 b7 3c f2 eb 80 bc
       -0.015199149 -0.012358355 0.022358147 -0.015737507
0001d0 c8 93 9d 3b d5 88 d7 bc 6b 95 57 bd 86 7f e1 3c
       0.0048088767 -0.026310364 -0.05263273 0.027526628
0001e0 1a f4 4b bd dc 2b 50 3c 3a ad 41 bc 78 c0 e2 bc
       -0.04979334 0.012705769 -0.011821086 -0.027679667
0001f0 6a 3c 71 bb 4e ec 84 bc 5c a8 89 bc 88 d5 8a b9
       -0.0036809691 -0.01622596 -0.016803913 -0.00026480504
000200 3d 06 7a 3f fd 5a 83 3f 99 df 7d 3f 33 a5 7c 3f
       0.9766577 1.0262142 0.9916931 0.98689574
000210 cc 8d 83 3f 3d f2 81 3f b8 95 80 3f 55 b2 7b 3f
       1.0277648 1.015205 1.004569 0.9831899
000220 1c 3f 7d 3f 69 26 80 3f bb d6 7c 3f ca db 7b 3f
       0.9892442 1.0011722 0.9876515 0.98382246
000230 9a ce 81 3f c2 47 71 3f ba ed 81 3f c8 6c 80 3f
       1.0141175 0.9425012 1.0150673 1.0033197
000240 3b 0e 7f 3f 20 25 7f 3f 4f 77 7e 3f e4 04 81 3f
       0.9963109 0.99666023 0.994008 1.0079618
000250 09 f0 7b 3f 7b 97 80 3f b2 58 7e 3f cf 32 83 3f
       0.9841314 1.0046228 0.9935409 1.024988
000260 71 73 7a 3f 7a 82 80 3f 1e 3f 7f 3f 38 43 76 3f
       0.978324 1.0039818 0.99705684 0.9619632
000270 d4 9b 80 3f 27 26 78 3f d2 3d 80 3f 08 32 79 3f
       1.0047555 0.96933216 1.0018866 0.97341967
000280 14 95 79 3f 76 6d 7a 3f 4e 2a 7e 3f 69 4b 80 3f
       0.974931 0.97823274 0.992833 1.0023013
000290 3b 22 7b 3f 07 a3 85 3f 04 e4 84 3f c0 b1 83 3f
       0.98099107 1.0440377 1.0382085 1.028862
0002a0 fa a5 7d 3f 46 7b 80 3f 79 b9 73 3f a1 5f 72 3f
       0.99081385 1.003762 0.95204884 0.9467717
0002b0 a3 2b 7f 3f c4 02 7f 3f 8a 94 80 3f d5 90 7c 3f
       0.9967596 0.99613595 1.004533 0.98658496
0002c0 39 21 80 3f 4f 97 7a 3f 96 83 81 3f 92 1a 7c 3f
       1.0010139 0.9788713 1.0118282 0.98478043
0002d0 94 15 7e 3f b1 27 79 3f f2 09 72 3f 55 3c 81 3f
       0.99251676 0.9732619 0.94546425 1.0096537
0002e0 99 16 7d 3f a2 83 82 3f 82 9c 7f 3f cd 0c 7e 3f
       0.98862606 1.0196421 0.99848187 0.9923828
0002f0 66 ff 80 3f 6b 6c 7f 3f 6e a1 79 3f be 8a 81 3f
       1.0077941 0.9977481 0.9751195 1.0120466
000300 78 a0 08 bb 58 54 83 3c 19 0d 9e 3c 52 55 4a 3b
       -0.00208476 0.01603143 0.019293355 0.0030873609
000310 8c 8f 01 3c a8 7b 47 bb cb a6 b8 3b 4b 96 59 3b
       0.007907759 -0.0030438695 0.0056351176 0.0033201154
000320 00 43 00 3d e1 56 8e bb cf 1a 2c 3c 74 15 ae bc
       0.031313896 -0.004343853 0.010504439 -0.021250464
000330 06 89 27 3d 59 9b 39 ba 37 96 24 bd a1 3c 56 3c
       0.04090216 -0.00070803385 -0.04018232 0.0130759785
000340 4f c4 4b bc 60 a8 82 bc 13 41 91 bc d9 1a b1 3c
       -0.01243694 -0.015949428 -0.017731225 0.021619247
000350 de 72 bf 3c b0 ea ba 3b 9c dc 2d 3d e5 07 00 bd
       0.023370203 0.0057042465 0.042446718 -0.03125753
000360 06 5e ad 3b a4 e2 41 bc b7 f7 04 3b b2 80 a9 bc
       0.0052907495 -0.0118338205 0.002028925 -0.02069125
000370 2b 60 91 bc 30 81 c6 3b 6b d4 b1 bc 2f ed 61 3c
       -0.017746052 0.006057881 -0.021707734 0.013789459
000380 7e 16 b2 bc 6d 54 8f 3c bc 58 26 bc 04 7a 87 bc
       -0.02173924 0.017496312 -0.010152992 -0.016537674
000390 d8 fc 0f 3c 75 d5 d5 3b 4c 73 07 3d 45 43 39 bd
       0.00878831 0.00652569 0.03306894 -0.04523017
0003a0 02 d9 42 3c dc 4e b9 bc a5 48 d1 3b eb 64 80 3b
       0.011892559 -0.02262061 0.0063868337 0.0039182804
0003b0 73 e1 30 bc c9 2c a4 3b 9e 6b 22 bd 40 ee 28 3a
       -0.010795939 0.0050102216 -0.039653413 0.00064441934
0003c0 c0 46 29 bb 72 27 81 3c 59 72 b7 3c e5 43 cd bb
       -0.0025829524 0.01576588 0.022393392 -0.006264197
0003d0 81 0d 9e 3c f7 9b 1c bc 5c 4d e5 bc f3 55 db bb
       0.019293549 -0.009558669 -0.02799099 -0.0066935956
0003e0 05 bb 0a 3d 50 30 49 3c 6d 1b fd 3c a2 4a 66 bb
       0.033869762 0.012279585 0.030896867 -0.00351397
0003f0 dd 7f 7c 3c 69 f1 14 3d 36 a9 b3 3c 5e 29 90 3c
       0.015411344 0.03636304 0.021931272 0.01759785

action_model._discrete_distribution.branches.0.bias f4 [6]
000000 e1 10 b7 3c a1 68 c2 bb 04 25 2e 3c a2 02 8b bc
       0.022346916 -0.005932883 0.010628942 -0.016969029
000010 0c 8f 14 3d 7a c9 5f bc
       0.036269233 -0.013658876

action_model._discrete_distribution.branches.0.weight f4 [6, 64]
000000 ae 28 b1 bc 52 75 49 bc 62 ef 8a bc 8d ed 58 bb
       -0.021625843 -0.012296038 -0.01695985 -0.0033100576
000010 8a 34 11 3d a9 f6 de 3c bf 34 5a 3b 60 77 85 3b
       0.035450496 0.027217226 0.00332956 0.0040730685
000020 f1 66 a9 bb 4f 86 d1 bb c4 79 9f 3b b4 83 84 3b
       -0.0051697423 -0.0063941847 0.0048668105 0.0040440205
000030 2a 63 44 3c 67 f6 8c bc 1e 06 01 bc ba 40 bd 3c
       0.011986533 -0.017207338 -0.007874994 0.023102153
000040 b6 73 0c bc 6a e6 85 ba 6d c4 a9 3c f2 ec ce bb
       -0.0085725095 -0.0010215763 0.020723546 -0.006314867
000050 cf cd 8e 3c 12 be a1 3b e8 ac e6 bc fc 4d 5e bb
       0.017432122 0.004935988 -0.02815862 -0.0033920994
000060 8f 39 d6 bc ef ab b7 3c a0 2a c9 3c 55 2f 05 3d
       -0.026150493 0.022420852 0.024556458 0.032515842
000070 ca 4b 19 bd d3 fb 23 bb 8a 89 9a 3b a9 1a b7 3c
       -0.037425794 -0.0025021925 0.004716103 0.02235158
000080 71 a7 00 3d ec 05 64 3b 57 bc a8 bc b4 f5 9c 3c
       0.031409685 0.0034793569 -0.02059762 0.01916013
000090 76 ce f2 3c d2 c3 a5 3b 27 f7 d4 bc c6 22 6b 3b
       0.029639464 0.005058744 -0.025996758 0.003587888
0000a0 0b 00 24 bc 21 22 06 bd cf 8a 6d 3c 5c 7b a0 3c
       -0.010009776 -0.03274739 0.014498427 0.019590072
0000b0 24 13 47 bd 85 fc cc 3c 82 8f 3d bc 36 26 8b bc
       -0.04860224 0.025022754 -0.011569859 -0.016985994
0000c0 df 74 2b bc d4 f0 03 3c f4 04 ce bc 13 e2 8d bc
       -0.010464876 0.008053023 -0.025148846 -0.017319715
0000d0 1f 31 e0 ba e5 75 2d bd 16 6e 8c 3c 39 b6 a6 bb
       -0.0017104483 -0.04234876 0.017142337 -0.0050876406
0000e0 01 6f 91 bc 59 9e 4d 3d 9f 42 18 3b 06 ef db 3c
       -0.017753126 0.05019984 0.0023233069 0.026847374
0000f0 cb e7 c1 bc 98 56 71 3b 2b c5 ee 3a 9b a5 0b bd
       -0.023670098 0.0036825296 0.001821672 -0.03409348
000100 15 97 ac bc 92 f7 57 bd 0f c4 e6 3b 8d eb 23 3d
       -0.021068135 -0.052726336 0.007042415 0.04001956
000110 59 4a bc 3c 09 90 1d 3c 31 31 22 3c dd 4c d6 bb
       0.02298467 0.00961686 0.009899423 -0.0065399245
000120 31 79 4f bb e6 ce 8f 3c fb 9e ed 3b f1 02 c7 3c
       -0.003165793 0.017554712 0.007251618 0.024293395
000130 08 a7 2f 3c ac a6 05 3c 26 65 6d 3c 07 8a fe 3c
       0.010720976 0.008157413 0.014489448 0.031071676
000140 55 fc 96 bc 2c 2a 4b bb 80 b2 08 3d 37 f9 04 bd
       -0.018430868 -0.0031000478 0.033373356 -0.032464232
000150 c9 c6 a6 3c ee 47 2e bb 6c 1d e3 bc 61 c2 09 3d
       0.02035846 -0.0026593166 -0.02772399 0.03363264
000160 17 91 a9 3a 7e 37 39 3d ad 53 53 bc c1 af 01 3d
       0.0012936917 0.045218937 -0.012898368 0.031661753
000170 71 8e 33 bb 0d 12 4d bd 9e d3 6d ba cb e9 6e 3c
       -0.0027398134 -0.050066043 -0.0009072366 0.014582108
000180 26 ab 80 bc 54 36 8c 3c f2 2b ac 3b 87 4e 0c bd
       -0.01570661 0.01711575 0.005254262 -0.034254577
000190 64 b5 1c 3b 12 19 ce bc 10 b4 5d bd 28 37 ba bc
       0.0023911828 -0.025158439 -0.0541268 -0.022731379
0001a0 3e d3 d3 3c 20 39 38 bc 26 6f fb bb d2 5f e0 bb
       0.025857564 -0.011244088 -0.007673162 -0.00684736
0001b0 29 f9 c9 bc 84 ff 89 bb 63 18 0a bb 4e 5f 94 3b
       -0.024654942 -0.004211368 -0.0021071665 0.0045279628
0001c0 39 ee 10 3d 22 9d 93 3c e0 ff 88 bc 7c c4 b0 bc
       0.035383437 0.018019263 -0.016723573 -0.021578066
0001d0 e5 1a 82 bc 4f ee 44 bd a0 d7 fe 3c 85 53 eb bc
       -0.015881965 -0.04807883 0.031108677 -0.028726349
0001e0 80 8e 8f bc e9 89 c2 bc a2 a9 92 3b 13 c6 40 bc
       -0.017524004 -0.023747401 0.004475788 -0.011765975
0001f0 ca 81 aa bc 4d c7 08 39 0e 92 a7 bb 5f 18 86 bc
       -0.020813841 0.00013044216 -0.0051138466 -0.016369043
000200 f3 13 6e 3c 2e fe 31 3c 1a 9e e0 3c b0 cd 62 bc
       0.014531123 0.010863824 0.027419139 -0.013842985
000210 6a 25 f9 bc 54 56 ca bc d9 e9 56 bb 7e 74 9b bb
       -0.030413348 -0.024699368 -0.0032793193 -0.0047441116
000220 33 b2 96 bc c0 40 1f 3c 67 bd 91 3b ea 0b 07 bc
       -0.018395519 0.009720027 0.0044476273 -0.008242587
000230 3a 78 87 bb 39 a5 e5 ba 23 81 18 bc a0 ad 21 bd
       -0.004134205 -0.0017520554 -0.009308132 -0.039472222
000240 c5 5d 96 bc 3a a9 b9 3c b5 b5 60 bc c5 b1 e7 3c
       -0.01835526 0.022663701 -0.013715197 0.02828301
000250 63 da eb bb b0 b3 8e 3c a5 ba 51 3d 01 d2 89 bd
       -0.0071976646 0.017419666 0.05120339 -0.06729508
000260 33 cd ec 3c fb 8d 12 bd 9c 48 cb bb 11 ed 2a bd
       0.02890644 -0.035779934 -0.006203724 -0.04172999
000270 95 95 00 3b b7 32 a7 3c 62 fe 80 3c 47 f1 96 bc
       0.0019620408 0.020409925 0.0157463 -0.018425597
000280 d0 da a7 3c 07 51 3d bc 30 d7 a6 bc 0f 37 0b 3d
       0.02049008 -0.011554963 -0.020366281 0.033988055
000290 a8 fc 02 bd d7 11 bd 3c f9 1e 60 3d e0 55 81 bb
       -0.031979233 0.023079796 0.054717038 -0.0039470047
0002a0 15 ac 36 3d a8 82 20 bc b6 a5 35 3d 6e 68 27 bb
       0.044597704 -0.009796776 0.044347487 -0.0025544423
0002b0 6a b1 54 3d 23 f3 29 bc c7 73 44 3c 34 7f 80 bc
       0.051927008 -0.01037291 0.011990494 -0.015685655
0002c0 68 fc a2 3c ae db 9d 3b a1 8f d5 3c ac 7e 2f 3d
       0.019895747 0.0048174476 0.026069464 0.042845413
0002d0 11 ef 6b 3d be 70 2f 3d 29 2b 06 bd ad aa 6e bc
       0.05760104 0.04283213 -0.032756004 -0.014567059
0002e0 0a 7e f4 3c ce 2d 57 bc 9e 0d 81 3c fc 5b 9a bb
       0.029845256 -0.013133479 0.015753563 -0.0047106724
0002f0 0b 87 2b 3d 0a 24 0f bb cd 03 f4 3b 1e 79 5e 3d
       0.041876834 -0.002184155 0.007446742 0.054314725
000300 c6 e7 5c 3d 48 0f e4 3c cc 8b 5d 3d 37 b3 9f 3c
       0.053931974 0.027839318 0.0540884 0.019494636
000310 4b cb 5d 3c 0a 17 c9 bc 93 4f 93 bc 11 5e 7b 3c
       0.013537238 -0.024547119 -0.01798228 0.015342251
000320 76 ef a6 3c b3 0c 05 bd c6 e3 c4 38 4e 3b 9f bc
       0.020377856 -0.032482814 9.3884344e-05 -0.019437458
000330 a5 67 39 3c 5e c8 dc 3c 6e d1 39 bc 49 4d ac bc
       0.011316215 0.026951011 -0.011341436 -0.021032946
000340 fb a7 cb bb bc 20 03 bd ad 70 54 bc c1 09 5e 3c
       -0.006215093 -0.03201364 -0.012966317 0.01355213
000350 35 80 af bb 90 1d a2 bc 86 ea 9a 3c 88 1d 49 bd
       -0.0053558596 -0.019789487 0.018910658 -0.04910043
000360 58 74 2c bc 36 7a ce bc 09 3c 07 3d f7 bc e2 bb
       -0.010525785 -0.02520476 0.03301624 -0.006919499
000370 47 5a f0 ba 46 41 a2 3c 9f cc eb 3c 87 ce c6 bc
       -0.0018337452 0.019806515 0.028784094 -0.024268402
000380 9f 2e 5a bb 37 5d 6c 3d 70 15 09 bd 75 ff d8 3c
       -0.0033291948 0.057706084 -0.03346771 0.026488999
000390 41 48 91 bc 73 3f e5 bc 77 41 42 3c 0e cb 58 3c
       -0.017734649 -0.027984357 0.011856428 0.013232006
0003a0 cc 8d fb bc 3a 63 1d 3d c1 e0 6d bd 7c 9b 99 bc
       -0.030707262 0.038424708 -0.05807567 -0.018750899
0003b0 ce be 6d bb 05 a0 04 3d ba 13 dd bc 5b f4 a0 3c
       -0.0036277059 0.03237917 -0.026986945 0.019647768
0003c0 0b a0 21 bd 79 d7 0a bd ff 2f e1 3c 1d 12 6c 3c
       -0.03945927 -0.033896897 0.027488707 0.014408615
0003d0 80 9d ce bc 19 04 7d 3c b5 a5 c9 3c 83 b8 78 3d
       -0.025221586 0.0154428715 0.024615148 0.06072284
0003e0 0c d5 bc 3b 79 c9 19 3d 86 fe 07 3d 05 9c 58 3c
       0.005762702 0.037545655 0.033201717 0.013220792
0003f0 ab a1 79 bb 6a 97 87 3b c8 7b de bb 49 23 cd 3b
       -0.0038090746 0.004137923 -0.006789658 0.00626031

network_body.linear_encoder.seq_layers.0.bias f4 [128]
000000 6b 6e 46 3b 51 d5 9e 3c 48 ac cd bc a1 18 da 3a
       0.0030278217 0.019388827 -0.025106564 0.001663942
000010 31 04 e9 bb 4e 3f e3 bb b2 07 b4 3b 96 47 b7 bb
       -0.0071110954 -0.0069350367 0.0054940814 -0.0055932505
000020 26 af 24 3c b3 7d 1b 3c 18 31 c1 3c 93 b8 93 bc
       0.010051524 0.009490418 0.02358298 -0.018032348
000030 c0 25 be bc 3d ea b9 bb b8 b5 20 bc aa 3a 85 bc
       -0.02321136 -0.0056736753 -0.00980895 -0.016263325
000040 df 0a df 3c cb d2 09 3d ee 8c 06 bc 71 3f e6 3b
       0.027226863 0.033648293 -0.008212311 0.007026606
000050 79 19 6d 3b 33 38 e1 bc 0a 13 7c 3c b6 1e 31 bc
       0.0036178513 -0.027492618 0.015385399 -0.010810545
000060 5d 46 54 3c fa 62 5e bc 9d 5c e7 bc 74 ec af bc
       0.012956229 -0.013573403 -0.028242404 -0.021475054
000070 f8 66 a6 3c bb 44 05 3b 92 a5 b8 3c 60 a9 c7 bc
       0.020312771 0.0020335156 0.022539888 -0.024372756
000080 64 fd b5 3c 7b 78 a2 3c 50 c6 6c 3c e4 c4 af bc
       0.022215553 0.01983284 0.014451578 -0.02145619
000090 1f 76 84 3c e4 a4 c1 3c d2 44 c2 3b ed 43 8d 3c
       0.016169606 0.023638196 0.005928614 0.017244304
0000a0 82 31 df 3b e3 55 4e 3c cc 74 7d 3c 33 8c 01 bd
       0.0068113217 0.012593719 0.015469741 -0.031627845
0000b0 35 05 57 bc 87 03 ce 3b 42 4b 5f 3c 96 dc 53 bc
       -0.0131238 0.0062870416 0.013628783 -0.01293101
0000c0 2e 2a 12 3b e4 4b b4 3c cc 8d 6c bc c5 cd 8d bc
       0.0022302973 0.022008844 -0.014438104 -0.017310033
0000d0 b7 5b b9 bb 73 e4 05 3d bd c7 cb bc 08 cf 86 bc
       -0.005656685 0.03268857 -0.024875516 -0.016456142
0000e0 31 de bf 3b 8a 4a c6 3c 7b 96 11 3b 30 cd f4 3b
       0.0058553447 0.024205465 0.0022214937 0.0074707493
0000f0 6b 54 8f 3c 20 d1 6d bc 58 e7 34 bc 1a 1c 24 3d
       0.017496308 -0.014515191 -0.011041485 0.040065862
000100 35 fe c9 3c 1a 75 a3 3c 9e 76 84 bb 77 c2 3e 3c
       0.024657348 0.0199533 -0.0040424606 0.011643044
000110 b6 ab 1d 39 8d 7c 3d bc f0 52 de 3c 4d 48 d9 3b
       0.00015036654 -0.01156534 0.027139157 0.0066309334
000120 fa cf 66 3c 59 a3 f4 3c 15 0b 66 bc 5c c7 61 3b
       0.014087671 0.029863046 -0.014040728 0.0034451103
000130 8b f5 4c 3c 13 52 d9 3b 17 71 29 bb 8b b0 67 bc
       0.012509714 0.0066320985 -0.002585476 -0.014141212
000140 93 26 2f 3c 61 25 f2 3b 91 de d7 3c 5b 9c aa bc
       0.010690349 0.00738971 0.026351245 -0.02082651
000150 dd 92 1a bc 06 2b c3 bc b8 4d 43 bd 4b 70 3b 3b
       -0.009434429 -0.023824226 -0.04768154 0.0028600867
000160 3b 69 8f bc 3f 22 76 3c 31 ee 8a bc db 7b a3 bc
       -0.017506232 0.015022813 -0.016959282 -0.01995652
000170 c1 e8 12 3c 64 b1 6c 3c 36 cc d3 3c 52 45 96 bc
       0.008966626 0.01444659 0.025854211 -0.018343601
000180 b9 91 bc bc 3a c0 a3 3c 7d b1 5b bc 3e bf 2f ba
       -0.023018705 0.019989122 -0.013409016 -0.00067042175
000190 5e 84 4d bb db 69 b4 bc 9c d5 c1 3c 99 d3 8b bc
       -0.0031359415 -0.022023132 0.023661427 -0.017068671
0001a0 8b 25 50 3b 65 bf 2f bb a1 16 05 bd 8a eb 65 bc
       0.0031760659 -0.002681696 -0.032492284 -0.014033208
0001b0 e1 12 7e 3c 1b 27 61 bc 07 f4 60 3b 1f f4 01 bc
       0.015507431 -0.013742234 0.003432514 -0.007931738
0001c0 38 ef 12 3c df 33 95 3b 39 8e 35 3c f5 13 07 bd
       0.008968167 0.0045533027 0.011081272 -0.032978017
0001d0 c6 6f d6 3b 47 42 11 bc 24 82 8d bc 96 ce 2f bc
       0.006544086 -0.008865899 -0.01727397 -0.010730406
0001e0 ed 1d 6b bc 45 1d 19 3d f5 a8 1b bc 94 15 32 3c
       -0.014350397 0.03738143 -0.009500732 0.010869402
0001f0 59 e5 2b 3c bc e1 a3 bc e5 2e c3 3c ce 67 07 bd
       0.010491692 -0.0200051 0.023826072 -0.03305798

network_body.linear_encoder.seq_layers.0.weight f4 [128, 247]
000000 5b 53 77 bd 02 b7 66 bd d8 cf a8 3d a2 dd 56 bd
       -0.06038223 -0.056326874 0.08242768 -0.05245746
000010 bd 3c 41 3d 71 d5 8d bc 7e 9b 87 3c 2e 17 82 bd
       0.047177065 -0.01731369 0.016553637 -0.063520774
000020 d5 3f 73 bd f7 36 8f 3d 59 53 4f 3d 17 f0 5f bd
       -0.059387047 0.069929056 0.050616596 -0.054672327
000030 6b 65 41 bd 35 f6 00 be 7c 7b 89 3c 78 9b df 3b
       -0.04721586 -0.1259392 0.016782515 0.0068239532
000040 85 e8 ac bd a9 a9 01 3b 12 8c 05 bd 49 fb 5d bd
       -0.08442787 0.0019784963 -0.032604285 -0.054194722
000050 72 97 19 bd d3 16 d6 3b a8 41 09 3d a8 86 8b 3d
       -0.037497945 0.0065334826 0.03350988 0.06812793
000060 14 6e 1a 3c ee b5 fc bd ad 63 2a 3d 24 cc 8d 3d
       0.009425659 -0.12339388 0.041598964 0.06923702
000070 b7 01 aa bc 79 f2 6c bd 94 60 6d 3c 5f 7f 7b 3d
       -0.02075277 -0.057848427 0.014488358 0.061400767
000080 a7 fd df bc 3f c4 60 3d 03 d2 ab 3c f8 6b 1b 3d
       -0.02734263 0.054874655 0.020974165 0.037944764
000090 bf c0 8b bb 80 aa 21 3c 2b 38 19 be 9d c3 a5 3c
       -0.0042649205 0.0098673105 -0.14962833 0.020234877
0000a0 87 ab 8c 3c 82 fb 7f 3d 66 94 75 3c 75 45 b3 3c
       0.017171634 0.062495716 0.014988994 0.021883706
0000b0 a0 91 19 3e 68 a1 4b bd 2a 4e 68 bd 79 f7 68 bd
       0.14996958 -0.049714476 -0.056715168 -0.056876633
0000c0 fd 15 51 bd 9a 54 0d bd 9d 86 70 3c 31 df dc 3d
       -0.05104636 -0.03450451 0.014680532 0.10784758
0000d0 54 8a b5 bc e5 e2 28 bd 1e 42 55 3d 46 55 82 3d
       -0.022160687 -0.04123201 0.052065007 0.06363921
0000e0 a8 77 af 3d 65 c6 ce bd 15 48 66 3c f7 db 83 3c
       0.085677445 -0.100964345 0.014055272 0.016096098
0000f0 59 63 bd bd e3 c7 00 3d 71 94 eb bb 27 9c 51 3d
       -0.09247465 0.031440627 -0.0071893265 0.05117431
000100 9e 93 c4 3c 5e 8d 96 3d 50 0e 63 bd 4a ac c1 bc
       0.02399617 0.073511824 -0.05543357 -0.023641724
000110 c1 69 68 bb 6d bf f3 bc 8a 21 ca bd de ba 41 3d
       -0.0035463425 -0.029754365 -0.09869678 0.04729735
000120 5f ad 05 bd 39 57 90 3c 1d 68 4c 3d 3e 09 8b 3b
       -0.032636043 0.017619716 0.049903978 0.004243045
000130 40 b7 f1 3b ff 6d 8f bd dc e0 ba bd f8 68 d0 3d
       0.0073765814 -0.07003402 -0.0912492 0.10176271
000140 7f c0 2e bc bc 85 1a bd 1b 8c ae 3c 1a 02 65 bd
       -0.010666012 -0.037725195 0.021307042 -0.055910207
000150 8f 90 bb bc 39 75 83 bc e6 33 60 bc 3c 2f 24 3d
       -0.02289608 -0.016047107 -0.013684249 0.04008411
000160 d0 fb 23 3d 88 62 8c bc 06 2e 26 3d c4 84 14 bd
       0.04003507 -0.017136827 0.040571235 -0.036259428
000170 cd 8d 77 bd 14 8e bb 3d ff 8f ae bc a7 ee be 3d
       -0.060437966 0.091579586 -0.021308897 0.09322863
000180 e7 9d 58 bc 41 7d 7c 3d 37 ea 16 3c a3 7e 08 bc
       -0.013221241 0.06164289 0.009211115 -0.008330974
000190 9b b4 7c bd 37 fd 21 3d 9f 83 a5 bd 69 33 2f 3c
       -0.061695676 0.039548125 -0.08081745 0.0106934095
0001a0 8e 86 48 3c 37 c5 64 3d 5c 71 15 3d 63 11 cb 3d
       0.012239112 0.05585214 0.03648506 0.09915426
0001b0 0f 59 02 3d b9 2f f0 bc 19 04 fb bd 61 be e8 bc
       0.031823214 -0.029319631 -0.12256641 -0.028411092
0001c0 df 6b 82 bd 25 b8 b8 bc c9 f6 06 be 07 38 51 bd
       -0.06368231 -0.022548744 -0.13180079 -0.051078822
0001d0 5c 53 66 3d 9f de 5d bd 53 b6 f4 3d 1c bb 12 bb
       0.05623184 -0.054167386 0.11948838 -0.0022389358
0001e0 8c f7 98 bd 25 b0 9a bc 4e 84 fe bc a7 cf 5b 3d
       -0.07469091 -0.01888282 -0.031068947 0.05366483
0001f0 bc 68 8c bd be 50 fd bd 35 f1 c6 3d c5 82 8f 3b
       -0.06855914 -0.12368916 0.09713975 0.0043796026
000200 b5 6a e3 3a 8f 97 15 bd f8 94 b5 bc 2a 50 7f bd
       0.0017350527 -0.03652149 -0.02216576 -0.06233231
000210 63 c7 c5 bd 17 42 69 bc b2 3e 90 3d b1 04 d7 3d
       -0.096571706 -0.014236948 0.07043208 0.10498942
000220 5f 57 59 bd 46 3d 46 bb 7a a0 f0 bd 98 4c 9b 3c
       -0.05306184 -0.0030248924 -0.117493585 0.018957421
000230 61 ad 94 bb 95 19 41 bd 69 7c 08 bb c9 b1 88 bd
       -0.00453727 -0.047143538 -0.0020826107 -0.06674535
000240 c6 ef 05 bb 2b b1 aa 3d cd 1c 4d 3d d3 9d 56 3c
       -0.0020437106 0.08334573 0.050076295 0.013099152
000250 f6 50 88 3c 71 62 e6 bc a1 c0 91 bd 98 dd 21 3c
       0.016640168 -0.028123112 -0.07116819 0.009879492
000260 59 16 92 bd b4 11 87 bc d9 a9 96 bd fd 11 ef 3d
       -0.07133169 -0.016487934 -0.073566146 0.11673353
000270 e9 db 2c 3d 55 8b 63 3d 9b 0f d6 3c 25 b7 b3 3d
       0.04220191 0.0555528 0.026130488 0.087751664
000280 64 e3 3c 3d ad c2 e6 bd 4e 91 c9 3d f3 46 fc 3c
       0.046115294 -0.112676 0.09842168 0.03079555
000290 ab 81 85 3d 24 fe 54 3d ce 24 14 bd 0c 3a 53 3d
       0.06518873 0.05200018 -0.036167912 0.05156903
0002a0 83 63 f5 3d d9 90 b7 bd b7 e8 f8 3b 4a b6 2e bd
       0.11981871 -0.089631744 0.007596101 -0.042654313
0002b0 b5 cc ac bd ad f3 59 bb 9f d3 35 3d 71 7b 82 bc
       -0.08437482 -0.0033256814 0.04439127 -0.015928002
0002c0 17 7d 92 3d 85 03 6c bc e6 2f a4 ba 56 ef d7 bd
       0.07152765 -0.014405136 -0.0012526482 -0.105436966
0002d0 cd 72 f5 bc 28 41 25 bc 3f 35 45 bc 7b 7e 62 3b
       -0.029961968 -0.010086335 -0.012036621 0.0034560252
0002e0 e7 6e 28 3d 6c b8 bc 3b 19 de 54 3d 30 15 79 3d
       0.04112139 0.0057592895 0.05196962 0.06081122
0002f0 93 f1 df 3d d4 b1 17 be 44 99 76 bc 45 f7 27 3e
       0.109347485 -0.1481393 -0.01505119 0.1640292
000300 6b fd b5 bd af 06 bf 3c 90 55 85 3d e2 0b bf 3d
       -0.08886226 0.023318617 0.065104604 0.09328438
000310 26 ee ec bb 58 fe 9d bd 09 6c c1 bc 19 cf 6d 3d
       -0.007230538 -0.07714528 -0.023611085 0.05805883
000320 7d 70 7d bd ec 6a 8b 3d 4f 5b c5 3d 13 e3 bc bc
       -0.061874855 0.06807503 0.09636556 -0.023057496
000330 3c da 3b 3d 59 3d da 3a 4c 21 8c bd d5 b6 2f 3d
       0.04586242 0.0016650363 -0.068422884 0.04289897
000340 9a c2 2d 3d 88 fc 05 3c 17 48 56 bd 0a 10 7d bd
       0.042421915 0.008177884 -0.052314844 -0.061782874
000350 5a fb 48 bd c7 66 ea 3a 4d b0 9f 3d 57 bc 68 bd
       -0.049067833 0.0017883413 0.077972986 -0.05682024
000360 04 fd 27 bd cc 87 46 bd be d3 6a 3d df f9 90 3d
       -0.04101278 -0.04846935 0.05733084 0.07078909
000370 22 a5 39 bd 8c a1 b3 3d f6 dd 93 3d 24 e3 cc bc
       -0.0453235 0.08771047 0.0722007 -0.025010653
000380 dc 03 85 bd 3d 09 a5 bd d0 7a a3 3d 23 e9 be 3c
       -0.06494877 -0.08058403 0.07982409 0.023304528
000390 09 1f 49 bb 37 60 b1 3d 2e 1f 3a 3c c4 dd 33 3d
       -0.0030688664 0.0866093 0.011359973 0.043912664
0003a0 fb e7 96 3d 9a d6 e6 bd 13 ea bd bc 8f f7 ed 3c
       0.073684655 -0.11271401 -0.023182904 0.02904871
0003b0 48 85 d5 3d 39 15 97 3d e0 22 aa 3c b8 54 73 bd
       0.10425812 0.07377095 0.020768583 -0.059406966
0003c0 1b c6 14 3d 78 37 38 bd 03 a2 05 3d 60 74 e9 3a
       0.03632174 -0.044974774 0.03262521 0.0017811172
0003d0 6a 76 28 3d d0 74 e9 bc d0 38 0f 3c 8b 39 a0 bd
       0.041128553 -0.028498083 0.0087415725 -0.078234755
0003e0 b5 16 e2 3b 7f 41 24 bd a9 a6 fc 3d 05 3e 49 bd
       0.0068996795 -0.040101524 0.123364754 -0.049131412
0003f0 3a 24 9e 3c cb c4 44 bd 48 e6 8f 3c bc c8 a4 bd
       0.019304384 -0.04803924 0.017565861 -0.080460995

network_body.linear_encoder.seq_layers.2.bias f4 [128]
000000 ea 9b 6f bc a7 41 ca 3b b6 c0 e4 bb 82 e4 d9 3c
       -0.014624575 0.006172377 -0.0069809807 0.026598219
000010 b6 4b 26 bc 53 e0 53 3b 01 12 ff 3b 71 8d cf bb
       -0.010149887 0.0032329753 0.0077841287 -0.006334
000020 e1 c1 48 bd 3c 5b 17 bd 6f 89 ee 3b 75 c4 95 bc
       -0.049013022 -0.036952242 0.007279567 -0.018282155
000030 1b 3b 53 3d 2e b8 04 bd c4 db b0 3c 82 c3 2e 3d
       0.05157004 -0.03240221 0.021589167 0.04266692
000040 2a d7 62 3b d8 16 76 bc 9f 3b a9 bc 8c e0 05 bd
       0.003461311 -0.015020095 -0.020658312 -0.032684848
000050 89 77 ff 3b c8 96 b7 bc 80 51 ae 3b 5f 81 e4 39
       0.007796232 -0.022410765 0.005319774 0.00043583938
000060 bc 06 56 3c e7 1b f4 bb c7 ca 94 bc 89 0f 5b 3b
       0.013063129 -0.0074496153 -0.018163098 0.0033426008
000070 f6 ff d5 ba 05 a4 af 3c 6c 82 4f bb 38 7f 64 bc
       -0.0016326893 0.021440515 -0.003166343 -0.013946347
000080 14 9f a5 3c cc 0b 9a bc d9 e9 06 bd b4 1d b6 3c
       0.020217456 -0.018804453 -0.03293786 0.02223096
000090 9c 91 38 3d a3 b4 93 bc 20 ec a8 3b 05 8d 54 3c
       0.04506074 -0.01803047 0.0051551014 0.012973075
0000a0 dc 3c 9e 3c 33 6b 30 bc 06 57 3c bd b3 7f d4 bc
       0.01931613 -0.010767746 -0.04598143 -0.025939798
0000b0 30 3e 2a 3b bf c5 0b bd d7 5d 5d bb 08 6c 97 bc
       0.0025977008 -0.034124132 -0.0033777857 -0.01848413
0000c0 c4 d5 17 bc 9d 3d 10 bc 47 ad a9 3c 5a 82 89 3b
       -0.009267274 -0.008803752 0.020712508 0.0041964473
0000d0 85 ed b8 bb c6 f6 3b 3c 4b 03 d9 bb 74 ba 52 ba
       -0.005643549 0.01147241 -0.006622707 -0.0008038648
0000e0 85 b4 10 bd 42 38 b2 3c fd a9 ab 3c 8b d2 9e 3a
       -0.035328407 0.021755341 0.02095508 0.001211719
0000f0 42 d5 4e bc 4e 9c 22 3d c5 73 c2 3c 95 9b f4 3c
       -0.012624087 0.039699845 0.023736844 0.029859344
000100 68 ac 27 3d 57 61 99 3c 16 4b 20 bd 79 e7 e2 3b
       0.040935904 0.018723173 -0.039134108 0.0069245663
000110 21 6a 97 bb bd bb 69 3c 1c ba 7d bb 3d 98 f6 3a
       -0.004620806 0.014265952 -0.0038715666 0.0018813681
000120 90 1f a9 3c 9a 1f 48 3c dd 38 fc bc c5 48 47 bc
       0.020644933 0.012214566 -0.030788833 -0.012163346
000130 1d 51 dc 3a c8 45 aa 3c cd 79 f3 3c b4 ae ee 3c
       0.0016808842 0.020785227 0.029721165 0.02913604
000140 92 72 12 bd c8 39 d1 bc 16 e8 f2 bc 52 5d 52 3c
       -0.035753794 -0.025540248 -0.029651683 0.012839632
000150 80 f5 43 3d ea 2a 04 bd 68 a5 dc 3c d9 59 4b bc
       0.04784155 -0.03226749 0.02693434 -0.012411558
000160 99 05 aa 39 e1 0e 83 3b 57 94 f1 3a aa b6 bf 3c
       0.00032429097 0.0039995764 0.001843105 0.02340253
000170 11 69 a9 3c a4 96 3e 3c 68 d5 91 3a e8 18 e1 3c
       0.020679982 0.011632595 0.0011126222 0.027477697
000180 e1 54 42 3d 5b 94 b5 3a 1c 21 33 3b bd a6 3a bc
       0.047444228 0.0013853417 0.0027332967 -0.011392293
000190 a6 ac e5 bc 76 71 ec bb 95 6e 3a 3c e9 ec 8e 3b
       -0.028036427 -0.007215674 0.011378904 0.004361738
0001a0 8d f9 83 bb 80 69 b0 bb 40 50 b2 bc 8c 7a 99 bb
       -0.0040275515 -0.0053836703 -0.021766782 -0.004683798
0001b0 a2 bc 91 3c 9e 6b 30 3d 05 4c 39 3c b6 e1 a1 3c
       0.017790142 0.04307138 0.011309628 0.019760948
0001c0 eb 96 57 bc e1 55 52 3c 28 8d 6b bb 9e 92 10 3a
       -0.01315854 0.012837858 -0.003594229 0.0005515012
0001d0 e2 15 98 3b 2a 9e 4b 3b a6 90 f9 bb 05 fc 4e 3d
       0.0046412805 0.0031069615 -0.0076161204 0.050533313
0001e0 fa b6 98 3b c3 54 da 3b da ed df 3c 92 bb 71 bb
       0.0046604844 0.0066629364 0.027335096 -0.0036885482
0001f0 1b ba a6 bc 95 61 7f 3c ca 23 c8 3c 0b 1c 79 ba
       -0.020352414 0.01558723 0.024431128 -0.0009502775

network_body.linear_encoder.seq_layers.2.weight f4 [128, 128]
000000 cc 97 90 3d 9b ee 68 3e 6a ea eb 3c c3 6d 13 3e
       0.07060203 0.22747271 0.0287983 0.1439734
000010 50 d9 eb 3d 1e 96 32 3a 12 07 4f bd a2 9d 04 bc
       0.115160584 0.00068125303 -0.050543852 -0.008094223
000020 1d 4c 50 3d 2f d2 01 3e 4b 77 47 ba f6 5d ab 3d
       0.050853837 0.12677835 -0.00076090236 0.08367531
000030 0f 15 17 be 5e 5f 20 bc 41 6b 26 3e 20 2a 00 bd
       -0.14754127 -0.009788362 0.16251852 -0.031290174
000040 a8 85 9c 3d 50 88 24 bd 76 9b 4d 3d dd 7e 02 3e
       0.076426804 -0.04016906 0.050197087 0.12743707
000050 d3 24 4c 39 2c 9f c7 bc d6 f0 1e be 6d 2c 17 be
       0.00019468674 -0.024367891 -0.15521559 -0.14763041
000060 f3 f1 02 3e e5 5a d2 3d d7 70 02 3d b8 57 e3 3c
       0.12787609 0.10271243 0.031845894 0.027751788
000070 02 bc c6 3c dd 81 0a 3e 55 c4 6e 3d cc 86 58 bd
       0.024259571 0.13526101 0.058292706 -0.052862927
000080 49 84 19 bb bf 8a b7 bd 79 c3 7b 3d 0e 2f 5f 3d
       -0.0023424795 -0.089620106 0.061465714 0.054488234
000090 dd a0 21 3d d4 38 74 bd e8 72 0d 3e 89 c1 89 3e
       0.03946005 -0.059624508 0.13813365 0.26905468
0000a0 2e 61 06 bd 21 4c c4 bd 36 b6 e3 3c 48 68 58 be
       -0.03280752 -0.09584833 0.027796846 -0.2113353
0000b0 59 04 02 3e 15 fe 66 3b 94 11 a9 bd 42 a2 14 3e
       0.12696971 0.003524666 -0.08255306 0.14515021
0000c0 80 c5 5b 3d a6 50 12 3d cf 6b 2e bd 73 cb e5 3c
       0.053655148 0.035721444 -0.042583283 0.028051114
0000d0 10 19 72 3c af 23 1b 3e ac c7 8f 3d bf bb 82 bd
       0.014776483 0.15150331 0.07020506 -0.06383466
0000e0 2f 46 1c 3e d6 2e 58 3d 92 6b 24 bd ff ec e2 3d
       0.15261148 0.05277904 -0.04014165 0.1108036
0000f0 bc e0 2d 3d f6 14 25 bb a6 ca c7 bd 4e 55 55 3d
       0.04245065 -0.0025189496 -0.09755449 0.052083306
000100 23 db 79 3d 76 8e 56 3c 46 ca 9b 3d 9a a2 af bd
       0.061 0.013095489 0.0760694 -0.08575936
000110 cd ff c3 bd d7 38 1e bb 7e 84 8c 3d a3 d0 9b 3b
       -0.095702745 -0.0024142766 0.068612084 0.004755096
000120 ef 65 03 be b6 72 b6 bd a5 83 d2 bd 6a 5f 09 3d
       -0.12831853 -0.08908598 -0.102790155 0.03353826
000130 0e e1 10 be 07 15 99 3d 49 fe 13 3e a3 52 2a 3e
       -0.14148352 0.07474714 0.14452471 0.16633086
000140 23 ae 9b 3d 9f 55 78 3d bc 38 8f bd 55 f7 2b 3e
       0.07601573 0.06062853 -0.06993243 0.16793568
000150 bd 71 bc bb c6 52 6b 3c 4d ed 1d 3d af d9 37 bd
       -0.0057508633 0.014362996 0.038556386 -0.044885334
000160 7d ae fd 3d dc 9b 9d bd ce 59 b3 3d 85 d3 42 3d
       0.123867966 -0.076957434 0.08757363 0.047565002
000170 8c d2 67 be 64 50 b4 bd 24 d0 09 be 28 b9 62 bd
       -0.22638911 -0.08804396 -0.13458306 -0.05535236
000180 ce a0 a8 3c 12 02 10 3e dd 33 f1 3b 1d 5b 18 bd
       0.02058449 0.1406329 0.007360919 -0.037196267
000190 a2 3b a1 bd 63 23 62 3d 98 ee 1b bd 63 1a 26 bd
       -0.07872702 0.05520953 -0.038069338 -0.040552508
0001a0 2b ea df 3c 72 7f a9 3d 89 ae 9a 3d 15 51 a1 bd
       0.02733334 0.082762614 0.07552821 -0.07876793
0001b0 14 b1 5d bd 0e 4e 35 3d 0a 11 0d 3e 2f a4 84 3d
       -0.054123953 0.044263892 0.13776031 0.06476628
0001c0 0a aa 35 bc d9 67 7f 3b 12 fb 79 3d 32 ad 87 bd
       -0.011087904 0.003897181 0.061030455 -0.06624831
0001d0 1f 37 05 3d 21 0e c3 bd 6e af cb bc 3c 00 71 be
       0.03252327 -0.09524179 -0.024863925 -0.23535246
0001e0 5a 93 64 bd 42 51 89 bd 03 9e b6 bc b8 f5 20 3e
       -0.055804588 -0.06704952 -0.022292143 0.15718734
0001f0 f3 8d ad bd 82 69 7d 3d 94 2a 21 3d 4d c9 f2 3d
       -0.0847434 0.0618682 0.039347246 0.11854801
000200 52 78 62 3d ae b8 a0 bc 5b a3 e8 3c 6d 36 39 bc
       0.055290528 -0.019619312 0.028398206 -0.01130448
000210 f9 cd 2b bc fc 11 a3 3d f8 f2 e0 bc 4c 87 eb bd
       -0.010486119 0.079624146 -0.027459607 -0.11500415
000220 dd 69 c8 bc ca bd 6d bd 8f bd 4b 3d 9e bf d2 bc
       -0.024464542 -0.058042325 0.049741324 -0.025726136
000230 82 c7 8c 3a 45 44 3f bd 59 56 c7 3d b4 64 c6 bd
       0.001074061 -0.046695966 0.097332664 -0.09687176
000240 87 62 f8 bd 87 cc ab 3c a0 d5 f5 3d 5c 2c d9 3d
       -0.121281676 0.02097155 0.12003636 0.10604164
000250 39 c5 31 3e a9 ac d8 3d 67 f5 36 3e 33 93 16 be
       0.1736039 0.10579807 0.17867051 -0.1470459
000260 9d a7 74 3d 37 54 c4 bd 21 a4 80 bd 5f c5 e0 3d
       0.05973016 -0.09586375 -0.06281305 0.109751455
000270 03 b3 18 3d 54 b3 c1 bd 02 1d dd bc b3 d8 dd bd
       0.037280094 -0.09458032 -0.026991371 -0.10832348
000280 6b cb 87 bc 25 07 46 be 4c 29 af bc 5d a6 f4 3d
       -0.01657649 -0.19338663 -0.021381997 0.11945794
000290 22 09 60 3c 88 6e 10 bd 06 9f 22 3d 4a 2a af bd
       0.013674052 -0.03526166 0.039702438 -0.08552988
0002a0 76 b0 50 3e 73 af 6b bd d1 20 21 3e f2 70 96 bc
       0.20379815 -0.05754037 0.15735175 -0.018364403
0002b0 c6 28 f1 3c e9 43 09 3e 8d c2 4a 3e 97 96 ff bd
       0.029438388 0.13404812 0.19800778 -0.124798946
0002c0 e5 64 0b bd 22 13 bf 3d 34 80 6d 3d e1 c6 42 3e
       -0.034031767 0.09329821 0.057983592 0.19021179
0002d0 17 ed 90 bd cd 04 be bb 71 4c 20 bc b4 e6 19 3e
       -0.07076471 -0.005798912 -0.00978385 0.15029413
0002e0 96 2d 44 3c b2 16 b5 bd 83 45 e1 3d ea ff 72 bd
       0.011973759 -0.088422194 0.109995864 -0.05932609
0002f0 e8 98 e4 bd fe 3a 61 3c eb e8 a1 bc 7f 27 95 3d
       -0.11161977 0.013746975 -0.019764384 0.07282924
000300 4d 4f d8 bd 17 a1 17 be 30 da 0f 3d f3 1b 23 bd
       -0.105620004 -0.14807545 0.03512019 -0.039821576
000310 87 f0 7a bc 2e 7c 18 3c 08 17 d4 3d bd 3f d9 3d
       -0.015316135 0.0093069505 0.10355955 0.1060786
000320 22 7d d0 3d 4f 33 ef 3d 3c 39 7b 3d 2f 9d 08 be
       0.10180117 0.11679708 0.06133388 -0.13341211
000330 1f 6b 25 3c 9e 5f af 3d 4d df a2 3d 81 f1 6f bd
       0.01009634 0.085631594 0.079527475 -0.058579925
000340 a2 0a d1 bd 92 08 d5 bd b8 7a 52 3d ef cd c2 bd
       -0.10207106 -0.10402025 0.051386565 -0.09511935
000350 50 06 29 bd 8f e8 58 bc a4 6e b7 3d df cd 97 3b
       -0.041265786 -0.01323904 0.0895665 0.004632696
000360 06 e6 51 3d 8c 59 9e 3d 78 bf 14 3d bc 02 ef 3d
       0.051244758 0.077319235 0.03631541 0.116704434
000370 09 f0 1e bc 64 81 9b bd 25 f4 d6 3d aa 6a 82 3d
       -0.0097007835 -0.07593039 0.104957856 0.06368001
000380 30 9a e1 bc 9f 71 89 bd 2b ad 45 3d 77 6d 98 3d
       -0.027539343 -0.06711125 0.04826085 0.07442754
000390 fe 13 98 3d 17 a9 92 3d 03 85 a3 bd e3 f2 fd bd
       0.07425688 0.071611576 -0.07984354 -0.123998426
0003a0 a1 67 d0 3d b9 7d 81 3d 0c 48 b5 bc 02 3a ec bd
       0.10176016 0.06322808 -0.022129081 -0.115345016
0003b0 be 0b 8c 3e ed ba 15 3e 5f 83 bc 3c 3a 2c e0 bd
       0.2735271 0.14622088 0.023011861 -0.109459355
0003c0 a9 d3 e5 bd f1 c2 2a bc f9 3f 91 bd 7b 82 ce bd
       -0.112220116 -0.010422454 -0.0709228 -0.10083481
0003d0 7d a4 25 be 18 50 a1 3d 8d ec 44 3d 48 9f 12 3e
       -0.16176029 0.07876605 0.048077155 0.14318573
0003e0 29 03 14 3d 88 82 5a 3d 0d da 1b be 8c 51 b2 bd
       0.036135826 0.05334714 -0.15219899 -0.0870696
0003f0 26 0f a3 bc 52 80 2d bd 2f 2b 91 bc 9e 90 b9 3d
       -0.019904684 -0.042358704 -0.017720787 0.09060787
