results/bomber-v2/Bomberman/Bomberman-355115.onnx (onnx, 669355 bytes, 9 tensors)

103 f4 [1, 128, 256]
0.39303577 -0.13825056 0.23752797 0.013710036 -0.39353523 0.01630532 -0.13558795 0.28348517
-0.091982886 -0.17858547 0.3402735 0.22753274 0.050406702 0.16174442 0.07516677 -0.11717601
0.023533287 -0.26526183 -0.32585448 -1.028745 0.17540318 -0.06838198 0.34014884 0.04736882
0.13865227 0.28670257 -0.09396307 -0.4356106 0.14154314 0.12665682 -0.03517046 -0.003841248
0.09087665 0.45319515 -0.06868666 -0.04924686 -0.14436702 0.18718867 -0.56344384 0.09060131
0.06633738 -0.31387553 -0.18752348 -0.17310661 -0.19808963 -0.02124779 -0.08897803 0.13069828
-0.26117596 0.25425267 0.012505124 -0.16632083 -0.23233046 0.28326184 -0.1554608 0.03896636
0.39236102 -0.21453828 0.17951792 0.1885467 -0.10726463 0.32128558 -0.41394755 -0.28081772
-0.2851134 -0.011454418 0.040592473 -0.04574545 0.21383107 0.109125756 0.3587868 0.47533208
-0.090976104 0.05113869 0.17505671 -0.49231225 0.1881492 -0.4538223 0.065689415 -0.030072222
0.060330346 -0.25962657 0.015709203 0.15854444 0.12519312 0.06830382 0.15367378 0.2287667
0.105059296 -0.02910273 0.37441736 0.08753798 0.16497068 -0.26055208 0.06377799 0.44238746
-0.0020413082 0.0010974441 0.018635038 0.2924727 0.54759043 0.4146867 0.026213322 0.38664478
-0.11649914 -0.5557761 0.15879896 0.4435118 0.68945056 0.13218276 -0.11710854 -0.31653237
0.16221409 -0.38787746 0.17401169 0.0033991951 0.17700641 -0.09032196 0.3545901 0.3159109
-0.122764334 0.28507316 0.014249962 0.35253194 0.035190966 0.102973476 0.24666587 0.7003139
-0.21149874 0.13614403 0.08298486 0.06239695 0.69646466 -0.20339099 0.31123838 -0.0058854665
-0.30244756 0.11600924 0.09602333 0.26015288 -0.14028478 0.024996296 -0.16519795 0.42119625
0.03461654 -0.076191075 -0.49233317 -0.03343593 -0.36217353 -0.063747175 0.19871598 -0.18675426
0.18125 -0.30225906 0.015739547 0.48530236 0.048220325 0.25462645 0.078057386 0.119336456
0.20083341 -0.7398571 -0.13539462 -0.5412692 -0.023866564 -0.19940424 0.34888867 -0.48757255
-0.19611326 0.009002575 -0.22070053 0.08023985 -0.3412895 0.42621055 0.011997423 0.43317604
-0.25403088 -0.29214182 -0.124294475 0.11553141 -0.28073975 0.13653128 -0.03345489 0.1245865
0.12098732 -0.1909574 -0.16937289 -0.47093493 -0.3725844 0.111215666 -0.004746054 0.25762367
-0.14365843 0.2682928 -0.29314315 0.23669913 0.3730984 0.19992687 0.07335185 -0.08263979
0.5397742 0.2153281 -0.4956101 -0.65792596 0.0998949 0.2726365 -0.11956839 -0.4270385
0.06709055 0.051544007 0.13354774 -0.17168449 0.012752643 0.39250222 0.4661508 0.053249627
0.5151165 -0.0028393236 -0.15025091 -0.29226762 0.1917252 0.5940884 -0.41904712 -0.43864864
-0.3963194 0.008448763 0.46879148 -0.21629202 -0.006796799 0.49834993 -0.16642049 -0.29716858
0.42689723 0.1605466 -0.08825071 -0.24552704 -0.0004673644 -0.8884606 -0.085269496 0.17390734
0.39696816 -0.096910626 0.07990209 -0.31352627 0.0907896 -0.26630214 0.83698547 -0.22345011
0.14838691 -0.0080553135 -0.030820912 -0.25625965 0.21868873 -0.05982917 0.3580241 -0.12749025
00000000: fc3b c93e 8e91 0dbe 883a 733e 0fa0 603c
00000010: 737d c9be bc92 853c 91d7 0abe f824 913e
00000020: 8661 bcbd 1cdf 36be 5438 ae3e 58fe 683e
00000030: 4277 4e3d 54a0 253e 09f1 993d faf9 efbd
00000040: e1c8 c03c 66d0 87be 66d6 a6be ebad 83bf
00000050: e49c 333e da0b 8cbd fd27 ae3e cf05 423d
00000060: dcfa 0d3e aeca 923e b66f c0bd 5a08 dfbe
00000070: aff0 103e 53b2 013e e60e 10bd 73bd 7bbb
00000080: 891d ba3d 3209 e83e 97ab 8cbd 13b7 49bd
00000090: f3d4 13be 63ae 3f3e db3d 10bf 2e8d b93d
000000a0: e4db 873d 4bb4 a0be 2806 40be dc42 31be
000000b0: 02d8 4abe d80f aebc 1d3a b6bd c5d5 053e
000000c0: dbb8 85be 682d 823e 4be2 4c3c 0250 2abe
000000d0: 09e8 6dbe b207 913e 1e31 1fbe 319b 1f3d
000000e0: 8be3 c83e ecaf 5bbe 8cd3 373e 6312 413e
000000f0: 8fad dbbd 8b7f a43e eff0 d3be 57c7 8fbe
00000100: 62fa 91be 50ab 3bbc 4b44 263d 955f 3bbd
00000110: 88f6 5a3e 537d df3d e7b2 b73e ba5e f33e
00000120: ae51 babd ce76 513d 1142 333e 5a10 fcbe
00000130: 2faa 403e 665b e8be 2c88 863d 055a f6bc
00000140: f41c 773d c6ed 84be 96b0 803c 7959 223e
00000150: a032 003e e0e2 8b3d a95c 1d3e d141 6a3e
00000160: 5429 d73d d968 eebc a2b3 bf3e 1d47 b33d
00000170: 13ee 283e 1567 85be 099e 823d 9c80 e23e
00000180: 78c7 05bb 1dd8 8f3a 82a8 983c fbbe 953e
00000190: e32e 0c3f d151 d43e 52bd d63c 4ef6 c53e
000001a0: 1a97 eebd 5847 0ebf 329c 223e fb13 e33e
000001b0: d57f 303f eb5a 073e 9ad6 efbd 8810 a2be
000001c0: 731b 263e e097 c6be 1f30 323e 08c5 5e3b
000001d0: 2b41 353e b8fa b8bd d58c b53e 13bf a13e
000001e0: de6b fbbd 1cf5 913e ac78 693c 117f b43e
000001f0: 6724 103d c2e3 d23d fa95 7c3e c647 333f
00000200: 2093 58be 5769 0b3e f7f3 a93d f293 7f3d
00000210: 824b 323f ba45 50be a35a 9f3e dfda c0bb
00000220: 68da 9abe 4196 ed3d e1a7 c43d c232 853e
00000230: d0a6 0fbe 08c5 cc3c a729 29be 09a7 d73e
00000240: 13ca 0d3d 110a 9cbd 1813 fcbe 1df4 08bd
00000250: cf6e b9be e18d 82bd 347c 4b3e 823c 3fbe
00000260: 9a99 393e b3c1 9abe 39f0 803c 8d79 f83e
00000270: ad82 453d 665e 823e 8ddc 9f3d ac66 f43d
00000280: 46a7 4d3e 4667 3dbf e3a4 0abe 9e90 0abf
00000290: d083 c3bc a030 4cbe 89a1 b23e 1ca3 f9be
000002a0: ead1 48be 897f 133c 52ff 61be ca54 a43d
000002b0: 7fbd aebe 4538 da3e d790 443c 40c9 dd3e
000002c0: 5610 82be 9d93 95be 1a8e febd bb9b ec3d
000002d0: 1fbd 8fbe dbce 0b3e ff07 09bd 3527 ff3d
000002e0: 33c8 f73d 568a 43be 1670 2dbe 621e f1be
000002f0: 62c3 bebe 0ac5 e33d c984 9bbb 40e7 833e
00000300: 321b 13be ad5d 893e dc16 96be 4261 723e
00000310: c106 bf3e a1b9 4c3e 7f39 963d 0d3f a9bd
00000320: a42e 0a3f f87e 5c3e 9bc0 fdbe d66d 28bf
00000330: b395 cc3d 0397 8b3e 46e0 f4bd caa4 dabe
00000340: c566 893d cf1f 533d bdc0 083e 0fce 2fbe
00000350: 76f0 503c 0df6 c83e 51ab ee3e 481c 5a3d
00000360: adde 033f f213 3abb 60db 19be 1aa4 95be
00000370: 9c53 443e 2d16 183f 588d d6be 8e96 e0be
00000380: 60ea cabe ae6c 0a3c 7005 f03e a87b 5dbe
00000390: afb7 debb b927 ff3e 226a 2abe 7b26 98be
000003a0: 4692 da3e 5466 243e cabc b4bd 716b 7bbe
000003b0: 9708 f5b9 2772 63bf c6a1 aebd c414 323e
000003c0: 693f cb3e 1479 c6bd b5a3 a33d 8486 a0be
000003d0: e6ef b93d c158 88be ae44 563f 1bd0 64be
000003e0: bdf2 173e 6ffa 03bc 237c fcbc 7734 83be
000003f0: f0ef 5f3e 6f0f 75bd ef4e b73e ce8c 02be

104 f4 [1, 128, 32]
-0.42986074 -0.32184076 0.23676264 0.36548305 -0.9677368 -0.49326152 0.15329579 -0.6087033
-0.06453891 -0.95481926 0.25848755 0.1740272 0.2606496 0.8001318 0.021099579 0.16708696
0.17120852 -0.040533323 0.10890926 0.026677772 0.2628951 0.42774332 0.5724873 -0.9026098
0.03674006 0.24517022 0.100907676 -0.19565605 -0.70484567 -0.14978787 0.40159115 0.29673344
-0.9297007 -0.20373854 -0.1530913 0.061234117 -0.14167246 0.55233854 0.5659552 -0.07122257
0.019195547 0.66028255 -0.01956733 0.7501581 0.5675301 0.4151798 -0.79331523 0.19905494
0.24230732 -0.24339132 -0.07802665 0.47468612 -0.8117054 0.8586797 -0.08000682 -0.49786437
0.3217107 0.0029487421 -0.15951204 0.063026525 -0.6662512 -0.45939848 -0.16111673 -0.10832323
1.0639731 -0.42799488 -0.20778139 -0.32084173 -0.32353815 -0.60493857 -0.42185462 -0.42624643
-0.28480592 0.298713 -0.45100805 0.05557692 -0.13642628 0.42108226 0.766954 0.36937025
0.3573347 -0.3381332 -0.59415054 -0.58641845 0.067256995 0.14715442 -0.010507649 0.70562345
-0.5817716 0.34017846 -0.51267946 -0.0059990254 -0.13239357 -0.530807 0.28420994 0.533477
-0.68822265 -0.7416362 0.3654249 -0.66117954 -0.23683214 1.1399853 -0.17254782 0.106475346
0.40154856 0.113708615 -0.77849823 -0.14489396 0.026599808 0.16302885 0.7662622 -0.088810764
-0.4448807 0.57765424 -0.26653498 -0.021770598 0.8318941 0.17067179 -1.238789 1.4060218
-0.15962838 -0.60347325 -0.39983582 -0.1395769 -0.14373444 0.3603119 0.080916256 -0.40332887
0.9946965 -0.84003997 0.16393451 -0.55091476 -0.6437391 -0.24635227 -0.87751615 0.23450756
-0.18937075 0.22567086 -0.68804383 0.7939778 0.18734711 1.4774967 0.64446247 -0.09470175
0.61204916 -0.6050655 -0.9442317 0.19984223 0.40587416 0.16863866 0.20201671 0.5766235
0.56713736 0.66031563 -0.11504964 -0.9985666 0.70221716 0.2528376 0.50751823 1.2078811
0.37931326 -0.27706397 -0.4374713 -1.4248497 -0.19272713 -0.44283974 -0.2637017 -0.0077140336
-0.75478923 -0.24852912 0.06871431 -0.5766161 0.49059504 0.42722082 0.502973 0.0018551992
0.6222647 -0.2352918 0.13905054 0.041269016 -0.031889904 -0.15020683 -0.09869061 0.2186464
-0.017644985 -0.07737269 0.47762352 -0.25137377 0.7851516 -0.41300157 0.9323986 -0.04981708
0.1911519 0.5096322 -0.28308323 0.41860828 0.34312075 -1.2470993 0.61735487 -1.125546
-1.04764 -0.57168263 0.36664918 0.18973166 -0.6651439 0.24887809 -0.3943192 -0.088125624
0.65378493 0.26052496 0.78634083 -0.49710238 -0.3825677 0.23847426 0.25621328 -0.16730638
-0.49137083 -0.14839646 0.59478885 0.5423955 0.36396363 -0.013410752 -0.17148529 -0.2016401
0.41190723 -0.64691854 -0.021323474 0.21336946 -0.21405004 0.26414716 -1.2974348 0.04769053
0.28157893 0.5836229 -1.1003443 0.27708107 0.07748908 0.014283161 -0.048353657 -0.5670385
0.19974105 0.15758407 -1.110657 -0.02104155 0.032184366 0.8974634 -1.1146199 -0.4094598
-0.85531163 -0.3198924 0.050101295 0.044952616 0.0120019 0.5865206 -0.049854424 0.31934515
00000000: b516 dcbe 50c8 a4be e871 723e 9820 bb3e
00000010: 99bd 77bf c68c fcbe 92f9 1c3e fbd3 1bbf
00000020: fa2c 84bd 096f 74bf 7b58 843e 3034 323e
00000030: dd73 853e 70d5 4c3f 06d9 ac3c d818 2b3e
00000040: 4951 2f3e 4506 26bd d10b df3d 588b da3c
00000050: 309a 863e 2c01 db3e 878e 123f 7011 67bf
00000060: bf7c 163d e70d 7b3e afa8 ce3d 0f5a 48be
00000070: c470 34bf fe61 19be 5b9d cd3e 72ed 973e
00000080: dd00 6ebf d6a0 50be f7c3 1cbe a0d0 7a3d
00000090: 9612 11be 0f66 0d3f 71e2 103f 24dd 91bd
000000a0: fb3f 9d3c 4708 293f aa4b a0bc 5c0a 403f
000000b0: a749 113f 7292 d43e b516 4bbf 0fd5 4b3e
000000c0: 691f 783e 933b 79be 70cc 9fbd 0f0a f33e
000000d0: edcb 4fbf 6fd2 5b3f 9eda a3bd 14e8 febe
000000e0: 44b7 a43e af3f 413b 2057 23be 0d14 813d
000000f0: 708f 2abf 4736 ebbe c9fb 24be 92d8 ddbd
00000100: 4530 883f 2522 dbbe a5c4 54be 5e45 a4be
00000110: cba6 a5be 41dd 1abf 54fd d7be f93c dabe
00000120: 15d2 91be e9f0 983e 87ea e6be a0a4 633d
00000130: 55b3 0bbe 1898 d73e 1957 443f 191e bd3e
00000140: 93f4 b63e cb1f adbe 401a 18bf 851f 16bf
00000150: 09be 893d a6af 163e 4628 2cbc bda3 343f
00000160: fcee 14bf df2b ae3e f63e 03bf 7993 c4bb
00000170: 2e92 07be f8e2 07bf f783 913e f391 083f
00000180: 5c2f 30bf dfdb 3dbf f918 bb3e 1043 29bf
00000190: 2084 72be 0aeb 913f 60b0 30be bf0f da3d
000001a0: c697 cd3e 10e0 e83d a94b 47bf 155f 14be
000001b0: d7e7 d93c 09f1 263e c229 443f 6be2 b5bd
000001c0: 67c7 e3be 26e1 133f 4677 88be 4158 b2bc
000001d0: 03f7 543f 96c4 2e3e a390 9ebf 86f8 b33f
000001e0: 9f75 23be 397d 1abf 48b7 ccbe 3fed 0ebe
000001f0: 1f2f 13be cd7a b83e 6cb7 a53d 1f81 cebe
00000200: 6ea4 7e3f dc0c 57bf 73de 273e c008 0dbf
00000210: 16cc 24bf c543 7cbe e6a4 60bf c022 703e
00000220: 68ea 41be 4316 673e a423 30bf 2142 4b3f
00000230: ecd7 3f3e 9d1e bd3f 7efb 243f fef2 c1bd
00000240: 41af 1c3f 93e5 1abf 2bb9 71bf 71a3 4c3e
00000250: bdce cf3e 9daf 2c3e 78dd 4e3e 999d 133f
00000260: ea2f 113f 720a 293f 259f ebbd 10a2 7fbf
00000270: 81c4 333f ee73 813e b7ec 013f d99b 9a3f
00000280: 5935 c23e 54db 8dbe 3dfc dfbe 7a61 b6bf
00000290: 435a 45be e4bb e2be e903 87be 01c6 fcbb
000002a0: de39 41bf 6b7e 7ebe 17ba 8c3d 1d9d 13bf
000002b0: 462f fb3e b0bc da3e d7c2 003f 282a f33a
000002c0: bd4c 1f3f 55f0 70be 4463 0e3e b309 293d
000002d0: fd9e 02bd d2cf 19be 4d1e cabd d8e4 5f3e
000002e0: 378c 90bc 9375 9ebd 128b f43e 10b4 80be
000002f0: b2ff 483f f174 d3be adb1 6e3f ff0c 4cbd
00000300: 53bd 433e 4177 023f 49f0 90be d353 d63e
00000310: 86ad af3e f3a0 9fbf f80a 1e3f e411 90bf
00000320: 1119 86bf cb59 12bf 71b9 bb3e 0449 423e
00000330: df46 2abf e6d9 7e3e 35e4 c9be 357b b4bd
00000340: 735e 273f 8763 853e a24d 493f 3484 febe
00000350: eadf c3be 9932 743e 632e 833e 5d52 2bbe
00000360: f594 fbbe 3ef5 17be 1544 183f 6eda 0a3f
00000370: 7159 ba3e c5b8 5bbc d799 2fbe be7a 4ebe
00000380: 81e5 d23e 749c 25bf 91ae aebc 867d 5a3e
00000390: ef2f 5bbe 4c3e 873e 5812 a6bf 2557 433d
000003a0: 1d2b 903e 4f68 153f 15d8 8cbf 92dd 8d3e
000003b0: 98b2 9e3d eb03 6a3c 7c0e 46bd 6f29 11bf
000003c0: eb88 4c3e b85d 213e 022a 8ebf 545f acbc
000003d0: c1d3 033d 29c0 653f ddab 8ebf b7a4 d1be
000003e0: b4f5 5abf f0c8 a3be 0437 4d3d 3c20 383d
000003f0: 9ea3 443c 3726 163f 2734 4cbd 3581 a33e

105 f4 [1, 256]
-0.07350638 0.26280028 0.20996256 0.43881717 0.7510187 0.3553003 0.03738845 0.074898586
-0.117765345 0.5887275 -0.19445036 -0.20230938 -0.13856013 -0.013882226 -0.286803 -0.04089245
0.17715517 -0.09872827 0.10394158 0.57665575 -0.11243924 0.9814185 0.17280576 0.8294454
0.6186632 -0.14892595 1.0871778 -0.08831885 0.092416525 -0.039387885 -0.061721966 0.25899813
0.2767692 0.30827126 0.4280957 0.081197284 0.6714103 0.75356376 0.2714062 0.24672733
0.14745201 0.3583762 0.11526688 0.27191475 0.13167006 0.1759827 0.14842123 0.30335444
0.4153015 0.13241751 0.2876931 0.6862031 0.14823636 0.25692645 -0.1798052 0.82270676
-0.29511824 0.32429793 0.20445551 -0.1515761 -0.02455242 0.16778645 0.69817907 0.0784052
1.0617224 0.7120888 0.95647156 1.4463898 1.0789945 0.8234685 0.95107114 1.245098
0.8629879 1.0447106 0.7307585 1.1673335 0.9325875 0.9986243 1.2127149 0.9959207
0.7888673 0.81076604 1.2214373 1.2612941 0.8291849 0.8409038 0.9800512 0.88029104
0.98225117 1.247374 1.0874355 1.017663 0.48115674 1.0200366 1.0786759 1.2075875
0.11365022 0.09615017 0.044427406 0.535385 -0.262771 0.10294832 0.07256553 0.24714866
0.0925248 0.47106 -0.17691638 -0.2159221 -0.10448458 0.16015434 0.5037325 0.07518086
-0.2527593 0.07939954 -0.58559823 -0.3278902 0.08272097 0.53726196 -0.047398668 -0.08368415
-0.30421686 -0.0021752347 0.060854733 0.015490778 -0.030090049 -0.0875113 -0.101917855 -0.10518354
-0.07350638 0.26280028 0.20996256 0.43881717 0.7510187 0.3553003 0.03738845 0.074898586
-0.117765345 0.5887275 -0.19445036 -0.20230938 -0.13856013 -0.013882226 -0.286803 -0.04089245
0.17715517 -0.09872827 0.10394158 0.57665575 -0.11243924 0.9814185 0.17280576 0.8294454
0.6186632 -0.14892595 1.0871778 -0.08831885 0.092416525 -0.039387885 -0.061721966 0.25899813
0.2767692 0.30827126 0.4280957 0.081197284 0.6714103 0.75356376 0.2714062 0.24672733
0.14745201 0.3583762 0.11526688 0.27191475 0.13167006 0.1759827 0.14842123 0.30335444
0.4153015 0.13241751 0.2876931 0.6862031 0.14823636 0.25692645 -0.1798052 0.82270676
-0.29511824 0.32429793 0.20445551 -0.1515761 -0.02455242 0.16778645 0.69817907 0.0784052
1.0617224 0.7120888 0.95647156 1.4463898 1.0789945 0.8234685 0.95107114 1.245098
0.8629879 1.0447106 0.7307585 1.1673335 0.9325875 0.9986243 1.2127149 0.9959207
0.7888673 0.81076604 1.2214373 1.2612941 0.8291849 0.8409038 0.9800512 0.88029104
0.98225117 1.247374 1.0874355 1.017663 0.48115674 1.0200366 1.0786759 1.2075875
0.11365022 0.09615017 0.044427406 0.535385 -0.262771 0.10294832 0.07256553 0.24714866
0.0925248 0.47106 -0.17691638 -0.2159221 -0.10448458 0.16015434 0.5037325 0.07518086
-0.2527593 0.07939954 -0.58559823 -0.3278902 0.08272097 0.53726196 -0.047398668 -0.08368415
-0.30421686 -0.0021752347 0.060854733 0.015490778 -0.030090049 -0.0875113 -0.101917855 -0.10518354
00000000: 838a 96bd c28d 863e 6d00 573e a5ac e03e
00000010: c342 403f ece9 b53e a224 193d 6e64 993d
00000020: f52e f1bd d8b6 163f ff1d 47be 312a 4fbe
00000030: b5e2 0dbe 4772 63bc d8d7 92be d77e 27bd
00000040: 2a68 353e 0c32 cabd 53df d43d b69f 133f
00000050: 8b46 e6bd 3e3e 7b3f fef3 303e 8956 543f
00000060: b660 1e3f 0b80 18be a428 8b3f 83e0 b4bd
00000070: e044 bd3d 3155 21bd 2cd0 7cbd 679b 843e
00000080: b1b4 8d3e bbd5 9d3e 5c2f db3e c34a a63d
00000090: 8ce1 2b3f 8ee9 403f c1f5 8a3e 17a6 7c3e
000000a0: a9fd 163e 167d b73e 0b11 ec3d 6938 8b3e
000000b0: 84d4 063e cf34 343e bcfb 173e 4651 9b3e
000000c0: 66a2 d43e 7598 073e 834c 933e 02ab 2f3f
000000d0: 46cb 173e dd8b 833e db1e 38be e99c 523f
000000e0: bd19 97be 610a a63e c95c 513e c436 1bbe
000000f0: 2822 c9bc 36d0 2b3e ddbb 323f e892 a03d
00000100: 85e6 873f 744b 363f 52db 743f 4d23 b93f
00000110: 7e1c 8a3f d5ce 523f 6679 733f 5f5f 9f3f
00000120: c6ec 5c3f 14b9 853f fd12 3b3f 2f6b 953f
00000130: 0ebe 6e3f d8a5 7f3f 3e3a 9b3f a9f4 7e3f
00000140: 35f3 493f 5d8e 4f3f 0f58 9c3f 1672 a13f
00000150: 7645 543f 7945 573f a3e4 7a3f c15a 613f
00000160: d074 7b3f f4a9 9f3f 1631 8b3f c842 823f
00000170: 2d5a f63e 8f90 823f 0d12 8a3f 3a92 9a3f
00000180: 72c1 e83d 61ea c43d 83f9 353d fe0e 093f
00000190: ec89 86be 92d6 d23d 3d9d 943d 8a14 7d3e
000001a0: a47d bd3d c72e f13e 9129 35be af1a 5dbe
000001b0: 03fc d5bd 80ff 233e 9df4 003f 6cf8 993d
000001c0: ab69 81be 3a9c a23d c4e9 15bf 39e1 a7be
000001d0: 9d69 a93d 008a 093f 1b25 42bd 9862 abbd
000001e0: 50c2 9bbe 628e 0ebb d042 793d 08cd 7d3c
000001f0: 687f f6bc 2039 b3bd 4fba d0bd 786a d7bd
00000200: 838a 96bd c28d 863e 6d00 573e a5ac e03e
00000210: c342 403f ece9 b53e a224 193d 6e64 993d
00000220: f52e f1bd d8b6 163f ff1d 47be 312a 4fbe
00000230: b5e2 0dbe 4772 63bc d8d7 92be d77e 27bd
00000240: 2a68 353e 0c32 cabd 53df d43d b69f 133f
00000250: 8b46 e6bd 3e3e 7b3f fef3 303e 8956 543f
00000260: b660 1e3f 0b80 18be a428 8b3f 83e0 b4bd
00000270: e044 bd3d 3155 21bd 2cd0 7cbd 679b 843e
00000280: b1b4 8d3e bbd5 9d3e 5c2f db3e c34a a63d
00000290: 8ce1 2b3f 8ee9 403f c1f5 8a3e 17a6 7c3e
000002a0: a9fd 163e 167d b73e 0b11 ec3d 6938 8b3e
000002b0: 84d4 063e cf34 343e bcfb 173e 4651 9b3e
000002c0: 66a2 d43e 7598 073e 834c 933e 02ab 2f3f
000002d0: 46cb 173e dd8b 833e db1e 38be e99c 523f
000002e0: bd19 97be 610a a63e c95c 513e c436 1bbe
000002f0: 2822 c9bc 36d0 2b3e ddbb 323f e892 a03d
00000300: 85e6 873f 744b 363f 52db 743f 4d23 b93f
00000310: 7e1c 8a3f d5ce 523f 6679 733f 5f5f 9f3f
00000320: c6ec 5c3f 14b9 853f fd12 3b3f 2f6b 953f
00000330: 0ebe 6e3f d8a5 7f3f 3e3a 9b3f a9f4 7e3f
00000340: 35f3 493f 5d8e 4f3f 0f58 9c3f 1672 a13f
00000350: 7645 543f 7945 573f a3e4 7a3f c15a 613f
00000360: d074 7b3f f4a9 9f3f 1631 8b3f c842 823f
00000370: 2d5a f63e 8f90 823f 0d12 8a3f 3a92 9a3f
00000380: 72c1 e83d 61ea c43d 83f9 353d fe0e 093f
00000390: ec89 86be 92d6 d23d 3d9d 943d 8a14 7d3e
000003a0: a47d bd3d c72e f13e 9129 35be af1a 5dbe
000003b0: 03fc d5bd 80ff 233e 9df4 003f 6cf8 993d
000003c0: ab69 81be 3a9c a23d c4e9 15bf 39e1 a7be
000003d0: 9d69 a93d 008a 093f 1b25 42bd 9862 abbd
000003e0: 50c2 9bbe 628e 0ebb d042 793d 08cd 7d3c
000003f0: 687f f6bc 2039 b3bd 4fba d0bd 786a d7bd

action_model._discrete_distribution.branches.0.bias f4 [6]
0.6088935 -1.2852411 -0.051845856 0.75186497 -0.18528971 0.8458662
00000000: 72e0 1b3f c882 a4bf 525c 54bd 397a 403f
00000010: 96bc 3dbe b08a 583f

action_model._discrete_distribution.branches.0.weight f4 [6, 32]
-1.4824286 0.38404235 -2.2660787 -1.2037795 -0.792606 0.4092782 -1.6820139 0.875721
-0.57972 0.8890871 -2.1086657 1.6642241 -0.8850637 -0.1580712 1.3076811 0.7685245
0.32484657 1.0560081 -0.8882011 0.9261272 1.2063974 0.15382744 -0.2892999 -0.6022272
0.12157346 -0.9371203 -0.011378355 -0.15135749 2.459182 -1.4856944 -1.9534137 -0.79949504
-0.67888165 -1.3833556 -1.398231 -0.53967386 -1.2281712 1.6654104 -0.79269755 -2.1894298
-0.0521916 -0.16187422 0.3518653 -0.8003775 0.43986553 0.9707751 0.4550322 2.062594
-0.36875317 -2.23744 -2.2675796 -0.6296264 2.5858278 1.9998877 0.94627285 3.1953392
0.582339 0.82650137 -0.60658896 -1.8417587 -2.75141 0.92296517 0.26932356 0.20287244
0.36662078 0.5726216 1.77294 -0.24860613 -2.343044 -0.51796705 1.372918 -3.1150088
1.3608792 0.07880367 -0.2497907 0.1485251 -1.7903433 1.2436846 0.8644198 -0.33598843
-1.1835791 0.14310592 1.4071364 -0.15493196 -0.60113156 0.22489871 -1.227619 -0.3169124
-0.42597967 0.6560833 -1.051854 1.2056391 -0.6681149 1.0810844 -0.7625108 0.6030082
-0.5606992 -0.05951327 0.48923844 0.5519712 1.8959465 0.5315051 0.52782726 -0.57930505
-1.0132399 0.0080826925 -0.376919 0.36719224 -0.33372077 0.16539276 -1.7288632 -3.5026045
-0.36424547 -0.1942362 -0.9099009 -1.7098511 -1.0166864 -2.3875916 -0.58177483 -1.4060009
-1.0416842 1.2751826 0.057045687 1.2778239 -2.5637887 0.07149733 1.5004957 -1.0359775
0.9109082 0.1551613 1.103199 0.3580204 2.651608 -0.8785187 0.49495235 0.7150348
-0.32538968 -0.3736484 0.36732253 -0.78720516 3.1998227 -0.5459686 -0.8884992 2.2774322
-0.19389236 0.23151651 -0.92653984 -1.1662087 -0.06707517 1.8474393 0.2900194 -0.88220346
-1.328392 -0.23999937 -1.0796957 -0.46907988 0.44537175 -0.5874174 0.8838257 0.87568104
-0.22854903 -0.7187332 -1.5975107 -0.7721422 -0.08139563 0.39313942 -0.77193576 1.0566981
1.9081272 0.5057832 -1.1316593 1.5822102 -0.62386596 1.2467718 0.708175 -1.3462372
-0.6446626 1.0600024 3.3223336 1.5809691 0.20544556 -2.2512052 -0.120081455 1.7340324
1.4437099 -0.54462487 0.90032643 1.1576279 -1.3108588 0.4275297 -0.8426399 1.1181365
00000000: 38c0 bdbf 33a1 c43e 6f07 11c0 7215 9abf
00000010: 3ae8 4abf ea8c d13e 3b4c d7bf 402f 603f
00000020: 8868 14bf 369b 633f 61f4 06c0 4c05 d53f
00000030: 8993 62bf 6bdd 21be 1862 a73f 06be 443f
00000040: 4a52 a63e 462b 873f 2661 63bf ac16 6d3f
00000050: 3b6b 9a3f f184 1d3e 1e1f 94be 902b 1abf
00000060: 82fb f83d 1ee7 6fbf 486c 3abc 75fd 1abe
00000070: 3d63 1d40 3c2b bebf 7609 fabf b5ab 4cbf
00000080: 30cb 2dbf cc11 b1bf 3cf9 b2bf 1128 0abf
00000090: b734 9dbf 2b2c d53f 3aee 4abf 9e1f 0cc0
000000a0: dcc6 55bd 5bc2 25be b027 b43e 8ae5 4cbf
000000b0: 0e36 e13e b884 783f fbf9 e83e 8a01 0440
000000c0: 37cd bcbe 3832 0fc0 0620 11c0 322f 21bf
000000d0: 347e 2540 52fc ff3f f03e 723f 7080 4c40
000000e0: 2b14 153f 9895 533f 6a49 1bbf c0be ebbf
000000f0: 1a17 30c0 7247 6c3f c7e4 893e cbbd 4f3e
00000100: b8b5 bb3e 5497 123f b3ef e23f 9b92 7ebe
00000110: 6ff4 15c0 7d99 04bf c7bb af3f 4e5c 47c0
00000120: 4a31 ae3f d263 a13d 22c9 7fbe f716 183e
00000130: f829 e5bf 0f31 9f3f 9e4a 5d3f ad06 acbe
00000140: 857f 97bf 5c8a 123e 0c1d b43f 7ca6 1ebe
00000150: c2e3 19bf d94b 663e 9f22 9dbf 5842 a2be
00000160: 021a dabe 13f5 273f 27a3 86bf 6252 9a3f
00000170: 9409 2bbf f960 8a3f e833 43bf bf5e 1a3f
00000180: fc89 0fbf 30c4 73bd 767d fa3e fc4d 0d3f
00000190: 60ae f23f b810 083f b01f 073f 564d 14bf
000001a0: d8b1 81bf 456d 043c 87fb c0be 9f00 bc3e
000001b0: 73dd aabe b85c 293e 644b ddbf ac2a 60c0
000001c0: 627e babe dbe5 46be 44ef 68bf 67dc dabf
000001d0: c822 82bf 4dce 18c0 32ef 14bf d6f7 b3bf
000001e0: e855 85bf 2f39 a33f bda8 693d bc8f a33f
000001f0: 1d15 24c0 316d 923d 3e10 c03f e99a 84bf
00000200: 4831 693f 9be2 1e3e a035 8d3f 734e b73e
00000210: f2b3 2940 9ae6 60bf 656a fd3e 850c 373f
00000220: 7a99 a6be d84e bfbe b311 bc3e 4786 49bf
00000230: e5c9 4c40 99c4 0bbf af74 63bf 73c1 1140
00000240: b88b 46be aa12 6d3e b731 6dbf 5446 95bf
00000250: b55e 89bd e478 ec3f 6c7d 943e 16d8 61bf
00000260: c008 aabf 65c2 75be 7833 8abf 3d2b f0be
00000270: c407 e43e fd60 16bf 6742 623f a22c 603f
00000280: c208 6abe e6fe 37bf 3b7b ccbf 1cab 45bf
00000290: c1b2 a6bd 9249 c93e 959d 45bf e241 873f
000002a0: 833d f43f 027b 013f 36da 90bf dd85 ca3f
000002b0: aeb5 1fbf 3896 9f3f f54a 353f 8051 acbf
000002c0: 9c08 25bf 29ae 873f 1da1 5440 325d ca3f
000002d0: 5260 523e bf13 10c0 44ed f5bd c6f4 dd3f
000002e0: 7ccb b83f 896c 0bbf cb7b 663f 272d 943f
000002f0: 39ca a7bf 2ce5 da3e 40b7 57bf 191f 8f3f

network_body.linear_encoder.seq_layers.0.bias f4 [256]
-0.03758545 0.0017739431 0.039083313 0.045455456 -0.004357065 0.040760074 -0.02919686 -0.036360495
0.018992404 0.07981753 0.03535906 0.059478696 0.0025454145 -0.036092132 0.03981792 0.07015209
0.014378886 0.0044623474 0.026876863 -0.03788856 -0.02348016 0.0005954198 0.041210804 -0.048575547
-0.0032407918 0.033165757 0.10573748 0.09373246 0.010689142 -0.0013406667 0.03127776 0.0008729063
-0.020597732 0.03760367 -0.04307467 0.03443792 -0.00039060568 0.0033537855 0.04002604 0.0031187534
0.014099091 -0.026202578 -0.07954014 0.022886524 -0.03564363 -0.078703344 0.043512683 -0.046133474
-0.0291976 0.05262982 -0.0065448163 0.026249984 0.0003718864 0.0032217358 2.649323e-06 -0.042211253
0.042311575 -0.029592032 0.004007224 -0.033462666 -0.04409841 0.016420433 -0.03441197 -0.0018492608
-0.028236097 -0.016222939 -0.05289779 -0.0047020023 0.072498836 -0.0975387 -0.026763856 -0.0021834548
-0.012838026 -0.029782105 0.030667331 -0.07966186 -0.0071936236 0.015606363 -0.042198945 0.012303294
-0.030383745 0.047145844 -0.01330055 -0.0064796745 0.0012098369 -0.0075019123 0.021478526 0.029208736
-0.0047786506 -0.039060578 -0.01541837 0.026539085 0.017510496 -0.0001413203 -0.08086195 0.060421854
-0.024295285 0.001980079 -0.00943445 -0.057290334 0.016110443 0.033601515 0.050822914 0.04067091
0.043689582 -0.053638868 0.037219092 -0.11031329 -0.03977491 0.042546824 0.020472648 -0.038948935
0.035341643 0.022368927 0.01392423 0.09493041 -0.0003921427 -0.018288653 0.0011580007 0.0061439285
-0.014382214 0.0054727453 0.08441525 -0.0013313103 0.03730738 -0.0019593304 0.046563473 -0.043356527
0.03583568 0.04273802 0.07018934 0.020678295 0.032589115 -0.024716657 0.044207826 -0.0009549127
-0.0074198428 -0.041673284 -0.00055074715 -0.0074138204 0.02671435 -0.04179363 -0.037434436 0.026633995
0.029358122 0.004063718 -0.0059058093 0.04041571 -0.0008658296 -0.010780672 0.0040887413 0.032489467
0.006572577 -0.0029854644 -0.0610628 -0.08603893 -0.051064733 0.028624002 -0.04455824 -0.054974865
0.030754438 -0.030136839 0.040372904 -0.024063133 -0.0963234 -0.023166243 -0.030935723 0.00047976561
0.040380597 0.05587743 0.005130782 0.009398637 0.0016828056 -0.088237606 0.06506061 0.013314376
-0.001334353 -0.031963028 0.0028178548 0.00658762 -0.042150244 0.0010415415 -0.0037787773 0.03968602
0.008423394 0.0012307187 0.042135574 -0.035454065 -0.04601004 -0.09523665 0.047847647 -0.10354355
0.012477502 -0.03436257 -0.018095052 -0.035169825 0.04541455 -0.001632808 -0.00014204314 -0.001983138
-0.006166494 0.041884303 -0.0011624419 -0.07943747 -0.017467456 0.0294176 0.0006913219 0.023622159
0.08503193 0.016502673 0.017435642 0.015002233 0.027124505 -0.0009985077 0.015177002 -0.053030044
0.039572477 0.0510853 0.038280275 -0.026477877 0.023797056 0.0026240433 0.0015666375 -0.040428717
-0.043214735 -0.037230723 -0.028941596 0.023605708 -0.03779822 -0.047489244 0.025985472 0.04003518
0.016690694 0.03827199 0.09144131 0.10488301 -0.004284628 0.000597325 0.03951878 0.043073196
0.019021008 -0.013436036 0.03976531 -0.016181665 0.0020712635 0.0058295005 -0.0011345195 -0.005991024
0.06521878 -0.041411873 0.038873244 -0.02787083 0.0033757498 0.020824147 -0.0031705056 -0.03166587
00000000: 33f3 19bd a783 e83a d315 203d 802f 3a3d
00000010: b6c5 8ebb 09f4 263d 412e efbc beee 14bd
00000020: f595 9b3c 6077 a33d a9d4 103d ef9f 733d
00000030: f8d0 263b 58d5 13bd 1e18 233d e6ab 8f3d
00000040: 6b95 6b3c e238 923b de2c dc3c 0931 1bbd
00000050: 7759 c0bc f215 1c3a a9cc 283d 27f7 46bd
00000060: 7763 54bb d1d8 073d e48c d83d cef6 bf3d
00000070: 8321 2f3c 4fb9 afba 1c1d 003d c0d3 643a
00000080: 93bc a8bc 4e06 1a3d 116f 30bd c70e 0d3d
00000090: 35ca ccb9 2fcb 5b3b 58f2 233d 0064 4c3b
000000a0: e0ff 663c caa6 d6bc f1e5 a2bd 857c bb3c
000000b0: 0eff 11bd 382f a1bd 5b3a 323d 74f6 3cbd
000000c0: ce2f efbc 5e92 573d e675 d6bb 350a d73c
000000d0: bff9 c239 c223 533b 06cb 3136 b5e5 2cbd
000000e0: e74e 2d3d fd6a f2bc 084f 833b 2610 09bd
000000f0: 89a0 34bd 2584 863c 91f3 0cbd e562 f2ba
00000100: 634f e7bc f8e5 84bc 5aab 58bd 4113 9abb
00000110: 457a 943d 5fc2 c7bd e03f dbbc 4b18 0fbb
00000120: 9556 52bc 9af9 f3bc 0e3a fb3c c225 a3bd
00000130: 7db8 ebbb d5b1 7f3c cdd8 2cbd c193 493c
00000140: 55e7 f8bc 001c 413d 8dea 59bc 7353 d4bb
00000150: 6493 9e3a 9ad2 f5bb bcf3 af3c 2947 ef3c
00000160: 3a96 9cbb fcfd 1fbd 559d 7cbc 7f68 d93c
00000170: 2c72 8f3c 612f 14b9 f39a a5bd e87c 773d
00000180: e806 c7bc 37c4 013b f492 1abc 45a9 6abd
00000190: 0cfa 833c bea1 093d b02b 503d 8a96 263d
000001a0: d9f3 323d 6eb4 5bbd 0c73 183d efeb e1bd
000001b0: 04eb 22bd 9445 2e3d 41b6 a73c eb88 1fbd
000001c0: 66c2 103d 0a3f b73c 7422 643c e06a c23d
000001d0: 8198 cdb9 16d2 95bc 0ec8 973a 0253 c93b
000001e0: 61a3 6bbc b754 b33b e7e1 ac3d 5c7f aeba
000001f0: a0cf 183d 1c68 00bb 57b9 3e3d 9d96 31bd
00000200: 6fc8 123d 100e 2f3d 6ebf 8f3d 8765 a93c
00000210: 2a7c 053d 967a cabc 4413 353d 1b53 7aba
00000220: 2722 f3bb 9bb1 2abd 0460 10ba a2ef f2bb
00000230: 0dd8 da3c cc2f 2bbd da54 19bd 892f da3c
00000240: 7280 f03c f028 853b 8585 c1bb f28a 253d
00000250: d7f8 62ba 6aa1 30bc d9fa 853b ad13 053d
00000260: c65e d73b c8a7 43bb fd1c 7abd 2e35 b0bd
00000270: 4129 51bd e27c ea3c b382 36bd 532d 61bd
00000280: bbf0 fb3c 88e1 f6bc 0f5e 253d 0c20 c5bc
00000290: 3445 c5bd 22c7 bdbc ea6c fdbc 0d89 fb39
000002a0: 2066 253d bbdf 643d 1e20 a83b befc 193c
000002b0: 9691 dc3a ebb5 b4bd 7f3e 853d 8a24 5a3c
000002c0: 75e5 aeba aaeb 02bd c2ab 383b f6dc d73b
000002d0: bca5 2cbd 5584 883a 5da5 77bb cf8d 223d
000002e0: 4602 0a3c 1150 a13a 5a96 2c3d 4838 11bd
000002f0: 0675 3cbd 6f0b c3bd e5fb 433d a40e d4bd
00000300: 706e 4c3c c4bf 0cbd 133c 94bc 3c0e 10bd
00000310: 9b04 3a3d f203 d6ba 6af1 14b9 89f7 01bb
00000320: 4d10 cabb e08e 2b3d 145d 98ba 1db0 a2bd
00000330: e917 8fbc 2efd f03c d439 353a 4283 c13c
00000340: 3825 ae3d 9d30 873c 31d5 8e3c edcb 753c
00000350: 3634 de3c 5ce0 82ba f6a8 783c 0836 59bd
00000360: c016 223d d23e 513d c7cb 1c3d 22e8 d8bc
00000370: 0bf2 c23c 24f8 2b3b a257 cd3a 9598 25bd
00000380: ef01 31bd 3e7f 18bd ed16 edbc c260 c13c
00000390: 4ed2 1abd 1584 42bd 7cdf d43c eefb 233d
000003a0: ecba 883c 17c3 1c3d 9545 bb3d e7cc d63d
000003b0: 1166 8cbb cd95 1c3a 72de 213d 856d 303d
000003c0: f2d1 9b3c d222 5cbc f3e0 223d 698f 84bc
000003d0: 09be 073b 6505 bf3b 28b4 94ba 5a50 c4bb
000003e0: 6c91 853d 7f9f 29bd 8d39 1f3d 5e51 e4bc
000003f0: af3b 5d3b 6797 aa3c 42c8 4fbb 12b4 01bd

network_body.linear_encoder.seq_layers.0.weight f4 [256, 247]
0.006909093 0.05079483 0.09591154 0.010115851 0.014394664 -0.047772326 0.025509838 0.009731084
0.048214756 -0.0696275 -0.02355775 -0.09588761 -0.059105005 -0.026840726 0.014477836 -0.14730746
-0.04510815 -0.044136323 -0.034058634 0.027217103 0.085452594 -0.08808311 0.015097007 0.04330269
0.15632288 -0.08567308 0.07990437 0.05646724 -0.032406863 -0.033399526 0.12274274 -0.008019415
0.1121081 -0.042428184 -0.08198933 0.096830636 -0.02766878 0.016937839 0.016737109 0.14518444
0.14210567 0.14762469 0.034445725 -0.07834722 0.054773115 0.022148132 -0.01573389 0.048213467
-0.0284465 -0.055281553 0.044424955 -0.0103035 0.10823353 0.056037094 -0.054272164 0.009504958
0.1044519 -0.0811735 0.030629937 0.028646214 -0.0392434 0.0756839 0.08605372 0.008339046
0.072157085 -0.16128598 0.09085782 0.17581667 0.032036964 -0.026717164 0.016069405 -0.063771375
-0.024722632 -0.01165922 -0.05921759 0.07571878 0.021471102 -0.06346804 0.021730054 -0.03896551
-0.026114488 0.081430025 -0.15858744 0.041569483 9.396646e-05 -0.0718826 -0.0729555 -0.13424347
-0.063475765 -0.046418503 -0.106132366 -0.0017276471 -0.03351895 -0.046802014 0.00079419004 -0.08865266
0.008858074 0.018516012 -0.009968321 0.125975 0.062068447 -0.019671505 -0.10412472 0.0916484
-0.10732122 0.058763817 -0.047325596 -0.06532645 0.106695 0.03875371 -0.044400427 0.045336068
0.01685422 0.04966756 0.009961907 -0.053087432 0.12505804 -0.051380415 0.008692274 -0.0015719513
0.14821039 -0.0067015365 -0.056538984 -0.01849471 -0.060995556 0.05835686 -0.07701651 0.11339955
-0.062111516 -0.09135915 0.009278706 -0.03681346 -0.004212468 -0.09628565 -0.043796193 -0.036536988
0.063025355 0.07280633 0.028870933 0.00459769 -0.008631087 -0.046891388 0.0019709852 0.109529324
-0.033166464 0.041912954 -0.045007948 -0.023003507 0.0319659 -0.046264045 0.12355696 0.02275092
0.06362899 0.07799397 -0.0809685 -0.15301125 0.092597924 0.094538525 -0.13408355 0.11375888
0.05092083 0.043267835 0.07733877 0.1058946 0.010598541 -0.022349276 -0.14441034 0.020724224
0.107474 0.073355295 -0.042704202 -0.03719786 -0.094169244 0.03436064 -0.013573973 -0.05053553
-0.02898323 0.025487764 -0.043215334 -0.0012671162 -0.0041932985 -0.051321432 0.013862608 -0.083001025
-0.010885939 0.02996958 -0.04243116 -0.016099289 -0.0024026423 0.06073892 -0.07065642 -0.0029231466
-0.030461498 -0.04168457 0.14743772 -0.020155057 -0.083208814 -0.08500334 0.030845854 -0.026932308
0.016823774 -0.022584112 0.051767897 0.0026874267 -0.038087584 0.048497047 -0.049947932 0.05888039
-0.06397959 0.10957076 -0.010126968 -0.015867857 -0.017055659 -0.074038066 0.018969357 -0.030500162
-0.06551925 -0.056773223 0.066644244 0.13705441 -0.04094572 -0.0061815428 0.08433762 -0.010157088
-0.0015295813 0.00439186 0.018745692 0.022432566 -0.034705922 -0.019023336 0.045667116 0.057425115
-0.15510368 -0.023941884 -0.06154284 -4.0120212e-05 0.13631365 0.09101416 0.05305408 0.035935123
0.00044424224 0.019184148 0.037769053 -0.07376831 -0.009774811 -0.10670931 0.041492462 -0.11326269
-0.0061487104 0.09330665 -0.090948686 -0.015699333 0.0037310428 0.04174827 0.01687196 -0.10948645
00000000: ac65 e23b 3d0e 503d 456d c43d f4bc 253c
00000010: 99d7 6b3c eaac 43bd 02fa d03c 206f 1f3c
00000020: d67c 453d dd98 8ebd 2ffc c0bc b960 c4bd
00000030: 1718 72bd 15e1 dbbc 7234 6d3c c4d7 16be
00000040: 53c3 38bd 4ac8 34bd 1181 0bbd 67f6 de3c
00000050: c501 af3d eb64 b4bd 7059 773c 295e 313d
00000060: 1b13 203e 5e75 afbd e7a4 a33d 314a 673d
00000070: 0fbd 04bd f1cd 08bd 8c60 fb3d dd63 03bc
00000080: ee98 e53d 2dc9 2dbd 06ea a7bd 244f c63d
00000090: a3a9 e2bc 39c1 8a3c 431c 893c 3bab 143e
000000a0: 2684 113e ed2a 173e f616 0d3d 8274 a0bd
000000b0: c659 603d 0070 b53c 5ce4 80bc 7c7b 453d
000000c0: a208 e9bc e96e 62bd f1f6 353d 03d0 28bc
000000d0: 8aa9 dd3d 2787 653d 7d4c 5ebd afba 1b3c
000000e0: e1ea d53d 4b3e a6bd a2eb fa3c 77ab ea3c
000000f0: b0bd 20bd 2900 9b3d ef3c b03d 7ea0 083c
00000100: 18c7 933d 2728 25be aa13 ba3d 4909 343e
00000110: 3139 033d f4dd dabc fca3 833c 919a 82bd
00000120: 1e87 cabc 5006 3fbc 258e 72bd 7312 9b3d
00000130: 2ae4 af3c 88fb 81bd 3a03 b23c 4c9a 1fbd
00000140: 0dee d5bc c9c4 a63d bf64 22be c344 2a3d
00000150: dc0f c538 2f37 93bd b169 95bd 1f77 09be
00000160: 95ff 81bd 5421 3ebd ed5b d9bd 3872 e2ba
00000170: 2b4b 09bd 78b3 3fbd 3131 503a 878f b5bd
00000180: 7521 113c e4ae 973c 2b52 23bc 97ff 003e
00000190: 7c3b 7e3d 2326 a1bc 573f d5bd 28b2 bb3d
000001a0: 3acb dbbd 54b2 703d 7cd8 41bd e0c9 85bd
000001b0: e882 da3d 36bc 1e3d 39dd 35bd 50b2 393d
000001c0: dc11 8a3c 3670 4b3d 4437 233c 3572 59bd
000001d0: 370f 003e 4574 52bd 0a6a 0e3c ef09 ceba
000001e0: 77c4 173e 9098 dbbb 6c95 67bd 3882 97bc
000001f0: 7ad6 79bd 9a07 6f3d d5ba 9dbd 063e e83d
00000200: a568 7ebd 821a bbbd b705 183c b6c9 16bd
00000210: be08 8abb 6931 c5bd a363 33bd cfa7 15bd
00000220: 7013 813d 7c1b 953d bc82 ec3c 38a8 963b
00000230: 6769 0dbc 2f11 40bd a52b 013b e950 e03d
00000240: 8fd9 07bd ebac 2b3d 415a 38bd da71 bcbc
00000250: adee 023d 5e7f 3dbd 6e0b fd3d 2360 ba3c
00000260: ea4f 823d 4dbb 9f3d d0d2 a5bd fbae 1cbe
00000270: fba3 bd3d 6a9d c13d 334d 09be 6afa e83d
00000280: 5c92 503d 9d39 313d ca63 9e3d 45df d83d
00000290: 81a5 2d3c d415 b7bc 4ee0 13be d9c5 a93c
000002a0: 541b dc3d 4d3b 963d 9aea 2ebd c95c 18bd
000002b0: cedb c0bd bebd 0c3d 5f65 5ebc 58fe 4ebd
000002c0: 3d6e edbc b7cb d03c 9002 31bd 5d15 a6ba
000002d0: f067 89bb 6c36 52bd fe1f 633c 71fc a9bd
000002e0: f05a 32bc c482 f53c 4ccc 2dbd a8e2 83bc
000002f0: a675 1dbb 60c9 783d 50b4 90bd 4392 3fbb
00000300: 648a f9bc 71bd 2abd eaf9 163e 381c a5bc
00000310: 6269 aabd 3b16 aebd 72b0 fc3c 25a1 dcbc
00000320: 03d2 893c 5102 b9bc 930a 543d 8a1f 303b
00000330: ba01 1cbd d7a4 463d 3496 4cbd 902c 713d
00000340: bb07 83bd a266 e03d 95eb 25bc 4ffd 81bc
00000350: 4fb8 8bbc 45a1 97bd a065 9b3c 7adb f9bc
00000360: f52e 86bd 0a8b 68bd c77c 883d fe57 0c3e
00000370: b3b6 27bd 8a8e cabb 34b9 ac3d ea69 26bc
00000380: 3b7c c8ba 98e9 8f3b 9190 993c 80c4 b73c
00000390: cc27 0ebd d4d6 9bbc 710d 3b3d 9936 6b3d
000003a0: 80d3 1ebe c521 c4bc 5814 7cbd c046 28b8
000003b0: ce95 0b3e a265 ba3d 3c4f 593d b530 133d
000003c0: 2fe9 e839 1328 9d3c b9b3 1a3d d713 97bd
000003d0: 8726 20bc 698a dabd 00f4 293d 45f6 e7bd
000003e0: 1f7b c9bb 8f17 bf3d 4e43 babd e39b 80bc
000003f0: 8384 743b 3c00 2b3d 1137 8a3c 6f3a e0bd

network_body.linear_encoder.seq_layers.2.bias f4 [256]
-0.07416357 0.056420177 -0.19998914 -0.00553048 0.07287064 0.12234112 -0.042456917 -0.201547
0.10744264 0.14037812 -0.2213803 -0.2588224 0.08924657 -0.17450152 0.057395738 0.077963226
-0.21490316 -0.023611007 0.17101404 0.32514432 -0.6872984 0.1164585 -0.30608582 0.017240776
-0.2260912 0.00057423627 -0.023567695 0.23403408 -0.04345378 0.036583193 0.117915936 0.062754616
-0.10775935 -0.09283389 -0.08439539 -0.006543681 0.09394553 -0.18387967 0.0291431 -0.023884738
0.0074260663 0.14860192 0.16014317 0.21228479 0.076922245 -0.06788023 0.010186614 0.020559128
0.18757112 -0.4268408 -0.1588196 -0.19881926 0.13619116 -0.106498085 0.07421058 -0.14586589
-0.25319174 0.19056632 -0.09218038 -0.27711058 0.057175726 -0.36854824 0.1789708 0.11161308
-0.07447456 -0.06520591 -0.11455246 0.24241616 -0.11738699 -0.08198213 -0.043938406 -0.3059194
-0.13106398 -0.2606692 -0.17472593 -0.0018094297 -0.07920646 0.20676506 -0.13603643 -0.053526606
-0.2225164 0.009556028 -0.06374315 -0.027237553 -0.17033923 -0.025110539 0.007960047 0.060792867
-0.27205643 0.20016725 -0.29824898 -0.07960534 -0.08017608 0.31142935 -0.009236719 -0.26794374
-0.0061031757 0.094940804 -0.06011318 -0.16540617 -0.30786473 -0.48315635 -0.1019052 -0.4044058
-0.043863993 0.31340313 -0.31134593 -0.26116163 -0.35928917 -0.21836837 -0.0026429237 0.21046531
-0.15821679 0.13805637 0.0474173 -0.018183978 -0.17423744 -0.014813571 -0.21417679 -0.12262518
0.09930468 -0.22499694 0.036944184 -0.096054174 0.21341625 0.0373969 -0.22250915 -0.2798499
0.045937974 -0.20272638 -0.08100033 5.426683e-05 -0.2900315 0.2506806 -0.10677211 -0.009911031
0.007421579 -0.01570042 0.0028702868 -0.399393 -0.21670681 -0.08146071 0.077907875 -0.20998897
-0.04148851 0.06588636 0.14334288 0.009363445 -0.027417166 -0.06660804 -0.11385639 0.22252826
-0.091244794 0.093481794 0.15003726 -0.24466947 -0.27996048 -0.004709351 -0.059187774 -0.059646346
-0.18295468 0.19821827 0.07227402 0.24442354 -0.08729647 0.1447722 -0.02190455 0.028390417
-0.07545451 -0.067699715 -0.07239163 -0.12950785 0.051429555 -0.34621996 -0.24106024 -0.1303596
0.068697974 0.14966917 0.23478231 -0.3721482 0.22605662 -0.121728614 0.028844904 0.001761342
-0.1228716 -0.014462248 0.10857219 0.15733406 0.081193276 -0.19249421 -0.07631857 -0.04659973
-0.028738396 -0.002145359 0.2035574 -0.14196998 -0.2972842 -0.1307922 0.18500978 -0.29500687
-0.19001667 -0.18725361 0.057092518 0.18399058 0.028276797 -0.38025895 0.0029991479 0.16429998
0.06704998 0.04336594 0.0026807443 -0.13101548 0.016786488 -0.16537128 -0.4844102 -0.10822311
-0.26927847 -0.37920654 -0.034179013 0.22264704 -0.044730145 -0.1586488 0.12636308 0.109947026
0.075837806 -0.27662396 -0.34702823 0.036575366 0.028021857 -0.2473069 -0.04631861 0.27141112
-0.24681312 -0.1978103 -0.029932689 0.21200055 -0.04464936 0.21724439 0.036069747 -0.04841527
-0.23632886 0.11888073 -0.003427581 0.11083812 -0.13394082 0.21698558 -0.70271003 0.046555627
0.05512151 0.021871282 0.008799639 0.2328665 -0.16630316 -0.036289427 -0.22625098 -0.059331495
00000000: 12e3 97bd d818 673d f4c9 4cbe 0739 b5bb
00000010: 343d 953d fb8d fa3d 4ee7 2dbd 5662 4ebe
00000020: e30a dc3d 48bf 0f3e 84b1 62be 5f84 84be
00000030: e8c6 b63d 87b0 32be cb17 6b3d 2fab 9f3d
00000040: 930f 5cbe df6b c1bc 4e1e 2f3e 5179 a63e
00000050: caf2 2fbf cb81 ee3d 48b7 9cbe 873c 8d3c
00000060: 7484 67be 5888 163a 0a11 c1bc a1a6 6f3e
00000070: 97fc 31bd 42d8 153d e97d f13d 7e85 803d
00000080: efb0 dcbd b21f bebd 7dd7 acbd 606c d6bb
00000090: 8466 c03d f44a 3cbe 83bd ee3c eda9 c3bc
000000a0: 5c56 f33b 1a2b 183e 92fc 233e 2f61 593e
000000b0: 6989 9d3d ca04 8bbd c1e5 263c 9e6b a83c
000000c0: a512 403e e18a dabe 9ba1 22be 4797 4bbe
000000d0: b275 0b3e ab1b dabd b7fb 973d de5d 15be
000000e0: 59a2 81be d123 433e 11c9 bcbd 70e1 8dbe
000000f0: 1831 6a3d 5bb2 bcbe 1f44 373e 6695 e43d
00000100: 1e86 98bd ad8a 85bd 7b9a eabd f13b 783e
00000110: 9768 f0bd 3fe6 a7bd c2f8 33bd 78a1 9cbe
00000120: a335 06be 6f76 85be 5beb 32be 632a edba
00000130: ff36 a2bd 38ba 533e 224d 0bbe b73e 5bbd
00000140: 57db 63be e390 1c3c c58b 82bd 4a21 dfbc
00000150: 686d 2ebe 9eb4 cdbc db6a 023c f101 793d
00000160: fb4a 8bbe a5f8 4c3e 17b4 98be 2008 a3bd
00000170: 5b33 a4bd ab73 9f3e 9c55 17bc ec2f 89be
00000180: 26fd c7bb 5370 c23d 3d39 76bd 3c60 29be
00000190: 72a0 9dbe 4560 f7be acb3 d0bd 470e cfbe
000001a0: bbaa 33bd 6076 a03e bc68 9fbe fab6 85be
000001b0: c0f4 b7be f59b 5fbe e734 2dbb 3884 573e
000001c0: 9503 22be a65e 0d3e a538 423d 91f6 94bc
000001d0: 4d6b 32be 9fb4 72bc 2951 5bbe e922 fbbd
000001e0: 4160 cb3d 9965 66be c952 173d 0db8 c4bd
000001f0: ca89 5a3e 7e2d 193d 70d9 63be 7c48 8fbe
00000200: 7529 3c3d 8197 4fbe 80e3 a5bd 919c 6338
00000210: 027f 94be 3559 803e 56ab dabd e161 22bc
00000220: b830 f33b 2b9e 80bc 6c1b 3c3b 3d7d ccbe
00000230: 64e8 5dbe dfd4 a6bd 2a8e 9f3d 5907 57be
00000240: dbef 29bd 6eef 863d 7ac8 123e 2369 193c
00000250: f799 e0bc cc69 88bd 8a2d e9bd 73de 633e
00000260: 8dde babd 6273 bf3d 5ea3 193e a28a 7abe
00000270: fb56 8fbe e650 9abb e16e 72bd ba4f 74bd
00000280: 7958 3bbe bbf9 4a3e 6704 943d 2a4a 7a3e
00000290: 7ec8 b2bd 2a3f 143e 2c71 b3bc 0593 e83c
000002a0: e587 9abd 26a6 8abd 1042 94bd b59d 04be
000002b0: cca7 523d be43 b1be 7fd8 76be fd7c 05be
000002c0: 86b1 8c3d e042 193e c66a 703e 358a bebe
000002d0: 637b 673e da4c f9bd 264c ec3c d5dc e63a
000002e0: 1ba4 fbbd 11f3 6cbc 195b de3d 2e1c 213e
000002f0: a948 a63d 341d 45be e94c 9cbd 5cdf 3ebd
00000300: c96c ebbc 2799 0cbb 5a71 503e 9460 11be
00000310: a235 98be 64ee 05be 3473 3d3e 240b 97be
00000320: bb93 42be 69bf 3fbe d8d9 693d 0768 3c3e
00000330: bea4 e73c 4db1 c2be 5a8d 443b 413e 283e
00000340: 8051 893d 7ca0 313d 6daf 2f3b ec28 06be
00000350: d183 893c 1757 29be 9d04 f8be 14a4 ddbd
00000360: dede 89be 5c27 c2be 4bff 0bbd 96fd 633e
00000370: f536 37bd d574 22be 5365 013e e82b e13d
00000380: da50 9b3d a8a1 8dbe afad b1be 0dd0 153d
00000390: 188e e53c 053e 7dbe 95b8 3dbd 66f6 8a3e
000003a0: 94bc 7cbe c98e 4abe 6635 f5bc ac16 593e
000003b0: 3fe2 36bd 5075 5e3e dfbd 133d 174f 46bd
000003c0: 3100 72be bd77 f33d 44a1 60bb 19ff e23d
000003d0: c827 09be 7831 5e3e cee4 33bf 1db1 3e3d
000003e0: 18c7 613d 672b b33c 5c2c 103c 8e74 6e3e
000003f0: 604b 2abe 39a4 14bd 56ae 67be 9505 73bd

network_body.linear_encoder.seq_layers.2.weight f4 [256, 256]
0.22316587 -0.09471032 -0.057370856 -0.1016801 -0.06322716 -0.005674081 0.0730828 0.03180031
0.10303935 -0.013151217 -0.098433875 0.12841798 -0.1221562 0.008003416 0.014156531 0.07466612
0.123695955 0.045332663 0.03315057 -0.120703906 0.08458561 0.06418695 -0.1953392 -0.026466163
0.083961934 0.074626766 -0.12968552 -0.15494844 0.008066033 0.068357535 -0.13885164 -0.040593028
0.08272177 -0.13809666 0.06589354 0.06991647 -0.043117534 -0.072382875 0.022908414 0.07495081
-0.054186072 0.013517001 0.1434044 0.04029441 0.020578489 0.06315074 -0.08496847 0.20873734
-0.036934145 -0.10561395 0.06299783 0.030095529 -0.10164721 0.14732574 0.057578024 0.051414642
0.06330446 0.044105846 -0.053080723 0.051396664 0.02520739 -0.16676667 -0.053923972 -0.03914829
0.1312519 0.09721879 0.050847515 -0.0044184984 0.02436975 0.17281742 -0.04934848 -0.06249078
-0.08611141 -0.050994325 0.014059998 0.14081867 -0.0033282721 0.041647427 0.1478395 -0.07520666
0.23717822 -0.030584427 0.029483085 0.038176868 -0.06637293 0.013037565 -0.08874707 -0.101780936
-0.011796259 0.10726048 0.05474994 -0.05953813 0.06346357 -0.05947866 0.08429293 0.054048683
0.066135615 -0.13544503 -0.02932929 -0.06014604 -0.02567161 -0.04777343 -0.09606567 -0.07143079
-0.04807241 0.056053758 -0.18812577 -0.09422149 -0.06314912 -0.17817302 -0.17604694 -0.118480444
0.065955244 -0.00656184 -0.18432799 -0.0159719 0.17523885 0.20493163 -0.06510396 -0.10609653
0.038221613 -0.08722892 0.0219034 0.039323207 -0.0060481634 0.09243944 0.005315787 -0.018638453
-0.096985005 -0.1131144 -0.06827683 0.0095835095 -0.06807943 0.11027845 -0.019451058 0.17577747
0.050662357 0.22924958 -0.093140714 0.07135897 -0.04621621 0.011099947 0.11650861 0.095126696
0.16804607 0.062885426 0.020105721 -0.073814 -0.09774772 0.036810245 -0.07018926 0.008498952
0.07358753 -0.07079716 0.1553182 0.17005533 0.099395685 -0.10622382 0.011233695 0.13938956
-0.26386565 0.0063182344 -0.023070453 -0.010746115 0.07525976 0.13762149 0.03557352 -0.04148197
-0.075001076 -0.11638162 -0.091914095 0.02781262 -0.0330208 0.08698265 -0.00097391254 -0.14574564
0.094384715 -0.2083314 0.03410273 -0.0043931142 0.07851855 -0.15130842 0.022085868 0.055129223
-0.056830827 -0.0045570885 -0.065513305 -0.0018601392 0.13083167 -0.036011424 0.18111593 -0.033112124
0.1450282 0.024658661 0.1326316 -0.019413594 -0.07636685 -0.039341565 0.21454409 0.11062472
-0.2635194 -0.017445732 -0.04013818 0.13737823 -0.03412701 -0.106562674 0.055047136 0.056941826
-0.076365136 0.0014261373 -0.24231993 -0.10529947 0.0776167 -0.13706417 -0.16172713 -0.008476337
-0.25803557 -0.033533394 0.0087603275 0.050667863 0.00748164 -0.083211355 0.09040812 -0.10219917
0.18330237 0.00092448026 0.09228297 -0.015943814 0.16653351 -0.11749961 -0.02355669 0.009869348
-0.06326717 0.05112905 -0.035358224 -0.00092951866 -0.019645445 -0.11380796 -0.117400594 -0.0013943976
-0.0641863 0.097494625 -0.0053195194 0.1659215 -0.110684566 -0.057717383 0.07343658 0.1462878
0.017711913 0.013939183 0.012095128 -0.06693881 0.01637113 -0.011061484 0.13490748 0.14969665
00000000: 9885 643e 7cf7 c1bd b4fd 6abd a83d d0bd
00000010: 3e7d 81bd a4ed b9bb 6fac 953d 0b41 023d
00000020: 4b06 d33d 3478 57bc b397 c9bd 0180 033e
00000030: 082d fabd c220 033c cbf0 673c 8dea 983d
00000040: 4e54 fd3d beae 393d e4c8 073d 9c33 f7bd
00000050: 383b ad3d 7374 833d 0007 48be 91cf d8bc
00000060: 3cf4 ab3d ebd5 983d 48cc 04be ceaa 1ebe
00000070: 6527 043c 09ff 8b3d 202f 0ebe e044 26bd
00000080: 086a a93d 3669 0dbe 31f3 863d 5e30 8f3d
00000090: 039c 30bd 793d 94bd 6daa bb3c cf7f 993d
000000a0: 37f2 5dbd 6976 5d3c 9ad8 123e c00b 253d
000000b0: 3894 a83c 2d55 813d f303 aebd 3ebf 553e
000000c0: 4248 17bd 204c d8bd 0205 813d e68a f63c
000000d0: 6a2c d0bd 8fdc 163e efd6 6b3d 2998 523d
000000e0: c5a5 813d 55a8 343d 2c6b 59bd 4f85 523d
000000f0: ba7f ce3c e2c4 2abe 62df 5cbd f559 20bd
00000100: e666 063e a51a c73d 7c45 503d 0dc9 90bb
00000110: 12a3 c73c 0df7 303e a221 4abd 55f6 7fbd
00000120: 2e5b b0bd 6ddf 50bd e85b 663c c532 103e
00000130: 241f 5abb 7e96 2a3d 3d63 173e f305 9abd
00000140: d9de 723e 318c fabc 8386 f13c 595f 1c3d
00000150: 88ee 87bd 839b 553c 06c1 b5bd 8672 d0bd
00000160: 1945 41bc 62ab db3d 7941 603d 41de 73bd
00000170: 30f9 813d e59f 73bd c6a1 ac3d 2762 5d3d
00000180: 1c72 873d 1ab2 0abe fb43 f0bc b25b 76bd
00000190: 454d d2bc 12ae 43bd 14be c4bd 4e4a 92bd
000001a0: 93e7 44bd a098 653d 0ba4 40be 32f7 c0bd
000001b0: 5354 81bd fd72 36be a645 34be e0a5 f2bd
000001c0: 8b13 873d b404 d7bb 7ac0 3cbe 81d7 82bc
000001d0: d071 333e 99d9 513e 3a55 85bd 2349 d9bd
000001e0: 448e 1c3d 13a5 b2bd c26e b33c 5f11 213d
000001f0: ac2f c6bb e450 bd3d 0e30 ae3b abaf 98bc
00000200: 13a0 c6bd 86a8 e7bd b9d4 8bbd 2704 1d3c
00000210: 3a6d 8bbd abd9 e13d d357 9fbc 02ff 333e
00000220: 5583 4f3d 67c0 6a3e 8fc0 bebd a724 923d
00000230: 354d 3dbd 8ddc 353c 119c ee3d c9d1 c23d
00000240: 4514 2c3e 13ca 803d c1b4 a43c cb2b 97bd
00000250: f52f c8bd 57c6 163d 63bf 8fbd 303f 0b3c
00000260: 0fb5 963d 1afe 90bd bc0b 1f3e fc22 2e3e
00000270: f78f cb3d e08b d9bd 880d 383c 23bc 0e3e
00000280: 6619 87be 3109 cf3b 3ffe bcbc 7910 30bc
00000290: ca21 9a3d a6ec 0c3e 8ab5 113d 00e9 29bd
000002a0: 2a9a 99bd 7d59 eebd 753d bcbd 4bd7 e33c
000002b0: d240 07bd f623 b23d 2a4e 7fba 583e 15be
000002c0: c64c c13d d454 55be 4eaf 0b3d 1df4 8fbb
000002d0: 55ce a03d 98f0 1abe 6ced b43c 2ecf 613d
000002e0: 71c7 68bd a153 95bb d72b 86bd eacf f3ba
000002f0: bdf8 053e b780 13bd 7476 393e 94a0 07bd
00000300: 4682 143e f600 ca3c 94d0 073e 4209 9fbc
00000310: 3966 9cbd 9f24 21bd 72b1 5b3e 378f e23d
00000320: 04ec 86be 5aea 8ebc ef67 24bd e1ac 0c3e
00000330: c3c8 0bbd 883d dabd 1b79 613d d53b 693d
00000340: 5365 9cbd 3aed ba3a b722 78be 40a7 d7bd
00000350: 81f5 9e3d 8d5a 0cbe cc9b 25be 56e0 0abc
00000360: 3d1d 84be 505a 09bd 7a87 0f3c 1b89 4f3d
00000370: 8c28 f53b b76a aabd e427 b93d cc4d d1bd
00000380: 9eb3 3b3e d258 723a dbfe bc3d 9a9c 82bc
00000390: c387 2a3e a3a3 f0bd f6f9 c0bc 0cb3 213c
000003a0: 3892 81bd b26c 513d c9d3 10bd f1aa 73ba
000003b0: 7cef a0bc 2614 e9bd b96f f0bd 38c4 b6ba
000003c0: 1b74 83bd 43ab c73d 5d4f aebb 53e7 293e
000003d0: 97ae e2bd 1069 6cbd eb65 963d 78cc 153e
000003e0: 9318 913c 2c61 643c a52a 463c 3717 89bd
000003f0: bf1c 863c 3a3b 35bc 3025 0a3e 144a 193e
